results/run002/actor_1_net.pt (torch_old, 580506 bytes, 10 tensors)

BN1.weight f4 [24]
00000000: f428 f33e 35ee d53e 5e76 d03c 5411 f23e
00000010: 4c37 823f c2cc b33f 9ea6 253f bede 993e
00000020: fb98 003f ac3d eb3d c415 b33e 28e7 0e3f
00000030: 5999 a33d 721f 233f 1c76 583e 046e 353e
00000040: 1a54 1c3f 605f 5b3f 4851 5fbe 5b7a 0d3f
00000050: e41e a73f 7429 8b3f eff7 823e 2ffd 043f
0.47492182 0.417833 0.025447067 0.47278845 1.0173125 1.4046862 0.6470736 0.3005275
0.5023343 0.11486372 0.34977543 0.55821466 0.07988233 0.63719857 0.21138805 0.17717749
0.6106583 0.85692406 -0.2180835 0.55264825 1.3056302 1.0872025 0.25579783 0.5194883

BN1.bias f4 [24]
00000000: 05c0 90be 98f9 d1be 27bf eebc 3e0e 8abd
00000010: 9e4d 53bc 8d23 8f3e 064f 2d3d e06d cc3c
00000020: 09f6 763e b93e 9dbc 19af 683e ebf5 21be
00000030: 6386 e93d acc4 9d3d 8fe9 6c3e bb23 d6bd
00000040: a70c 0abe ed69 e7be 1e0f e53d e661 65be
00000050: bf19 1e3d c0cb f93e 1003 2cbd 42a8 95be
-0.282715 -0.41010737 -0.029143883 -0.06740998 -0.012896923 0.2795681 0.04231169 0.024954736
0.24117292 -0.019194948 0.22723044 -0.15816467 0.11402585 0.07703528 0.2313597 -0.10456034
-0.13481389 -0.45198002 0.11184524 -0.22400627 0.038598772 0.4878826 -0.041995108 -0.29229933

BN1.running_mean f4 [24]
00000000: 0375 11c1 5ef4 1ebf 0270 683f 746d 8f3b
00000010: c072 0d3e 3595 7940 0270 683f 746d 8f3b
00000020: 7ff7 12c1 3602 1fbf 90b8 0b3f d04e b03c
00000030: cb47 f83d 33fa 7940 90b8 0b3f d04e b03c
00000040: a743 14c1 ef49 1fbf fb3d 4b3f af58 c83c
00000050: 30db b93d bb6a 7a40 fb3d 4b3f af58 c83c
-9.091067 -0.62091625 0.9079591 0.0043770615 0.13813305 3.8997319 0.9079591 0.0043770615
-9.185424 -0.6211275 0.54578495 0.021521956 0.121230684 3.905896 0.54578495 0.021521956
-9.266517 -0.6222219 0.7939145 0.02445635 0.0907501 3.9127643 0.7939145 0.02445635

BN1.running_var f4 [24]
00000000: 5f0a 1441 2da7 8d3f 2d1f 4043 7b6c 6141
00000010: 936a e541 2f1e 1f40 2d1f 4043 7b6c 6141
00000020: 4344 0941 fd2c 8e3f 0bdd 4143 3e00 6241
00000030: 8618 eb41 7d94 1f40 0bdd 4143 3e00 6241
00000040: 7b2f f040 40cb 8e3f a9de 4943 5a54 6741
00000050: 0ca9 f141 ce7c 2440 a9de 4943 5a54 6741
9.252532 1.1066643 192.12178 14.0889845 28.677038 2.4862173 192.12178 14.0889845
8.579165 1.1107479 193.86345 14.125059 29.386974 2.493438 193.86345 14.125059
7.505796 1.1155777 201.86977 14.458094 30.207542 2.5701175 201.86977 14.458094

FC1.weight f4 [512, 24]
00000000: 294b bf3d f28c 61be dcd0 183e 1168 3dbe
00000010: c0c9 55be 8100 793e 30bb 6a3d 15e7 a2be
00000020: 9e89 f2be 6264 66be d745 d8be c957 4dbd
00000030: 1478 a73c 5d2c 74bc b959 debe e285 25bb
00000040: 4d3d 3cbe 6e4c c6be 07ce 59be c7fb 61be
00000050: 16b2 ad3e 5f11 8dbe e445 b93d f982 86be
00000060: 0eab 7abe 5161 ce3e 2673 d7be ab37 993d
00000070: e965 22be 0753 f6bd 58e2 fabe f457 8c3d
00000080: 8fd4 d3be b5ff d03e 8070 54be da31 583d
00000090: acd7 103d 1285 30bc 9be8 86bd 4ad5 93bb
000000a0: 7a36 fb3d 440d ec3e 6bdf 9cbe 70a0 073f
000000b0: 9e2c ce3e 3586 c9be c419 993e 360a ee3e
000000c0: 62cb a93d bbaf 5d3e 9439 22bd 33a7 66be
000000d0: 7f85 8d3e 5d16 4a3f 9e40 e0ba 84b6 6dbe
000000e0: fd6a 333e d7fa 1d3e 75cc 31be e5ae 1cbd
000000f0: c4e9 25be 385b 383e ea60 11be 4574 9c3d
00000100: 65cf 903e c79e 0f3e 08a3 d6bc 7359 2fbe
00000110: 5023 fbbe c35c 85bd 405e 073e 4584 2bbe
00000120: 3d67 583e 625d 3d3f 1bea d23d 7a73 8a3e
00000130: fdcb 36bd e2e2 2cbe e763 413d ed94 8c3e
00000140: f8fd c3be af6f da3e 23cc efbe 98bc 42be
00000150: ea26 423d 1004 5b3e 42d7 d1be 8eb6 61bd
00000160: 7bc2 a0be a9cc 183f 9f66 743e acab 98be
00000170: ee4c 4d3e 2080 083f a08c c5be 50b0 7cbe
00000180: 7472 f63e 19e9 543e 0f3b 573e cc24 313e
00000190: eb21 aa3e 50d2 83be 8161 d43d c760 2e3d
000001a0: 6add 283b 3787 1b3e e559 18bf 53b0 e4bc
000001b0: cacb 7c3e 442d 913d d4ba 52bf 5fad 0a3c
000001c0: 82a3 483e 14e1 133e d2ce c8be 0860 8abe
000001d0: 6522 ae3e 268a b63e f013 a13e 5cf7 9fbe
000001e0: d64f 883e 270c 2cbe 6b28 ffbc 9378 c63e
000001f0: 5056 1d3e 5313 a13f 756e 00bd dae8 8b3e
00000200: bc7b 663e fd1e 363e 2a2d 68bd ccfa 3c3e
00000210: 5228 42bd 2e79 a53e ef2c bb3b 4002 753e
00000220: cad2 733e 1dbf 26bd 75d2 103d 1411 c53d
00000230: 1268 bcbe 1884 34be ebd4 1f3e f68a f5bc
00000240: 5b58 dd3e d330 9ebd bd69 f23d 0443 503e
00000250: e94a 3dbe d3b9 c53d 45a0 8bba 1802 6c3d
00000260: 2a4e a43d 65d6 8ebe ce9b 0fbf e295 573d
00000270: 5667 38bd 7fee 5a3e e661 11bf d570 4bbb
00000280: ccec 0b3e 21e0 85be b1b2 c7be 892e 973e
00000290: 9b39 0c3f 13cd 7dbe 80ed 4d3e 54f2 853e
000002a0: 20ec 283f fc5f 1f3f 083d 37be 9401 a33d
000002b0: f9c0 253f b96a e33d c602 82be 9796 303e
000002c0: a051 163e b51f bb3e bb13 a6be 7c81 503e
000002d0: 2bb5 df3e 3c1c 5d3e cce5 68be 0a85 853e
000002e0: 3ca8 203d 39e0 1a3f 0b5c d13e cf3e 013f
000002f0: f5c0 823b 4584 0a3d 7011 ddbe d293 1d3f
00000300: ac1a 1ebc 0e78 943e d519 c8bb 86c5 30be
00000310: 6142 1fbf a444 c23d 0317 3a3d 8eee 49be
00000320: 4610 933d 88ad 80bc bdf3 683e 3959 ebbd
00000330: f264 3dbe 353e 21bd 7e1e 2e3e 02d5 b8bc
00000340: 77f6 ad3d 4b0d d93c 843e 253e 0514 a33c
00000350: 8697 a93e c952 bc3d 8f28 32be bd50 953b
00000360: 7afb 903d 7f95 243b 46e1 c83c 11c9 693e
00000370: f880 38bf a191 003e a75f 89bd 6814 983e
00000380: 0705 a3bd 90e1 013c 332b c9bc 1f90 6cbe
00000390: 3610 cdbd 62fd 973d 7f04 03bd 221b 54be
000003a0: 975a 78be b56b f8bd 3dd4 6a3e 8584 f4bd
000003b0: 8de4 093f febf 46be ded2 13bd 6fd9 34be
000003c0: 8e94 19bf e5ed 06be d6ce 053f 04d3 4bbe
000003d0: 2094 0d3e de46 24be fb82 193f 1cb2 e8bd
000003e0: 5d19 fabe a72d 28be 6d7a 9f3e 5986 68be
000003f0: 1613 963e a753 cdbd b615 e93e 4ff3 05be
0.093405075 -0.22026423 0.14923424 -0.1849673 -0.20877743 0.24316598 0.057307422 -0.31816927
-0.4737062 -0.2249923 -0.42240784 -0.050132547 0.020443 -0.014903155 -0.43427828 -0.0025256802
-0.1838276 -0.38730186 -0.2127 -0.22068702 0.3392493 -0.27552316 0.09046534 -0.262718
-0.24479315 0.40308622 -0.4208004 0.07481321 -0.15859188 -0.12027555 -0.49000812 0.06852713
-0.41373107 0.4082009 -0.2074604 0.052781917 0.03536193 -0.010773914 -0.06587335 -0.00451151
0.1226625 0.4610387 -0.30639204 0.52979183 0.40268415 -0.39360204 0.2990247 0.46492165
0.08290745 0.21649067 -0.039605692 -0.22524719 0.27640912 0.78940374 -0.0017109101 -0.23214155
0.17521282 0.15427719 -0.1736315 -0.03825273 -0.16202456 0.18003547 -0.14197126 0.07639364
0.2828323 0.14025412 -0.026200786 -0.17123966 -0.4905038 -0.065118335 0.13219547 -0.16749676
0.21133132 0.73970616 0.10298558 0.27041227 -0.044628132 -0.16883424 0.047214415 0.2745737
-0.382797 0.42663333 -0.4683543 -0.19017255 0.047400393 0.21388268 -0.4098454 -0.05510574
-0.31398377 0.59687287 0.23867272 -0.29818475 0.20048878 0.53320503 -0.3858385 -0.24676633
0.48134196 0.20792045 0.21018623 0.17299193 0.33229002 -0.25746393 0.1037016 0.042572763
0.0025766739 0.15188299 -0.5951217 -0.02791611 0.24687114 0.07088712 -0.8231633 0.008464186
0.19593623 0.14441329 -0.3922029 -0.2702639 0.34010616 0.35652274 0.31460524 -0.31243408
0.2662341 -0.16801511 -0.031147202 0.38763866 0.15364957 1.2584022 -0.03135534 0.2732609
0.22508138 0.17785259 -0.056683697 0.18455046 -0.047401734 0.32319015 0.0057121436 0.2392664
0.23810878 -0.040709604 0.035356957 0.09622398 -0.3679815 -0.17628515 0.15608566 -0.029973488
0.43231472 -0.07724156 0.11836574 0.20338064 -0.18485607 0.09654584 -0.0010652622 0.057619184
0.08022721 -0.27897945 -0.56097114 0.052633174 -0.045020424 0.21380042 -0.56790006 -0.0031042595
0.1366455 -0.2614756 -0.39003518 0.2952769 0.547754 -0.24785261 0.2011013 0.26161444
0.659853 0.62255836 -0.17894375 0.079592854 0.6474758 0.1110434 -0.2539274 0.17244945
0.14679575 0.36547628 -0.32436928 0.20361894 0.43692908 0.21592802 -0.2274391 0.26078063
0.03922294 0.60498387 0.40890536 0.50486463 0.0039902874 0.03381755 -0.43177366 0.6155368
-0.009649914 0.28997844 -0.006106595 -0.17262849 -0.6221066 0.094857484 0.045432102 -0.19719908
0.07180838 -0.015707746 0.22749229 -0.11491627 -0.18495539 -0.039365966 0.1700382 -0.022562508
0.08494275 0.026495596 0.16137129 0.019907007 0.33123416 0.091954775 -0.17398284 0.004556744
0.07079215 0.002511352 0.024521481 0.22830607 -0.7207179 0.12555553 -0.06707697 0.2970307
-0.07959943 0.007927313 -0.024556732 -0.23101853 -0.100128576 0.07421376 -0.03198671 -0.20713475
-0.24253307 -0.121299185 0.22932525 -0.119393386 0.53864366 -0.19409177 -0.03608977 -0.1766107
-0.599923 -0.13176687 0.5226873 -0.19904715 0.13826036 -0.16042659 0.59965485 -0.11362097
-0.48847476 -0.16423665 0.3114809 -0.227075 0.29311436 -0.10025721 0.45524377 -0.13081096

FC1.bias f4 [512]
00000000: 60e7 4fbe 9d9f e1bd 0eaf 17be 6956 18be
00000010: 621c 89be 66b4 2dbe 9485 b8be 20fe cbbe
00000020: b13f 38be 3601 863d 2d68 dfbd 0beb 03bd
00000030: e381 12bf 3b9c 8abe 6fbe 873e e594 34be
00000040: add7 afbe da9e 043e 837d 94be d05a b0be
00000050: 7579 d3be eb29 143d 8f6b bebe b1bb babe
00000060: 45df 0fbf 3dc8 85be dba6 d8be b13f 20be
00000070: 1307 01bf 14ac 40bf 88d5 71bc 5942 00bf
00000080: 3d3c aabe 115f 1bbf c390 1dbe f725 06bf
00000090: 03d7 2dbf f390 063e 2e0b 4cbe a9b2 5bbd
000000a0: 0f9d 02be f79e da3d ccfd 99be 4eb0 45be
000000b0: 5b2f 693d 8fa9 cfbe d6bc 55bd c191 07be
000000c0: ff85 8bbe 9427 f2be 0e86 fe3c 71e0 e8be
000000d0: 099c b6bd 2780 74be da76 823e 0809 9bbe
000000e0: 7f4f 7e3c f989 89be 845d 9cbe b1b6 fabd
000000f0: 2927 f1be a6c5 1e3d 5a7b 3dbf 85ac 18bf
00000100: 2f80 93be 2113 13bf 3c6a 7fbd 31ca f6bb
00000110: 75bf 26bf 5e65 bf3e 5c16 13bc 97ef c2bd
00000120: 2661 00bf 34b4 d0be 48fe 45bc a1d7 9d3e
00000130: b8ac b8be 8820 253d 194a 1ebf e743 d5be
00000140: 7af3 9bbe 8854 11be 4360 f2be 26a6 d4be
00000150: 1bc3 99be 530c c03d 79fc 98be 7f71 64be
00000160: 22ac fcbe 92e1 81be 7036 15bf 39b5 0abf
00000170: d097 4ebe 94c2 b33a a570 fdbe 5633 e53c
00000180: ea0a 17bf 24c2 71bd 0145 8d3d d970 87be
00000190: 3186 ebbe 34a8 1fbf b854 14bf f5bb 12be
000001a0: a66a be3b 5d9c 7dbd 9397 8abb 614c 85bb
000001b0: 1f6b 8ebe 277b cbbc 4f84 aebe bf33 e3be
000001c0: e104 57be 8125 47be d7f5 0cbe f16d 4bbe
000001d0: ee65 bbbc a865 d1be 5912 1ebf d1ed f5be
000001e0: 2967 083c ba02 57be 2973 10be ef73 1cbf
000001f0: 9308 9fbe e1dd b1bd 531b 3dbe 0494 14bf
00000200: 3d9f ccbe 53ae 703d ec92 13bf 1f0d 04bf
00000210: 13af 98be ae35 9dbd 145e e8be 609e 19bf
00000220: 2f67 fdbe f8d0 afbd 1794 7cbe 145b e6bc
00000230: 556c 843e d36c 00be b275 5ebe 00de 033e
00000240: fe4e 1ebf dbe2 0f3c f48a a9bd c6a0 2cbe
00000250: 2ffb 9fbe 8845 de38 8b17 0bbf a7bb 81be
00000260: b41e d2be 221b a0be 36df 46bf 0084 8bbe
00000270: 807a 31bd 0653 13be 7326 a8bd b547 02bf
00000280: 20e2 18bf 28c5 05be b900 b7bc 1400 95bd
00000290: 38ec bfbe 3d09 21bf f205 1bbf 1d7f 8dbe
000002a0: 319a 31be 35c3 c9be dafc c13d 5322 903e
000002b0: 0397 cebe 815d 0a3e 6218 3fbf 5735 28be
000002c0: e9bd dabe 672a df3d 6b4b edbe 7f54 83be
000002d0: 63b1 d4be f76b 97bd cc26 35be 65e9 30be
000002e0: 14b7 3fbf 6f8c c3bd 7cf4 07be 33a1 97be
000002f0: 3d98 e8be aeae c8be 264d 03be 2202 1abc
00000300: b4db ea3d 7d22 d8be a928 87be e6b0 b9bc
00000310: 2b37 91be 44af 8abe 949a 643e d9c0 94bd
00000320: da06 c8be db41 763e 5764 19be 90b9 94be
00000330: 967b b4be 8da1 10bf 6b22 f4be 93e7 e7be
00000340: c367 d93b d778 d2bd 6dae 8fbe 75da 7abe
00000350: b1cf 86be d47c c53e 1f74 39bc 2e9b 90be
00000360: af8f e2be 7ef0 ccbe ba61 d73d 7918 88be
00000370: 83bd dcbd 68ef c5be ba48 10bf 0c27 d4be
00000380: 3873 f8be b750 86be 3cf6 8fbe 7907 25bc
00000390: 27f7 32bf b576 41bf d8c9 04bf 2875 77be
000003a0: e5d0 57be 2cb4 edbd 46de 7a3c ae2c b2bd
000003b0: 92d3 8abe 05ec 35be ba6f 183e 2a3d 52be
000003c0: 38e4 5d3c cca0 dfbe 4316 073f ec84 14be
000003d0: 7cdf edbd 29b4 0dbf e287 b4be c5b2 d03e
000003e0: 7dc7 babe 354c 48bf f93c adbe 9b5a 4cbe
000003f0: ec7a 0fbf b72b 5fbe 5790 af3e aa38 993d
-0.20303106 -0.11016772 -0.14812872 -0.14876713 -0.26779467 -0.16963348 -0.36039412 -0.3984232
-0.17993046 0.065432 -0.10908542 -0.032206576 -0.5722944 -0.2707232 0.26512477 -0.17634924
-0.34344235 0.12951222 -0.29002008 -0.34444284 -0.41303602 0.03617279 -0.37191436 -0.36471322
-0.5620006 -0.26129332 -0.423148 -0.15649296 -0.5040142 -0.7526257 -0.0147603825 -0.5010124
-0.33249083 -0.60691935 -0.15387253 -0.5240168 -0.67906207 0.13141231 -0.1992614 -0.05363718
-0.12755226 0.106748514 -0.30076444 -0.19305536 0.056929927 -0.4055905 -0.05218204 -0.13239194
-0.27250668 -0.4729582 0.031069782 -0.45483735 -0.0891648 -0.23877011 0.25481302 -0.30280328
0.015521883 -0.26863077 -0.30540097 -0.12241877 -0.4710019 0.03876271 -0.74016345 -0.59638244
-0.28808734 -0.57451063 -0.062357172 -0.0075314273 -0.6513589 0.37382025 -0.008977499 -0.095183544
-0.50148237 -0.40762484 -0.012084551 0.30828574 -0.36069274 0.040314227 -0.61831814 -0.41653368
-0.30459195 -0.14192402 -0.47339067 -0.4153301 -0.30031666 0.09377351 -0.2988012 -0.2230892
-0.49350077 -0.2536741 -0.5828619 -0.54182774 -0.201751 0.0013714605 -0.49500003 0.02797858
-0.5900103 -0.059023038 0.06897927 -0.26453283 -0.46000817 -0.6236603 -0.5794177 -0.14329512
0.0058110533 -0.061916698 -0.004229495 -0.004067943 -0.27816102 -0.024838997 -0.34085318 -0.44375417
-0.20997955 -0.194479 -0.13765655 -0.19866158 -0.022875752 -0.4089787 -0.61746746 -0.48033002
0.008325377 -0.20997134 -0.1410643 -0.611144 -0.3106123 -0.08684898 -0.18467455 -0.58038354
-0.3996524 0.05876 -0.5764606 -0.5158252 -0.2982107 -0.07676254 -0.45384276 -0.60007286
-0.49492785 -0.085847795 -0.24665867 -0.028119601 0.258639 -0.12541513 -0.21724585 0.12877655
-0.6183928 0.008782114 -0.08278456 -0.16858205 -0.31246325 0.00010598736 -0.543328 -0.2533848
-0.4103905 -0.312707 -0.7768434 -0.27249146 -0.043329716 -0.1438714 -0.082104586 -0.50890666
-0.5972004 -0.1306349 -0.022339212 -0.072754055 -0.37484908 -0.6290472 -0.60555947 -0.27636042
-0.17343976 -0.39406744 0.09472056 0.28151187 -0.40349588 0.13512231 -0.7464658 -0.16426598
-0.42723015 0.108967595 -0.46346602 -0.25650403 -0.41541585 -0.073936395 -0.17690581 -0.17276533
-0.7488873 -0.0954827 -0.13276857 -0.29615173 -0.4542865 -0.3919577 -0.12822399 -0.009399923
0.11467686 -0.42213812 -0.2639821 -0.02266736 -0.28362402 -0.27086842 0.22324592 -0.07263345
-0.39067727 0.2404856 -0.14979683 -0.29047823 -0.3525054 -0.56496507 -0.4768251 -0.45293865
0.006634684 -0.102769546 -0.28062764 -0.24497397 -0.2633033 0.385718 -0.011319189 -0.28243393
-0.44250247 -0.4002723 0.10516687 -0.2658117 -0.10778334 -0.38659215 -0.5636097 -0.4143604
-0.48525405 -0.26233456 -0.2811755 -0.010072582 -0.69908375 -0.7557176 -0.5187049 -0.24165785
-0.2107578 -0.11606631 0.015311783 -0.08699928 -0.2711454 -0.17765816 0.1488637 -0.20531145
0.013543181 -0.43677366 0.52768344 -0.1450383 -0.11614892 -0.5535303 -0.3525992 0.4076139
-0.36480322 -0.7824128 -0.3383558 -0.19956438 -0.5604694 -0.2179402 0.3428981 0.07481511

FC2.weight f4 [256, 512]
00000000: 8090 a2bd 4f5b de3d bf9b 39bd 11d5 853e
00000010: 4911 71be 94d1 09bd 3116 b7bd e6e0 963e
00000020: 5477 0d3e 8492 96be 40c3 323d 6740 453d
00000030: 5c80 39be 79dc a5be b441 90be a7e0 69be
00000040: 2fb2 003c ee3d ce3d abfb c73e 7b8e dcbe
00000050: 9238 6e3e 8711 ad3e a684 dc3a 3c31 e8bb
00000060: 3e80 953e 10b3 dbbe e946 bebe dc8d af3e
00000070: cff7 8fbe 730a 37be aad8 e8bd ab82 33be
00000080: 747f 2abf 9473 e43d a198 863d a447 dd3d
00000090: 4f60 99be c0f1 13be 423a e4bd bad4 56bd
000000a0: e147 983e abea a73d a3ac fe3d d488 9d3e
000000b0: 7665 1f3d 5d60 86be e5c9 533d 72fd d0bc
000000c0: 4f1f d93d 5cad 313e 4efd 73bd 99e7 f33d
000000d0: 3933 8b3c 1bdb a1bd 2ccf c63d 1d04 c83d
000000e0: 9a54 01bc 76aa 68bd 9d96 50bc bff4 603e
000000f0: d900 d23c 5887 a33e 6923 9cbe 3dee da3d
00000100: dcd0 d5be 3ded 963e 5565 64be 9c9c b6bd
00000110: 98f0 cbbe be64 93be e4df 37be 06b0 a5be
00000120: 1898 bfbc 2d65 48be 84c1 42be 7f32 44bd
00000130: 3d3f 17bf b169 33be c3b2 6a3e 30bf 2c3e
00000140: 41f7 77be b61e 7bbe 999e eabe 8ab8 1abf
00000150: 279a 12bf df5d d7bd 3a85 1cbf 514f 5abe
00000160: 82a0 fa3d 2f96 63be 1b26 e23e 7d3f 963e
00000170: 57a1 18be 42df 29be 5a51 91b9 a773 3c3e
00000180: 64bb 9d3d 3adf 7fbd d4b6 933d 8654 6cbe
00000190: 0102 3abe 0ec1 33be 5743 103e 90a8 25be
000001a0: c0d9 6ebe 0978 9e3c a2fa d9bd 68c8 d63e
000001b0: b5a6 d53d 80f3 c5be 4b68 7e3e 2b31 c9bd
000001c0: 12d6 8c3e f375 2abe 84e9 0dbe 0081 cabe
000001d0: 8771 3d3d 24a4 303d a3c5 19bf 0631 b43e
000001e0: 2bac be3d 0b78 5cba 1b95 6cbe e245 94be
000001f0: fef8 d63d a482 ecbe d848 643e c555 48bf
00000200: e413 933e 08c2 86be e98a 463e fb89 23be
00000210: 45bd 833d 52ef 9b3d 8611 6fbf 6ecf 39be
00000220: c445 793e 0ba0 09be 0d9f 21bf 028d 5abe
00000230: 8b41 6b3d 084e aabe bd16 933b f829 7cbe
00000240: ce0e a83e a6d0 183e 8098 1fbe e7a1 6f3d
00000250: d659 95be 7ad0 4a3e 8ac9 4cbf f554 7abe
00000260: 8ee7 b4bd 2133 41bd aafa d63d 5081 76be
00000270: 8597 e7be 1de2 71bd e40c 763e a5f1 f83e
00000280: 6c16 73be cc53 93bc 52c1 58be 3648 76be
00000290: 855f 95bc 5138 c9be d529 3cbc 87c4 17bd
000002a0: b35e 21bc d5b1 ed3d 1160 1cbd 70c7 80be
000002b0: ba81 40bd 7a6a 8dbe 1ac9 19be ac4e 163d
000002c0: 27b8 cabe 3c56 833d ee9e 803e 85bb 50bb
000002d0: 0f32 6bbe 4e26 49be 3227 523d ae09 b7bd
000002e0: 3be1 96be 8fa8 92be 7aef 30be 4c35 583e
000002f0: ce71 7cbe cb83 e93e d7f8 3abe 9dbf 87bd
00000300: c98f ca3e 21f3 2b3e 814d 62be 6d14 2e3e
00000310: 6353 1ebd 31db 9bbd a7f9 543d b3e5 94be
00000320: 0786 8dbe a774 e43d 0a53 afbe c984 023e
00000330: a135 dc3d c037 c43e bf6c fe3d b58a 043e
00000340: 7ab7 83bd af0e 19be ee96 82be 4a73 023e
00000350: b1b9 2abe 5085 cfbe cf8a ad3d 6b22 fd3d
00000360: 9327 00bf 3687 c4be 37ff 5f3e 915c 723d
00000370: cfde 72bc 1a32 fe3d 516e d13d 8717 953d
00000380: 6039 273e 0339 dbbb b4cc e9bd 8dff 5bbf
00000390: 3eed e23d c79e 733e 51d0 9dbe 94dd db3d
000003a0: 3b27 a6be bc25 743d 0978 52be 3617 eb3d
000003b0: 9645 b43d 0d0d f73d 15c7 d53e 0411 3cbf
000003c0: f967 28bd 718e 213e 6a10 a6be 87a5 1c3e
000003d0: 8712 a0be f364 e63e 02c4 f1bd 04cf 0c3e
000003e0: a97b 09be 4c2d 2a3e fa5d bdbe b81e c6be
000003f0: 5cd7 2ebf 0ec2 3fbc 064c cdbd 38f1 98be
-0.079377174 0.108572595 -0.045314547 0.2613912 -0.2354175 -0.033647135 -0.089397795 0.2946846
0.13815051 -0.29408658 0.043643236 0.048157122 -0.18115371 -0.3239477 -0.28175128 -0.22839604
0.007854982 0.10070406 0.39059195 -0.43077454 0.23263767 0.33802435 0.00168242 -0.0070859473
0.29199404 -0.4291005 -0.37163475 0.34287918 -0.2811875 -0.1787508 -0.113694504 -0.17530315
-0.6660073 0.11154857 0.065720804 0.1080468 -0.2995629 -0.14447689 -0.11143924 -0.052448966
0.2974234 0.08199056 0.124352716 0.30768454 0.03891512 -0.26245394 0.051706214 -0.025511477
0.10601675 0.17351288 -0.059567742 0.11909408 0.016992198 -0.07903119 0.09707484 0.097664095
-0.007893706 -0.05680319 -0.0127312215 0.21968363 0.02563517 0.31939197 -0.30495766 0.106899716
-0.4176091 0.29477873 -0.2230428 -0.089165896 -0.39831996 -0.28787798 -0.17956501 -0.32360858
-0.023387954 -0.19569845 -0.19019133 -0.04789972 -0.5908087 -0.17520787 0.22919755 0.16869807
-0.24215414 -0.24523434 -0.45824125 -0.60437834 -0.5726647 -0.10515951 -0.6114079 -0.2131932
0.12237646 -0.22225259 0.44169697 0.29345313 -0.14905296 -0.16589072 -0.00027717167 0.18403493
0.077017576 -0.062468745 0.07212606 -0.23079118 -0.18164827 -0.17554113 0.14088188 -0.16177583
-0.23325253 0.019344347 -0.106435075 0.41949773 0.104321875 -0.38662338 0.24844472 -0.09823831
0.27507073 -0.16646557 -0.1385861 -0.39551544 0.046250846 0.043125287 -0.60067195 0.35193652
0.09310182 -0.0008410222 -0.23103754 -0.28959566 0.1049671 -0.4619342 0.22293413 -0.78255874
0.28726113 -0.2631991 0.19388928 -0.15970604 0.06432585 0.07614006 -0.93386114 -0.18145534
0.2434302 -0.13439958 -0.6313332 -0.21342853 0.057435554 -0.33262658 0.0044887946 -0.24625385
0.32823795 0.14923343 -0.15585518 0.05850401 -0.29170102 0.1980609 -0.79995024 -0.24446471
-0.08833228 -0.0471679 0.10497029 -0.24072766 -0.45232788 -0.05905353 0.24028355 0.4862186
-0.23739022 -0.017984293 -0.21167496 -0.24050984 -0.018234024 -0.39300779 -0.011484583 -0.037052657
-0.009849238 0.116061844 -0.038177554 -0.2515216 -0.046998717 -0.27620298 -0.1501812 0.03669612
-0.39593622 0.06412932 0.25121254 -0.0031850052 -0.22968315 -0.19643518 0.05130691 -0.08937393
-0.29468712 -0.28644225 -0.17278853 0.21114081 -0.24652788 0.45608363 -0.18258987 -0.06628344
0.39562824 0.16791965 -0.22099878 0.1699998 -0.038653743 -0.07610167 0.0519959 -0.29081497
-0.27641317 0.11155062 -0.3424304 0.12745966 0.107524164 0.38323784 0.124230854 0.12943538
-0.0643148 -0.14947008 -0.25505775 0.12739292 -0.16672398 -0.40531397 0.08473741 0.1236008
-0.50060385 -0.38384408 0.218747 0.05917031 -0.0148236295 0.124119 0.10226119 0.07279878
0.1633048 -0.006690146 -0.11415997 -0.85936815 0.110804066 0.23791037 -0.30822995 0.10735622
-0.32451805 0.0596063 -0.20553602 0.114790365 0.08802335 0.12063036 0.4175345 -0.73463464
-0.04111478 0.15776993 -0.32434398 0.15297519 -0.31264135 0.44998893 -0.11804964 0.13750845
-0.13426079 0.16618842 -0.3698576 -0.38695312 -0.6829736 -0.011703981 -0.10024266 -0.29871535

FC2.bias f4 [256]
00000000: 842f 61bd fb2a dfbe 331e 42bd 5887 cebe
00000010: a286 a338 268d 82be 8a43 603b a0f8 b2bc
00000020: c8fd e2be e09e 84bd 5ede bfbd ddf6 a2bd
00000030: 485f 15bd 0ea1 c9be 964c c13c 952d 5dbe
00000040: ee93 a8be 344d 0fbd ef15 0abb 024a c1bc
00000050: 9aab 29bd 8e1f 613e d0fd 81be fa7c 37bc
00000060: 07d8 713e 6325 7cbe c79c cc3b 913e 07be
00000070: b23e 82bc 9574 13be 80b1 fb3d a6f6 43be
00000080: edef c2bd e22e 0cbf dc15 e33d 1752 7e3e
00000090: 7fec 98be ade9 883c 7a32 74be 52ba 5fbe
000000a0: bf77 82bd 0789 aebd e3e6 0fbe 3194 643d
000000b0: 0046 b3bd 8874 e6bd 0cce 06be 7d88 04be
000000c0: e743 573e 5cdc a4be d78b 733d aa29 afbe
000000d0: 25ce 14bb a7cf 2e3d 3090 893d 7b24 debc
000000e0: 1d1e 3ebe 1b88 333e 357b 113c 757d bfbe
000000f0: 4f62 19be 3ce4 8fbc a0fe 1abe 4b24 23be
00000100: c702 a63d 5548 1dbb 9f5b 50be 4a8f b1be
00000110: 6e44 f7bc 3f8d a6bd 68a5 82be 25f1 13bd
00000120: 1d30 b0be 6ee1 1bbe 052b 24bd a10b cabe
00000130: 632e adbe 41e6 aebe fbde b23d cfc7 e1bd
00000140: b346 59bf f743 8c3d 47a0 45be 5225 65bd
00000150: 6e7d 51be 7315 023d 9920 f5bc af93 8dbd
00000160: c52c 273d d895 9dbe 2de4 a0bd 71ed f1bd
00000170: 2634 2dbd fbab 9dbb 58f4 8cbe 6ad1 24be
00000180: ac80 8fbe 8c5e a13d 4aa8 66bd 7a9c 16be
00000190: abc4 00be 110e afbd 91ca a2ba 309a 1ebe
000001a0: f2d5 a43d 81bd a3be 7dd9 37be f91a 29bd
000001b0: c81b 8c3d db54 8f3a b930 2abe bbaf 8bbe
000001c0: 6655 b2be 667a 0cbe 4dc0 32bd fde4 9bbd
000001d0: 1950 85be 2818 2cbd 22db 07be 1a97 263d
000001e0: c08c abbc 5073 40be 1d50 9ebd 451a cabe
000001f0: 79df b1bd 0c80 9ebd a709 7cbe c5a1 043e
00000200: 21fc 51be f4bc 83be b2cf 32be 5498 18be
00000210: 1d97 aabe a2e1 8ebe 63a8 b7bd 7167 94bb
00000220: 94d6 87be 48bf 01be 6d74 bd3d 7ef4 8d3d
00000230: e247 313d c2a9 8bbe ba1f f6bd 225c 693d
00000240: ee55 c0bd 0db9 83bd 9341 1e3e b4da 8d3d
00000250: 3051 0abe b98e cebe b20c 633e 6433 11bd
00000260: 3e79 973d 6ec0 eabe ad19 20bc c666 65bd
00000270: fdaf e1bd cef1 b83a 3c25 0abe 8f28 17be
00000280: 3531 f8bd a104 21be df6f 3b3d 14ee c13d
00000290: b881 66be 5571 a03d 6ee4 46be f142 eabd
000002a0: 4cff e1bd 714d 773d 6d3c 3bbc f8c3 ecbc
000002b0: 4d8c 34be 164e 2ebe 83de 993d ffaa 4abe
000002c0: c62c c0be 7a14 963d 30de 09be 5deb c73d
000002d0: 77c2 bfbe 40e6 55be 10ce cdbd ad84 8bbe
000002e0: 9c35 a63e 1c40 8cbd f31b aabd 5497 8c3e
000002f0: e374 b9bd 470d 1abe fe94 283e c41e 013e
00000300: e76f aebe 9213 23bb bf40 11bd c0a9 2fbe
00000310: c6e5 a7be 9d73 09be c810 df3c aca6 4dbe
00000320: b857 2e3e c492 13bf b776 b9be cd24 afbe
00000330: aba6 3fbe bc8b 94bd 7da4 a1be 00a1 8bbe
00000340: 5004 80be 85c3 c4be d379 abbd b44e a03d
00000350: d6ea 033e d370 0fbe 5bc7 6bbd 6bd4 a5be
00000360: ab2e 56be 4920 a53c 3263 01be c46e 5dbe
00000370: 8d22 7b3d 9253 81be d422 1bbe 0ff2 993d
00000380: ac74 0c3c e35a c3bd 21f7 6dbe afef 723e
00000390: 7a9a 0fbe 2ceb e1bd f45a 483c abec d4be
000003a0: 4abe d73d 11fa 5cbe f92a 25bd 3de3 8abe
000003b0: e9ad 66bd eb85 73be e792 5ebe e752 823d
000003c0: 027f 15be 433f b63d ed99 61bb 9a3b 50bd
000003d0: 1ee4 82be cd01 1fbe 16c5 3abe 469c fcbd
000003e0: 79f9 863d a30e 97be 7689 2dbe 5b01 ac3d
000003f0: adfc 20bf c8ff 63bd 20ca 0dbe d5b6 573d
-0.054976955 -0.4358748 -0.04739208 -0.40337634 7.797523e-05 -0.25498313 0.0034219944 -0.02184707
-0.44334245 -0.064756155 -0.09368585 -0.07957242 -0.03646782 -0.39380687 0.02359609 -0.2159942
-0.3292536 -0.034985736 -0.0021070202 -0.02359486 -0.041423418 0.21984693 -0.25388956 -0.01119923
0.23617564 -0.24623637 0.0062442753 -0.13207461 -0.015899036 -0.14399941 0.12289715 -0.19137058
-0.095184185 -0.5475904 0.11088154 0.24836002 -0.29867932 0.016712988 -0.2384738 -0.2184842
-0.06370496 -0.0852223 -0.1405292 0.05580539 -0.08753586 -0.11252695 -0.13164538 -0.12942691
0.21021996 -0.3219937 0.059459534 -0.34211475 -0.002270588 0.0426785 0.06716955 -0.027117005
-0.18566175 0.17532389 0.0088794725 -0.37400404 -0.14978908 -0.017564885 -0.15136194 -0.15931813
0.081059985 -0.0023999412 -0.2034745 -0.34679633 -0.030183997 -0.08132409 -0.2551682 -0.036118645
-0.34411708 -0.15222713 -0.04008009 -0.39461997 -0.33824453 -0.34160045 0.087339364 -0.110244386
-0.84873503 0.06848901 -0.19299422 -0.055943795 -0.20458004 0.031758737 -0.02992277 -0.06912934
0.04081418 -0.30778384 -0.07856021 -0.118128665 -0.04228606 -0.0048117614 -0.2753017 -0.1609551
-0.28027856 0.078793615 -0.056312837 -0.14708129 -0.12575023 -0.08547605 -0.0012419989 -0.15488505
0.08048619 -0.31980518 -0.17954059 -0.04128549 0.06841236 0.0010935323 -0.16620149 -0.2728251
-0.3483078 -0.13718566 -0.043640424 -0.076120354 -0.26037672 -0.042015225 -0.13267186 0.040671445
-0.020941138 -0.18793988 -0.07730124 -0.39473167 -0.08685202 -0.07739267 -0.24613057 0.12952335
-0.20506336 -0.25730097 -0.17462042 -0.14901859 -0.33318415 -0.2790652 -0.08967664 -0.0045289327
-0.26530898 -0.12670624 0.09250722 0.06931399 0.043281443 -0.27277952 -0.1201777 0.05697263
-0.0939139 -0.0643178 0.15454702 0.0692648 -0.13507533 -0.40343264 0.22172812 -0.0354494
0.07396172 -0.45849937 -0.009771747 -0.056006216 -0.11019895 0.0014110149 -0.13490766 -0.14761566
-0.121187605 -0.15724422 0.045760985 0.09469238 -0.22510421 0.07834116 -0.19423077 -0.11438549
-0.11035022 0.06037659 -0.011427981 -0.028902039 -0.17631646 -0.17021975 0.07513144 -0.19791792
-0.3753416 0.07328124 -0.13463664 0.09761689 -0.37453052 -0.20888615 -0.10049069 -0.2724966
0.32462776 -0.068481654 -0.08306112 0.27459204 -0.090554975 -0.15044127 0.16463086 0.12609392
-0.3406975 -0.002488349 -0.035462137 -0.17154598 -0.3279249 -0.13423009 0.027229682 -0.20083112
0.1702565 -0.5764582 -0.36223385 -0.34207764 -0.18715923 -0.07253215 -0.31570807 -0.2727127
-0.2500329 -0.3843042 -0.083728455 0.078275114 0.12882552 -0.14007883 -0.057563167 -0.32388625
-0.2091624 0.020156996 -0.12635496 -0.21624285 0.061312247 -0.25259072 -0.15150005 0.07516872
0.008572739 -0.0953882 -0.23238803 0.23724245 -0.14023772 -0.110311836 0.012228716 -0.41586813
0.10534342 -0.21579768 -0.040324185 -0.27126494 -0.056318197 -0.23781554 -0.21735726 0.063634686
-0.14599231 0.08898785 -0.0034424022 -0.05083809 -0.25564665 -0.1552803 -0.18239245 -0.12334494
0.06590552 -0.29503354 -0.16946968 0.08398696 -0.6288555 -0.055663854 -0.13846636 0.052664597

FC3.weight f4 [2, 256]
00000000: c850 dbbe 93a0 073d 86db 253f 07d9 8b3e
00000010: edf8 783e 2765 333e a69a d7bc 54e5 f93e
00000020: 435d d73b 2e05 073f bfab 2abe 0214 ebbe
00000030: 14a8 0bbf d1f3 63be 84e1 36be 464f 11bf
00000040: ff88 6ebe e19d b23e 80c0 923d 9898 c33d
00000050: f22b fabe c1e9 e8bd 01f5 abbe 4e52 2b3f
00000060: cb50 c6be 0388 23be 22ea 86bc ed8f 3abf
00000070: d78c d73e 7834 37bd 78b1 0d3d 2f3a 1dbf
00000080: 0404 1b3f 0475 07bf 3235 d43e 5948 3d3f
00000090: 24be e13d 3c7b 433c 1e5c 6fbd 15f8 aa3e
000000a0: ddee 1c3f 245b 48bf f2ea 08bf 5136 553f
000000b0: 2e5e 023e 8546 433f 2841 f1bb 0d76 edbe
000000c0: 8e82 9bbe 8314 183f ab6f 68bd 6b8a a4bf
000000d0: 426c 8bbd dfc9 e2bd 3bfb 1d3f f17e 18bf
000000e0: fd23 34bf db76 1fbf 4018 fabd 5602 16bf
000000f0: 3a8b 89be a417 c1be 53db 993c 5f72 1b3e
00000100: 3903 003e bd12 ca3d 1e81 1cbf ba5c 9fbe
00000110: 68f8 ef3d 937e 283f e73a f4bd 5a31 38be
00000120: 7029 723d 22de 2e3f 8b28 a13a 6e20 7a3d
00000130: 8826 293e 9789 bc3c 1f13 403e 0f60 6a3e
00000140: 679c 52bf 7ee7 26bf 2ed4 33bf c18e 16bf
00000150: 16a1 8b3c dd09 8a3e e303 933e cbb8 19bf
00000160: a830 3c3e e3c1 d03d 624d 193f ce4c 7cbf
00000170: 30e5 4fbe b5c3 a93e 445a 163f f36c fc3c
00000180: 2b32 46be f831 bf3e 678b 38be 1e7a aebe
00000190: 90fc 993e 2d85 65be 77e8 b53e 6710 aabe
000001a0: 277d ba3d 481b 353e 78e3 8a3f 2089 233e
000001b0: 64c6 223d babc 8f3e 2df7 79be 3d60 803e
000001c0: 8ba5 bf3e fd1e 6abe fa0a 1dbd 09be 003f
000001d0: 1f7f 163f 0734 0b3e b667 eebc 4353 abbe
000001e0: 1adc f13e acb6 5f3c 3baa 1e3e 3164 26bf
000001f0: 76fe 9e3e f405 30bd d1f6 243e f22e 0b3f
00000200: 7446 e23e 5c03 86bd 1d01 c0be 3743 98be
00000210: 5d86 c03e 9d17 433f 77c4 333f 5f85 983b
00000220: 3377 0d3f 1cb6 0bbf cd8a 293d 1789 e7bb
00000230: e023 f6bd 1914 f9be 2ac5 1d3f 3720 dfbe
00000240: f24d 913f 6878 e1be 1fbc 0f3e 87f8 a53e
00000250: 8d64 283f 41c1 133f 95c4 a43a e672 353e
00000260: 7f41 c8be daec bfbe 03f7 ecbe 8f2a a03d
00000270: b08f cf3d dafb 0e3e 6076 f5bd 71a9 633e
00000280: 6b1b 123d 35cb fa3e 861d 693e 34c1 a43e
00000290: bd19 88be 4abb 903c cfe1 e63e fd71 993e
000002a0: 2f0e 95be bf83 81bd f613 273f dba4 843d
000002b0: d1e4 e43e e01d c5be 9a2e 5c3e a014 51bf
000002c0: 332e d8bd 2cad 46bd f545 25bf 2e03 ccbe
000002d0: a09b fdbd a002 a2be 8c8e 4dbe 97a9 1ebf
000002e0: 0835 fabe 5eda 9a3e 042a 293f 0f83 dfbe
000002f0: a042 443e c9c5 953d 319f 073f 5366 bebc
00000300: 9e4f c3be daed b9bd be3e 15bf d026 ad3c
00000310: 4b86 a3be 9bab 23bd 072d 9f3e 4a2c 5f3f
00000320: 3097 00bf ca73 ffbd 373f 22bf ea46 5bbf
00000330: 2b01 46bf 49d9 743e 1aba 023e 8849 fabd
00000340: f328 26bf dc64 30bf 8793 08be 3899 b83e
00000350: ce47 bcbd 4364 60bc 69ad 9fbe 6e3f d3be
00000360: cd79 a53e f168 103f 4d3e 58be f45b 1c3d
00000370: 0a5a 2c3d f65a d2be a84d 5abe ada6 833f
00000380: f061 653f eccd 08bd 92a0 723f a7e7 94be
00000390: b802 5dbe d850 8f3c 6b4c 87bd 463d e6be
000003a0: f81f d5bd 8619 6ebc 5f2e 2dbf 0cc0 b3bd
000003b0: ac15 7cbd 4be9 a0bd ccdc 9abb fa96 c1bd
000003c0: 2ab9 26bd 8289 b83e 0c86 a9be 6e6c 473d
000003d0: 3e1c 443f 3cf1 aa3d 5329 d83e 29bd 8fbd
000003e0: 13cd 4cbe de38 cbbe 5136 38bd 8068 6a3e
000003f0: 9b66 5cbe 3607 5fbf 30ca 0e3f 410e ce3c
-0.4283507 0.03311212 0.6478809 0.27314016 0.24313708 0.17519055 -0.02631886 0.48807776
0.006572397 0.5274228 -0.16667078 -0.45913702 -0.5455334 -0.22260977 -0.17859465 -0.56761587
-0.23294447 0.34886077 0.07165623 0.09550589 -0.48861653 -0.1137271 -0.3358536 0.6692246
-0.38733515 -0.15969853 -0.016469065 -0.72875863 0.4209964 -0.044727772 0.034593076 -0.61416906
0.60553 -0.52912927 0.41446835 0.7393852 0.110225946 0.011931237 -0.05843746 0.33392397
0.61301976 -0.7826407 -0.534835 0.83286005 0.12731239 0.7627948 -0.0073625036 -0.46379128
-0.30373043 0.594063 -0.05674712 -1.2854742 -0.06807758 -0.1107366 0.6171147 -0.595687
-0.70367414 -0.62290734 -0.122116566 -0.58597314 -0.26864034 -0.3771335 0.01878134 0.15180348
0.1250123 0.09866855 -0.6113452 -0.31125432 0.117173016 0.65818137 -0.11925297 -0.17987576
0.05912155 0.683077 0.0012295408 0.061066084 0.16518605 0.023014827 0.18757294 0.22888206
-0.822699 -0.6519698 -0.70245636 -0.58811575 0.017044585 0.2696065 0.28713903 -0.60047597
0.18377936 0.10193231 0.598837 -0.98554695 -0.20302272 0.33157125 0.58731484 0.03081367
-0.19355075 0.3734281 -0.18021928 -0.34077543 0.30075502 -0.22414084 0.3552892 -0.3321564
0.09105902 0.17686188 1.0850668 0.15970278 0.03973998 0.28073674 -0.24410696 0.25073424
0.37430987 -0.22863384 -0.038340546 0.5028997 0.5878772 0.13594066 -0.029102188 -0.3346196
0.47238237 0.013654392 0.15494625 -0.6499663 0.31053513 -0.042974427 0.16109778 0.5436851
0.44194376 -0.065436095 -0.3750085 -0.2973878 0.3760251 0.76207906 0.70221657 0.004654571
0.5526001 -0.5457475 0.041392136 -0.007065903 -0.12018561 -0.48648146 0.61628973 -0.43579265
1.1351912 -0.44037175 0.14036606 0.32416174 0.6577843 0.5771676 0.0012570793 0.17719612
-0.3911247 -0.3748539 -0.46282205 0.078206174 0.10134828 0.13963261 -0.11985469 0.22232606
0.03567068 0.4898316 0.22765169 0.32178652 -0.26582137 0.017667431 0.45094153 0.2996978
-0.29112384 -0.06323957 0.6526483 0.06476756 0.44705823 -0.38499355 0.21502152 -0.81672096
-0.10555687 -0.048504993 -0.6455987 -0.39846176 -0.12383199 -0.31642628 -0.20073909 -0.61977524
-0.48868585 0.30244726 0.66079736 -0.43654677 0.1916604 0.07313115 0.5297728 -0.023242151
-0.3814668 -0.0907857 -0.5829886 0.021136671 -0.31938395 -0.039958578 0.3108904 0.87176955
-0.50230694 -0.12473257 -0.6337771 -0.8565508 -0.7734553 0.23911013 0.12766305 -0.12221056
-0.64906234 -0.689039 -0.13337527 0.36054397 -0.09193383 -0.013695779 -0.3118699 -0.4125933
0.3231949 0.5641013 -0.21117516 0.03817363 0.042078055 -0.41085023 -0.21318686 1.028524
0.89602566 -0.033399507 0.9477626 -0.29082987 -0.21583068 0.017494604 -0.066063724 -0.44968623
-0.10406488 -0.014532452 -0.6764888 -0.087768644 -0.061544105 -0.07856997 -0.004726028 -0.094526246
-0.04070393 0.3604241 -0.33110082 0.04868739 0.76605594 0.08346793 0.42219028 -0.07018501
-0.20000105 -0.39691824 -0.044973675 0.22891426 -0.21523516 -0.8712038 0.55777264 0.025153281

FC3.bias f4 [2]
00000000: d246 e33d e623 f63d
0.11097492 0.12018566
