results/run002/actor_0_net.pt (torch_old, 580506 bytes, 10 tensors)

BN1.weight f4 [24]
0.53294885 0.462456 0.17246784 0.7703748 -1.0443676 1.2844276 0.6045209 0.08266814
0.35455227 0.42245913 0.22237754 0.10214438 0.091408916 0.35885003 0.62504727 0.4565274
0.5481296 0.5223864 0.619414 0.52641296 1.201627 1.1746166 0.2708488 0.29208457
00000000: 566f 083f 08c7 ec3e 699b 303e 4837 453f
00000010: d6ad 85bf 2068 a43f e2c1 1a3f ea4d a93d
00000020: e087 b53e 904c d83e f0b6 633e 1331 d13d
00000030: 9934 bb3d 31bb b73e 1903 203f f6bd e93e
00000040: 3952 0c3f 1dbb 053f ea91 1e3f 00c3 063f
00000050: eace 993f d659 963f b2ac 8a3e 1c8c 953e

BN1.bias f4 [24]
0.42288855 -0.24704425 0.16497394 -0.32305807 0.076264784 -0.3015288 0.2916482 -0.6976038
0.47275874 -0.03353368 -0.11613245 -0.5470355 0.12750642 -0.22292073 0.001954572 -0.31534106
0.18584187 -0.47172627 0.1917747 -0.15512502 0.2244221 0.42386687 0.17416382 -0.16193615
00000000: d984 d83e 2bf9 7cbe eeee 283e de67 a5be
00000010: b630 9c3d fc61 9abe ea52 953e 2a96 32bf
00000020: 6f0d f23e 9d5a 09bd dad6 edbd 850a 0cbf
00000030: 0b91 023e 5545 64be 4718 003b 6274 a1be
00000040: 554d 3e3e 1b86 f1be 9660 443e 18d9 1ebe
00000050: e8ce 653e 1405 d93e 0058 323e 97d2 25be

BN1.running_mean f4 [24]
-5.0005355 -0.49730736 8.961437 -0.036245625 -0.13813305 3.8997319 8.961437 -0.036245625
-5.043654 -0.5047189 8.862073 -0.055214804 -0.121230684 3.905896 8.862073 -0.055214804
-5.103104 -0.51297855 8.846739 -0.022311121 -0.0907501 3.9127643 8.846739 -0.022311121
00000000: 6304 a0c0 129f febe 0c62 0f41 4b76 14bd
00000010: c072 0dbe 3595 7940 0c62 0f41 4b76 14bd
00000020: 9d65 a1c0 4235 01bf 0dcb 0d41 eb28 62bd
00000030: cb47 f8bd 33fa 7940 0dcb 0d41 eb28 62bd
00000040: a14c a3c0 9052 03bf 3e8c 0d41 d0c5 b6bc
00000050: 30db b9bd bb6a 7a40 3e8c 0d41 d0c5 b6bc

BN1.running_var f4 [24]
17.905127 1.0552119 384.49597 15.107668 28.677038 2.4862173 384.49597 15.107668
17.796976 1.0592538 391.16956 15.420382 29.386974 2.493438 391.16956 15.420382
17.666576 1.0588198 402.31168 15.931301 30.207542 2.5701175 402.31168 15.931301
00000000: b33d 8f41 2f11 873f 7c3f c043 02b9 7141
00000010: 936a e541 2f1e 1f40 7c3f c043 02b9 7141
00000020: 3560 8e41 a195 873f b495 c343 e2b9 7641
00000030: 8618 eb41 7d94 1f40 b495 c343 e2b9 7641
00000040: 2655 8d41 6887 873f e527 c943 9ce6 7e41
00000050: 0ca9 f141 ce7c 2440 e527 c943 9ce6 7e41

FC1.weight f4 [512, 24]
-0.64597017 -0.034166735 -0.34813684 0.23265669 -0.065089546 0.40284547 -0.42700318 0.17787337
-0.04086775 0.041265674 0.6759012 -0.0021963697 0.20344085 -0.07010955 0.76131403 -0.0017582843
-0.031714797 -0.11410651 -0.39538297 -0.17331757 0.2873758 -0.2758208 -0.44362298 -0.08407653
0.16529202 0.13208547 0.013970776 -0.07750289 0.022983475 0.038282473 -0.033051312 0.02626073
0.48420048 -0.16390547 0.054550413 -0.0369687 -0.25866535 0.16479765 0.14017251 -0.27409977
1.2869155 0.011884952 0.09856378 0.22345209 -0.44887477 -0.22005482 0.09807628 0.3138465
-0.58707654 -0.15590966 -0.35563126 0.34561515 -0.16785794 -0.13002881 -0.5699884 0.3075063
0.046636395 -0.2331134 1.2606465 0.19265121 0.089023374 0.121413 0.92602515 -0.060274094
0.13915254 -0.20114303 0.3225452 -0.17462438 0.12154072 -0.11252579 0.31851873 -0.09712833
-0.57311493 -0.10534178 -0.5163585 0.209413 -0.24765982 0.19160825 -0.41884547 0.19514754
-0.49918154 -0.1513722 0.55574334 0.15322497 0.007408478 -0.12656955 0.4139275 0.09623709
-0.19550475 -0.20474613 0.5515816 0.18209407 0.07178715 -0.30315888 0.40433493 0.0507278
-0.3260364 0.24686038 0.06104763 -0.34281573 0.12071286 0.022535698 0.17677961 -0.018420143
-0.7375884 -0.0029206302 -0.2840744 0.22155692 -0.33537516 -0.12634383 -0.42617837 0.42208183
-0.4383081 0.26886076 0.12024572 -0.22693421 0.16823101 -0.3011116 0.08947215 -0.018526899
-0.085485406 0.13455613 -0.15990695 0.28490913 -0.52981716 -0.16566783 -0.20152129 0.55276334
-0.09857734 0.17900321 0.41245583 0.66350603 0.21071969 -0.21487452 0.21579522 0.4259047
-0.0011941923 0.5223326 0.19761004 0.28598094 -0.08881595 -0.12194583 0.059163455 0.2704673
0.11770685 -0.20469269 -0.109386474 -0.2157829 0.5834456 -0.4577746 -0.15667236 0.076076254
0.11707278 -0.09486947 0.17721888 0.26782373 -0.15108775 0.36491072 0.17007534 0.42819294
0.2596751 0.0702766 0.15734299 -0.030809449 0.5077956 1.0743356 0.1442471 -0.082192205
-0.22209367 0.352265 -0.26046342 -0.06015988 0.24198984 0.18728685 -0.15798464 0.2546638
-0.29915524 -0.0013429984 -0.18671946 -0.013257446 -0.25971988 0.18052009 -0.52836996 -0.143215
0.61908215 0.24620327 0.87309027 0.0031454838 0.037597083 -0.10571198 0.7159929 0.005272318
0.20507811 -0.029942965 0.039916124 0.4622058 -0.36407864 0.483187 0.009836689 0.31840134
0.06410724 0.0921077 0.10305533 0.4614914 0.12348962 0.4615594 -0.08418404 0.24867326
0.10424679 0.36036828 0.050477725 -0.05075017 0.34796685 0.33787963 -0.09298206 0.17660433
0.4079863 0.25197235 -0.1960524 -0.14551021 -1.0059893 0.25060728 -0.050848775 0.42256355
0.12091586 0.05740569 0.10359618 0.6046986 0.032557953 0.80916 -0.05568137 0.06533485
0.34021047 0.2943278 0.0059848293 0.23629206 -0.5401817 0.46181422 -0.19103947 0.34502813
-0.05866784 -0.12111224 0.019426782 0.34388936 0.20972206 0.5123185 0.09047185 -0.054646943
0.1245881 0.19846591 0.52859986 0.10456854 -0.06593725 0.06743563 0.51388806 0.48992476
00000000: 4d5e 25bf 6bf2 0bbd fe3e b2be 8e3d 6e3e
00000010: ab4d 85bd c341 ce3e 29a0 dabe 7024 363e
00000020: f164 27bd 3206 293d dc07 2d3f f8f0 0fbb
00000030: cc52 503e 9995 8fbd 7ae5 423f 3b76 e6ba
00000040: 60e7 01bd adb0 e9bd a36f cabe 297a 31be
00000050: ec22 933e 6238 8dbe 8d22 e3be 5130 acbd
00000060: 5042 293e 6a41 073e afe5 643c d6b9 9ebd
00000070: d747 bc3c 15ce 1c3d d060 07bd be20 d73c
00000080: 20e9 f73e d6d6 27be 4170 5f3d 7e6c 17bd
00000090: c96f 84be b7c0 283e 6289 0f3e ce56 8cbe
000000a0: a6b9 a43f 1ab9 423c cfdb c93d a0d0 643e
000000b0: ead2 e5be 0d56 61be 37dc c83d 7db0 a03e
000000c0: a64a 16bf c8a6 1fbe 4d15 b6be 78f4 b03e
000000d0: f4e2 2bbe 4626 05be c3ea 11bf 7771 9d3e
000000e0: ce05 3f3d 47b5 6ebe dd5c a13f 5c46 453e
000000f0: e351 b63d 61a7 f83d fc0f 6d3f f8e1 76bd
00000100: 017e 0e3e 70f8 4dbe a524 a53e bcd0 32be
00000110: 57ea f83d ec73 e6bd e314 a33e 38eb c6bd
00000120: a9b7 12bf 6ebd d7bd 1230 04bf 5d70 563e
00000130: 899a 7dbe f434 443e ea72 d6be c2d4 473e
00000140: b994 ffbe 5001 1bbe 3245 0e3f 02e7 1c3e
00000150: d1c2 f23b 739b 01be 4eee d33e f417 c53d
00000160: 6632 48be f8a8 51be 7434 0d3f de76 3a3e
00000170: 2405 933d a437 9bbe fd04 cf3e f4c7 4f3d
00000180: 3eee a6be f8c8 7c3e 140d 7a3d 8b85 afbe
00000190: 4e38 f73d c99c b83c b705 353e d7e5 96bc
000001a0: 98d2 3cbf 0b68 3fbb 3372 91be d1df 623e
000001b0: 4bb6 abbe 4760 01be 0d34 dabe 1c1b d83e
000001c0: eb69 e0be 1ea8 893e 6343 f63d 7161 68be
000001d0: c044 2c3e 4d2b 9abe 2d3d b73d b9c5 97bc
000001e0: f912 afbd 15c9 093e a6be 23be 9cdf 913e
000001f0: 19a2 07bf d4a4 29be 995b 4ebe e681 0d3f
00000200: ebe2 c9bd 9e4c 373e 692d d33e 88db 293f
00000210: e7c6 573e 1108 5cbe 6cf9 5c3e 2e10 da3e
00000220: 7286 9cba 97b7 053f 495a 4a3e 186c 923e
00000230: 23e5 b5bd bcbe f9bd 6155 723d b17a 8a3e
00000240: 4a10 f13d f69a 51be 0406 e0bd 31f6 5cbe
00000250: b15c 153f 6f61 eabe b86e 20be decd 9b3d
00000260: dbc3 ef3d ed4a c2bd de78 353e 3120 893e
00000270: bfb6 1abe 94d5 ba3e 3b28 2e3e 1b3c db3e
00000280: 22f4 843e 2eed 8f3d 851e 213e 1964 fcbc
00000290: e4fe 013f d483 893f 83b5 133e 6354 a8bd
000002a0: 866c 63be 145c b43e 765b 85be 356a 76bd
000002b0: 2fcc 773e 20c8 3f3e bac6 21be 4b63 823e
000002c0: e02a 99be 8c07 b0ba 6333 3fbe c235 59bc
000002d0: 01fa 84be 42da 383e 4143 07bf f4a6 12be
000002e0: 2b7c 1e3f b61c 7c3e d882 5f3f 7624 4e3b
000002f0: 66ff 193d 867f d8bd 504b 373f 69c3 ac3b
00000300: ffff 513e f34a f5bc 177f 233d 3da6 ec3e
00000310: 8468 babe 4964 f73e 102a 213c 8005 a33e
00000320: a84a 833d f6a2 bc3d ac0e d33d 9a48 ec3e
00000330: 20e8 fc3d 8451 ec3e af68 acbd 34a4 7e3e
00000340: 577f d53d 3182 b83e bbc1 4e3d 69df 4fbd
00000350: b628 b23e 8ffe ac3e 616d bebd c4d7 343e
00000360: 95e3 d03e 8502 813e f6c1 48be a100 15be
00000370: 42c4 80bf 994f 803e ce46 50bd 405a d83e
00000380: bca2 f73d 3b22 6b3d 3c2a d43d 87cd 1a3f
00000390: 7d5b 053d 1c25 4f3f 2612 64bd 47ce 853d
000003a0: 1130 ae3e 22b2 963e 631c c43b 8cf6 713e
000003b0: 5949 0abf ea72 ec3e da9f 43be 87a7 b03e
000003c0: b04d 70bd b209 f8bd ea24 9f3c 4412 b03e
000003d0: 61c1 563e 4e27 033f 4e49 b93d 79d5 5fbd
000003e0: 0c28 ff3d a63a 4b3e 5252 073f 0828 d63d
000003f0: 1c0a 87bd b11b 8a3d 2b8e 033f 6bd7 fa3e

FC1.bias f4 [512]
0.0032072803 -0.20896053 -0.12531623 -0.3499417 -0.34583446 -0.5086191 -0.083769634 -0.39520624
-0.29759791 -0.3194541 -0.30147332 0.13932487 -0.2705556 -0.27121183 -0.22195835 -0.03528302
0.18812342 -0.39744478 -0.16520049 -0.36167136 -0.18073419 -0.24748787 -0.451346 -0.085005924
-0.23022825 -0.19076264 -0.25103912 -0.14614923 -0.5374795 -0.2962221 -0.18612465 -0.22568998
-0.3144986 -0.18729608 -0.22392365 -0.41588914 -0.008276273 -0.0739473 -0.41986552 -0.5102758
-0.644853 -0.4247158 0.0007145593 0.020891268 -0.11224134 -0.32301944 -0.02301401 -0.24471323
-0.2688582 -0.28495717 -0.19899184 -0.5947467 -0.34294394 -0.19630489 -0.5906556 -0.2663213
-0.5009783 0.015821131 -0.6797871 -0.5405697 -0.4009181 -0.31944066 -0.19807337 0.02830014
-0.29312927 0.1638798 -0.22569606 -0.25105864 -0.09035195 -0.073106386 -0.18699355 -0.42973796
0.17938215 -0.2534538 -0.009614379 -0.038327757 -0.006793526 0.26062837 -0.38181135 -0.4838505
-0.6211014 -0.016833268 -0.16158417 -0.091892935 0.21152136 0.0530866 -0.086608164 -0.065851934
-0.057023674 -0.1322386 -0.12090411 -0.16577674 0.14893273 -0.23719941 0.024398424 -0.48466626
0.022153389 0.07762392 -0.24809296 -0.34293544 -0.20159249 0.048865043 -0.24386287 -0.20256746
-0.004652061 -0.39454177 -0.4979888 -0.41642135 -0.052747592 -0.25553572 -0.0083567 -0.012897125
-0.23219709 -0.32806805 -0.058615796 -0.3032115 -0.29529786 -0.08694487 -0.6196101 -0.44856587
-0.06016233 -0.4292486 -0.27007142 -0.044751037 -0.21157931 -0.07752114 -0.17060736 -0.056142844
0.23475523 -0.2931207 0.057193372 -0.34510863 -0.26794147 -0.07472193 -0.26908863 -0.004560485
-0.3357932 -0.5841447 -0.39145985 -0.3236841 -0.10775255 -0.62631935 -0.05590706 -0.11914816
-0.030646935 0.038040835 0.036587536 -0.18747918 -0.12589456 -0.2550746 -0.074473694 -0.4344777
-0.662608 -0.20145172 -0.26476294 -0.44298163 -0.022929965 0.16542336 -0.32536328 -0.45947942
-0.17336564 -0.31863812 -0.1351386 0.15845306 -0.32111883 0.018996153 -0.47128567 -0.0069464776
-0.34712982 0.20076205 -0.38610625 0.19838612 -0.40539292 -0.10000776 -0.4656466 -0.1146962
-0.16265458 -0.15165268 -0.1624418 -0.039684717 0.15053439 -0.38138166 0.05203625 -0.4772039
-0.20877855 -0.03933906 -0.16647848 -0.27651733 -0.025852218 -0.4222049 -0.6104791 -0.3140025
-0.6159863 -0.24210596 0.04518501 -0.33424145 -0.43156174 -0.066970594 -0.4840471 -0.33072898
-0.30789015 -0.28878534 -0.15759091 0.1604138 -0.15889494 0.08465779 0.0314708 -0.542974
-0.17869121 0.0031338239 0.067831546 -0.03358997 -0.136844 -0.5850962 -0.20687376 -0.06481905
-0.42241135 -0.5708734 -0.11545347 -0.4828726 -0.037572436 -0.323265 -0.34480047 0.07092508
-0.4509893 0.0945161 -0.22713661 -0.24066065 -0.03462915 -0.028355472 0.37486947 -0.2708426
-0.25251797 0.15135579 -0.2400245 -0.20072785 -0.617419 -0.15710826 -0.54892755 -0.26307467
0.013179042 -0.20078734 0.11078359 -0.39896077 -0.052276447 -0.5714473 -0.30227348 -0.50618774
0.08117768 0.06824037 -0.3426407 -0.3436036 -0.13508286 -0.30690706 -0.38798642 -0.26255327
00000000: 3c31 523b c0f9 55be e652 00be 8f2b b3be
00000010: 3711 b1be dd34 02bf 6a8f abbd 7958 cabe
00000020: c15e 98be 7d8f a3be b65a 9abe 2eab 0e3e
00000030: 4386 8abe 47dc 8abe 0d49 63be ee84 10bd
00000040: 6da3 403e e27d cbbe 512a 29be fd2c b9be
00000050: 6212 39be 766d 7dbe d316 e7be 9617 aebd
00000060: f4c0 6bbe 4857 43be 3388 80be 25a8 15be
00000070: 4298 09bf 6caa 97be 7697 3ebe 461b 67be
00000080: f605 a1be 8bca 3fbe 3e4c 65be 6cef d4be
00000090: 3499 07bc af71 97bd 9df8 d6be 6fa1 02bf
000000a0: 1615 25bf 5974 d9be 4351 3b3a 2a24 ab3c
000000b0: cade e5bd ce62 a5be e187 bcbc 1b96 7abe
000000c0: c8a7 89be e8e5 91be 84c4 4bbe 5241 18bf
000000d0: 5996 afbe 2604 49be 3535 17bf 445b 88be
000000e0: 1d40 00bf 519b 813c 8706 2ebf c762 0abf
000000f0: 2345 cdbe ba8d a3be bfd3 4abe b2d5 e73c
00000100: 0a15 96be 1bd0 273e de1c 67be c28a 80be
00000110: 710a b9bd cdb8 95bd 3d7b 3fbe 9d06 dcbe
00000120: f4af 373e b2c4 81be a185 1dbc 91fd 1cbd
00000130: 3a9c debb 1571 853e c77c c3be 41bb f7be
00000140: 8000 1fbf ece5 89bc 5276 25be 5d32 bcbd
00000150: 0e99 583e 5671 593d 9f5f b1bd 61dd 86bd
00000160: a891 69bd 8e69 07be 939c f7bd 61c1 29be
00000170: d281 183e 67e4 72be 34df c73c 2d26 f8be
00000180: 067b b53c 4af9 9e3d 150c 7ebe 3c95 afbe
00000190: 436e 4ebe b626 483d 30b7 79be d86d 4fbe
000001a0: 5170 98bb 6101 cabe 63f8 febe 2e35 d5be
000001b0: dc0d 58bd 94d5 82be 8aea 08bc 774e 53bc
000001c0: 13c5 6dbe 89f8 a7be 1e17 70bd 8a3e 9bbe
000001d0: 4831 97be 2710 b2bd c49e 1ebf 6daa e5be
000001e0: c66c 76bd 79c6 dbbe cd46 8abe dd4c 37bd
000001f0: 3fa8 58be 67c3 9ebd b2b3 2ebe 0af6 65bd
00000200: ad63 703e eb13 96be 9943 6a3d 14b2 b0be
00000210: a02f 89be d007 99bd fcc5 89be 1f70 95bb
00000220: 16ed abbe 828a 15bf 6d6d c8be ecb9 a5be
00000230: 5ead dcbd 7756 20bf cdfe 64bd f303 f4bd
00000240: 480f fbbc b5d0 1b3d d0dc 153d 8bfa 3fbe
00000250: 81ea 00be 2399 82be aa85 98bd dc73 debe
00000260: aea0 29bf 5c49 4ebe 028f 87be 7dce e2be
00000270: 9fd7 bbbc be64 293e 0496 a6be e340 ebbe
00000280: c386 31be 8924 a3be c661 0abe 8541 223e
00000290: b069 a4be d29d 9b3c 5b4c f1be 479f e3bb
000002a0: 00bb b1be 9194 4d3e b8af c5be bb25 4b3e
000002b0: a98f cfbe ded0 ccbd 3b69 eebe d7e5 eabd
000002c0: ec8e 26be d74a 1bbe 2557 26be 718c 22bd
000002d0: b025 1a3e 7544 c3be f623 553d 1254 f4be
000002e0: 0bca 55be ff21 21bd 5679 2abe ae93 8dbe
000002f0: 08c8 d3bc 3e2b d8be 5c48 1cbf f0c4 a0be
00000300: 47b1 1dbf a0ea 77be eb13 393d b221 abbe
00000310: a9f5 dcbe e127 89bd 06d5 f7be 4f55 a9be
00000320: c7a3 9dbe acdb 93be 835f 21be 8443 243e
00000330: 5bb5 22be 1061 ad3d 87e7 003d 5800 0bbf
00000340: d4fa 36be d760 4d3b 44eb 8a3d a395 09bd
00000350: d520 0cbe ddc8 15bf b7d6 53be dabf 84bd
00000360: 4d46 d8be c224 12bf de72 ecbd 143b f7be
00000370: 8ee5 19bd fd82 a5be b089 b0be 2b41 913d
00000380: 12e8 e6be a891 c13d 8096 68be bf6f 76be
00000390: 4cd7 0dbd bc49 e8bc e4ee bf3e e2ab 8abe
000003a0: 094a 81be 03fd 1a3e fcc8 75be 9a8b 4dbe
000003b0: 2c0f 1ebf fde0 20be 8486 0cbf b9b1 86be
000003c0: e9ec 573c 329b 4dbe 82e2 e23d 9644 ccbe
000003d0: d41f 56bd 5f4a 12bf 97c3 9abe 8595 01bf
000003e0: 7c40 a63d 9bc1 8b3d 9a6e afbe d0ec afbe
000003f0: 2953 0abe ec22 9dbe 28a6 c6be 626d 86be

FC2.weight f4 [256, 512]
0.1306287 -0.06929197 -0.45784864 -0.24168284 -0.18214636 -0.095492765 0.20154272 -0.33314887
0.01822004 0.32281372 -0.04036411 0.084933475 -0.335647 -0.42832237 0.69645435 0.14626473
0.3329413 0.27934593 0.0182359 0.19494611 0.12974843 -0.16711769 -0.09712585 0.15919568
-0.1348106 -0.17535011 -0.03194512 0.20619607 0.41398984 0.32133 -0.012394633 -0.6372875
-0.27054036 -0.47616407 -0.29253936 -0.2810941 -0.42903182 -0.06619143 0.3001418 -0.1957662
-0.41073135 -0.43631688 -0.0029575627 0.08678262 0.049294084 -0.110198386 0.040695127 -0.39394236
-0.114704564 -0.25845557 -0.34239656 0.005378713 -0.26331767 -0.0012933991 -0.03417383 0.17300949
-0.8270303 0.09174064 -0.5990465 -0.74265075 0.3998744 0.070939876 0.10666054 -0.5934315
-0.21756016 0.0006755213 -0.10280325 -0.30842987 0.11831023 0.2666823 -0.026196225 0.51650757
-1.0338923 -0.17805499 0.2032558 0.16368198 0.0977958 0.19851506 0.10027983 -0.46610355
-0.29120773 -0.47569117 -0.5297751 -0.18990676 -0.14420108 0.010634455 0.1701715 0.13717896
0.20129135 -0.3449269 -0.111613385 0.021203097 0.21303216 -0.21994682 -0.23656897 -0.7619864
-0.057554763 -0.06267378 -0.11301649 0.2069018 -0.3957348 0.20028803 -0.40798596 -0.5572228
-0.044596173 -0.40509552 -0.1491779 -0.8221487 -0.30775434 0.2660668 -0.13801977 0.28746617
0.20429513 -0.63285273 -0.23464108 -0.29071227 0.22338006 -0.29984266 0.23366603 0.16631459
0.0112940855 0.21716169 -0.09886804 -0.26578134 -0.28268212 0.23336424 -0.31108114 -0.15260243
-0.021035075 -0.034114257 -0.12119123 -0.14459138 0.105746865 0.280601 0.20400552 0.006379976
-0.5165148 -0.56626594 -0.27995092 -0.499684 0.36003166 -0.35449624 -0.14646772 -0.45219842
-0.07979405 0.3691325 0.32101735 0.045758 -0.2894702 -0.037973683 -0.060183372 -0.3203706
-0.25205278 0.07436815 -0.028893849 -0.3325868 0.19323197 0.052747216 0.3854027 0.067043066
-0.21529976 -0.34852347 -0.23720013 -0.11313234 -0.027212024 0.18705046 -0.25133955 0.27418187
0.062751144 0.1834107 -0.13242175 -0.1089597 -0.4140587 -0.6634187 0.308372 -0.35861626
0.25539652 -0.2559091 -0.45423892 0.2359878 -0.22041944 0.18123995 0.13286257 -0.29439968
0.42993057 -0.43347743 0.18474044 0.087187 0.17417853 0.2461504 0.04587888 -0.038238447
-0.24134229 -0.54031754 0.27942896 0.089916214 -0.7211353 -0.58724785 0.1526348 0.10704195
-0.01669767 -0.19635321 0.12185604 -0.12918332 0.63771176 -0.65444684 -0.35705206 -0.44957265
-0.13448095 0.13305002 -0.15505579 0.23025104 -0.07996215 0.22426954 0.060781468 -0.24274378
-0.064851254 -0.13193573 0.060952492 -0.17342165 -0.055583064 -0.13994297 -0.3154554 -0.7970553
-0.23637846 0.08836873 0.13342781 0.30988583 0.44042537 -0.675211 -0.16643538 0.41369152
-0.106783375 -0.33009514 0.22550516 -0.2705177 0.10350864 -0.44789338 0.3733261 -0.52220064
0.10837367 0.561346 0.3282213 -0.48160955 -0.44101587 0.1367007 -0.23231965 -0.4609774
-0.025694124 0.10882235 -0.4325067 -0.16400868 -0.59067744 0.026665822 -0.17268966 0.3403239
00000000: 88c3 053e f3e8 8dbd 236b eabe b57b 77be
00000010: 9384 3abe b691 c3bd 3761 4e3e 7d92 aabe
00000020: 3142 953c d747 a53e d654 25bd 9af1 ad3d
00000030: ecd9 abbe 124d dbbe d54a 323f 6cc6 153e
00000040: 4877 aa3e 6e06 8f3e 7463 953c f49f 473e
00000050: c6dc 043e e620 2bbe ebe9 c6bd 3104 233e
00000060: ca0b 0abe fb8e 33be e3d8 02bd 1025 533e
00000070: 7af6 d33e 5e85 a43e dc12 4bbc 4625 23bf
00000080: 4484 8abe c7cb f3be b8c7 95be 91eb 8fbe
00000090: 0faa dbbe 5f8f 87bd 30ac 993e ef76 48be
000000a0: 614b d2be ed64 dfbe abd3 41bb 16bb b13d
000000b0: 98e8 493d b1af e1bd efaf 263d d0b2 c9be
000000c0: 3aea eabd 4a54 84be 9a4e afbe ea3f b03b
000000d0: 93d1 86be 4687 a9ba dcf9 0bbd 6629 313e
000000e0: 42b8 53bf 84e2 bb3d 1d5b 19bf 5c1e 3ebf
000000f0: 56bc cc3e ed48 913d d770 da3d 20eb 17bf
00000100: 17c8 5ebe 7815 313a 838a d2bd 85ea 9dbe
00000110: a24c f23d 958a 883e 7799 d6bc d739 043f
00000120: 9556 84bf 0c54 36be 4a22 503e 409c 273e
00000130: 2a49 c83d 8847 4b3e 835f cd3d 20a5 eebe
00000140: 2e19 95be cb8d f3be 579f 07bf eb76 42be
00000150: 73a9 13be 233c 2e3c 7041 2e3e a478 0c3e
00000160: 521f 4e3e 429a b0be 8f95 e4bd 1eb2 ad3c
00000170: 1a25 5a3e bd39 61be 233f 72be 8a11 43bf
00000180: 8bbe 6bbd 1c5b 80bd 3175 e7bd 11de 533e
00000190: c09d cabe 4e18 4d3e 89e3 d0be 27a6 0ebf
000001a0: 7aaa 36bd ae68 cfbe 17c2 18be 5678 52bf
000001b0: fa91 9dbe e839 883e 0e55 0dbe c42e 933e
000001c0: be32 513e a302 22bf c045 70be 3dd8 94be
000001d0: bebd 643e fa84 99be 2646 6f3e 5f4e 2a3e
000001e0: d40a 393c a25f 5e3e 547b cabd 7e14 88be
000001f0: b6bb 90be 09f7 6e3e 0746 9fbe d043 1cbe
00000200: c051 acbc 64bb 0bbd 1c33 f8bd c30f 14be
00000210: d091 d83d efaa 8f3e d3e6 503e 1e0f d13b
00000220: 503a 04bf cef6 10bf ba55 8fbe 95d6 ffbe
00000230: 1256 b83e 8880 b5be a2fb 15be 8d86 e7be
00000240: 106b a3bd effe bc3e 635c a43e be6c 3b3d
00000250: 7035 94be 4b8a 1bbd d782 76bd 9e07 a4be
00000260: 100d 81be 544e 983d cbb2 ecbc d148 aabe
00000270: 9ade 453e 770d 583d 8153 c53e e04d 893d
00000280: 8a77 5cbe ab71 b2be 97e4 72be eeb1 e7bd
00000290: c0eb debc 288a 3f3e 94af 80be 9161 8c3e
000002a0: ac83 803d 04d0 3b3e 9199 07be 4326 dfbd
000002b0: 80ff d3be cfd5 29bf efe2 9d3e 8d9c b7be
000002c0: 55c3 823e 8406 83be 0192 e8be c9a6 713e
000002d0: a2b5 61be f796 393e 200d 083e 8ebb 96be
000002e0: dc1f dc3e c1f0 ddbe 992c 3d3e 198f b23d
000002f0: db5b 323e da0e 7c3e 7eeb 3b3d eb9f 1cbd
00000300: 6f22 77be 4052 0abf 5011 8f3e fe25 b83d
00000310: 539c 38bf e055 16bf 4c4c 1c3e cf38 db3d
00000320: 8dc9 88bc d110 49be a98f f93d a248 04be
00000330: 1441 233f d489 27bf 87cf b6be 632e e6be
00000340: 60b5 09be 443e 083e f2c6 1ebe eec6 6b3e
00000350: 32c3 a3bd eaa6 653e fdf5 783d d391 78be
00000360: bcd0 84bd 291a 07be 52a9 793d 7295 31be
00000370: 11ab 63bd 364d 0fbe 5f83 a1be d10b 4cbf
00000380: 320d 72be aafa b43d 4da1 083e 5ba9 9e3e
00000390: 6f7f e13e a1da 2cbf 096e 2abe 60cf d33e
000003a0: 3eb1 dabd 3b02 a9be d3ea 663e 4c81 8abe
000003b0: 56fc d33d 4852 e5be 9924 bf3e f1ae 05bf
000003c0: 04f3 dd3d 5fb4 0f3f 9f0c a83e 8795 f6be
000003d0: d5cc e1be 45fb 0b3e 34e5 6dbe 3b05 ecbe
000003e0: 7c7c d2bc 41de de3d 8571 ddbe e4f1 27be
000003f0: a336 17bf 4872 da3c 8fd5 30be ef3e ae3e

FC2.bias f4 [256]
-0.22611925 -0.36161578 -0.07306504 -0.17084606 -0.40064526 0.061101757 -0.28204885 -0.12219591
-0.10886128 -0.29415777 0.0067705913 -0.4131501 -0.07130687 -0.07013 0.024825633 -0.23233406
-0.22290371 -0.36732098 -0.10052318 -0.04952626 -0.4470239 0.039603785 -0.14574616 0.010745386
-0.2397094 0.16854866 -0.1625261 -0.24469022 -0.33928534 -0.357624 -0.06828452 -0.4024046
-0.10433759 -0.11815398 0.12719028 -0.27661288 -0.28599134 -0.383074 -0.24511845 -0.07923347
-0.35694322 -0.2357603 -0.060837187 -0.43780392 -0.21207508 -0.13044924 -0.34662515 -0.31843582
-0.17049348 -0.10363221 -0.07304731 -0.19104262 0.06407191 -0.44160858 0.033865217 -0.28883246
-0.042981267 -0.08223678 -0.13924514 0.05107435 -0.0124626355 -0.26855987 -0.03953763 -0.12380027
-0.46131468 -0.33187386 0.068258114 -0.033936124 -0.37044033 -0.23992933 -0.26725075 -0.06009758
-0.061437815 -0.074969254 -0.55776846 -0.33064458 -0.31300732 -0.17500825 -0.44768134 0.1352897
-0.38136062 -0.11266879 -0.040887717 -0.48351163 -0.31700137 -0.1324149 -0.12985487 -0.25943312
0.095603645 -0.22049326 -0.024412397 -0.09262942 -0.2516482 0.20368417 0.11878114 -0.1498684
-0.26076818 0.032563683 -0.14756973 -0.3322815 -0.08414584 0.061990645 -0.05588795 -0.037521876
-0.27279532 -0.25033864 -0.43772614 -0.06732596 -0.040978808 -0.18813486 -0.21621345 -0.0909316
0.15300718 -0.15533526 -0.08295222 -0.008332764 -0.054460634 0.07154375 -0.27405024 0.04675584
-0.20312098 -0.2671171 -0.16210611 -0.093245715 0.061232623 -0.0072249016 0.100702435 -0.24304481
-0.05523206 -0.6070231 0.056381844 -0.20126814 -0.25095192 -0.12138688 -0.085850015 -0.18379347
-0.018924702 0.034381215 -0.2412455 -0.060803827 -0.13391878 -0.16315462 -0.31028986 -0.1330824
-0.13715959 -0.21831173 -0.053751655 -0.009704787 -0.068467505 -0.03783576 -0.018943425 -0.17277941
0.08112932 -0.14823975 -0.13048178 -0.27028108 -0.0729761 -0.22066684 0.20065632 -0.22030222
-0.5128237 -0.26813385 -0.16210586 -0.074182406 -0.34672272 -0.16354755 -0.21341191 -0.19574265
0.014651819 -0.03770613 -0.07983589 0.1249267 -0.043543026 -0.049000803 0.030536361 0.022254188
-0.29996616 -0.13082522 -0.03299785 -0.108672746 0.04142962 -0.21638918 -0.07694687 -0.39980155
-0.0023736726 -0.07761675 -0.12966679 0.047275096 -0.43918175 -0.14596167 -0.1344855 -0.13729806
-0.03687689 -0.19300282 -0.13026828 -0.20175534 -0.15556026 -0.4503576 -0.19328415 -0.1965551
-0.12961462 -0.39762855 -0.29954934 -0.15749271 -0.18877725 -0.29900795 -0.2245836 -0.53382707
-0.10306603 -0.021556485 -0.06788445 -0.019581625 -0.15614593 -0.20616023 0.06210173 -0.16740368
-0.12003569 -0.025366751 -0.34471866 0.002636197 0.11445218 -0.23962969 0.12841205 0.06757752
-0.23841174 -0.09058093 -0.27524275 -0.22717452 -0.18543002 -0.27986854 -0.18267195 -0.43454325
-0.09357398 -0.54634476 -0.07608368 0.13120182 -0.2975336 -0.342215 -0.12405633 -0.19784895
-0.04248311 -0.23448479 -0.13024676 -0.07855712 0.07400096 -0.38092098 -0.18814507 -0.3398833
-0.06554955 -0.2503073 -0.17244162 -0.14768696 0.09067006 -0.10011228 -0.07742193 -0.16299155
00000000: ce8b 67be b425 b9be 20a3 95bd 45f2 2ebe
00000010: 6021 cdbe d645 7a3d b568 90be d941 fabd
00000020: aaf2 debd d99b 96be d6db dd3b 6988 d3be
00000030: 5609 92bd 51a0 8fbd 205f cb3c fbe8 6dbe
00000040: df40 64be 7f11 bcbe 19df cdbd 0cdc 4abd
00000050: 51e0 e4be 9437 223d 7b3e 15be 6a0d 303c
00000060: 6276 75be 0598 2c3e 3e6d 26be 1390 7abe
00000070: cfb6 adbe 7e1a b7be c1d8 8bbd fa07 cebe
00000080: f2ae d5bd b7fa f1bd 2b3e 023e 34a0 8dbe
00000090: 756d 92be 4622 c4be 5500 7bbe 2845 a2bd
000000a0: 43c1 b6be 266b 71be 6a30 79bd d627 e0be
000000b0: 362a 59be 7c94 05be da78 b1be 050a a3be
000000c0: d895 2ebe 203d d4bd d499 95bd ada0 43be
000000d0: 2238 833d 851a e2be 41b6 0a3d d9e1 93be
000000e0: 200d 30bd c26b a8bd 4796 0ebe 5633 513d
000000f0: 1530 4cbc ae80 89be 36f2 21bd ff8a fdbd
00000100: 7031 ecbe 5feb a9be e9ca 8b3d 9b00 0bbd
00000110: 5baa bdbe 09b0 75be 17d5 88be e128 76bd
00000120: 38a6 7bbd 7b89 99bd eac9 0ebf 3f4a a9be
00000130: 7f42 a0be 5d35 33be 7d36 e5be 6289 0a3e
00000140: b341 c3be e5be e6bd e179 27bd d68e f7be
00000150: 014e a2be c697 07be adf8 04be 6bd4 84be
00000160: d8cb c33d fcc8 61be 82fc c7bc 7eb4 bdbd
00000170: 08d8 80be 9592 503e 8743 f33d 1a77 19be
00000180: 6883 85be 7f61 053d 851c 17be cd20 aabe
00000190: a754 acbd e7e9 7d3d c3ea 64bd 8ab0 19bd
000001a0: d4ab 8bbe 632c 80be a41d e0be 31e2 89bd
000001b0: 65d9 27bd 6da6 40be 0f67 5dbe 593a babd
000001c0: eaad 1c3e 3510 1fbe dbe2 a9bd 2586 08bc
000001d0: 1d12 5fbd 8885 923d 5050 8cbe 0d83 3f3d
000001e0: f2fe 4fbe 93c3 88be 25ff 25be 9cf7 bebd
000001f0: 0fcf 7a3d debe ecbb 143d ce3d bde0 78be
00000200: 033b 62bd de65 1bbf a6f0 663d 3c19 4ebe
00000210: c57c 80be af99 f8bd 22d2 afbd 5b34 3cbe
00000220: fa07 9bbc 51d3 0c3d 0f09 77be 6f0d 79bd
00000230: 0122 09be 0112 27be 50de 9ebe c146 08be
00000240: 9073 0cbe 1c8d 5fbe b22a 5cbd d400 1fbc
00000250: b138 8cbd abf9 1abd 3e2f 9bbc 16ed 30be
00000260: 2127 a63d 29cc 17be 049d 05be 4862 8abe
00000270: 7e74 95bd 7df6 61be da78 4d3e e896 61be
00000280: 6a48 03bf d748 89be 14ff 25be f2ec 97bd
00000290: a485 b1be 0279 27be a788 5abe c370 48be
000002a0: 2f0e 703c be71 1abd 0081 a3bd 92d9 ff3d
000002b0: 2c5a 32bd 11b5 48bd 6427 fa3c 6a4e b63c
000002c0: 2a95 99be 0cf7 05be c128 07bd d18f debd
000002d0: 1bb2 293d 2095 5dbe 5296 9dbd cab2 ccbe
000002e0: 9e8f 1bbb 88f5 9ebd 5fc7 04be 88a3 413d
000002f0: 6edc e0be fa76 15be 91b6 09be dd97 0cbe
00000300: 390c 17bd 88a2 45be 0c65 05be f498 4ebe
00000310: 304b 1fbe 4595 e6be 48ec 45be bd45 49be
00000320: b2b9 04be f895 cbbe 885e 99be c545 21be
00000330: d34e 41be 9217 99be 3ef9 65be e4a8 08bf
00000340: 4814 d3bd 3a97 b0bc 0107 8bbd a569 a0bc
00000350: b8e4 1fbe ab1b 53be 625e 7e3d df6b 2bbe
00000360: 46d5 f5bd efcd cfbc f77e b0be 0cc4 2c3b
00000370: e865 ea3d 7c61 75be 737e 033e 1566 8a3d
00000380: 3522 74be 7f82 b9bd 9eec 8cbe 70a0 68be
00000390: 5ee1 3dbe ee4a 8fbe 5b0e 3bbe 747c debe
000003a0: b7a3 bfbd 40dd 0bbf c3d1 9bbd c559 063e
000003b0: 5356 98be ce36 afbe 3f11 febd ea98 4abe
000003c0: c502 2ebd c81c 70be 685f 05be 8ee2 a0bd
000003d0: d18d 973d 1308 c3be 1aa9 40be 2f05 aebe
000003e0: d83e 86bd 4728 80be 8994 30be 403b 17be
000003f0: 39b1 b93d ab07 cdbd 648f 9ebd 42e7 26be

FC3.weight f4 [2, 256]
0.048299093 0.08037753 0.2641022 -0.0672872 -0.62958825 0.14771986 -0.712954 -0.21964937
-0.082026355 -0.018822 -0.21439855 -0.3483443 0.95581496 -0.2646687 0.410123 0.4595299
0.83503777 -0.7375789 0.034365516 0.13204378 -0.054346327 0.67700326 -0.37335134 0.02412525
0.3911497 0.638398 0.9377869 -0.6653813 -0.29183352 -0.05636962 0.36605906 0.16348436
-0.33238286 0.34091666 0.16382843 0.52792954 1.3590316 -1.0729407 0.31819636 0.0059594875
-0.43299982 0.5585832 0.25778604 -0.46875867 0.6428457 0.17529282 0.23894678 0.37854147
-0.020548062 0.13908644 0.2685249 -0.30208415 -0.06802135 -0.17019746 0.73892635 0.5815612
0.53450626 -0.049210425 0.40665543 0.6440256 -0.18531507 0.6150052 -0.080641285 -0.90496975
0.9810433 0.07368362 0.7512549 0.2281638 -0.7734482 0.6506637 -0.36322784 0.14022654
-0.41229165 0.026753452 -0.67517877 -0.077622846 -0.19030324 0.15883225 -0.22812769 0.47157362
-0.10367965 -0.29060122 0.1575944 -1.4988769 -0.30146298 -0.20411243 -0.11005998 0.05193295
0.15503076 -0.12382231 0.4140857 0.05499531 0.061699633 0.38426968 0.0083937785 0.7524989
-0.031379886 0.29054382 -0.87060255 -0.043163944 0.5367552 0.04223004 -0.0049276017 0.19667773
-0.5523762 -0.26194113 -0.3395034 0.49997333 0.166193 -0.80737054 0.93884355 -0.059636362
0.31536368 0.0061504515 -0.6951269 -0.50940865 0.35230565 -0.20031354 -0.068532914 0.46219742
0.04070567 -0.6707591 0.23616576 0.0372715 0.114099674 0.7049086 -0.094293185 -0.050958823
0.23063575 0.77632064 0.28846383 -0.8424783 -0.39896137 -0.061711088 -0.09383503 0.15910836
-0.07824743 0.53551185 0.34101328 0.13105392 0.107921205 -0.042322442 -0.02703339 0.081114225
-0.7240398 0.041062083 -0.8569415 0.5571257 -0.0828721 0.26101467 -0.17708997 0.7403791
0.69956154 -0.53534824 -0.14661275 -0.23466785 -0.04305255 -0.54606354 0.48356074 0.40779996
-0.71194625 -0.3820272 0.10136601 0.24832568 -0.5830717 -0.60736215 -0.043564793 -0.10593958
-0.0024579903 0.65468013 0.93020767 0.085239545 0.4046916 0.72144866 -0.048625916 -0.5885504
0.18643402 0.29095414 0.6053778 -0.053781766 0.8234327 -0.95741546 0.0069101835 0.13676718
-0.566695 -0.9072536 -0.04443765 0.49647132 -0.11405956 -0.12209933 0.49551463 -0.05803032
0.35233295 -0.35422432 -0.2812042 -0.005169914 0.6970373 -0.6174206 -0.08017664 -0.35702223
0.022825254 0.09191225 -0.29003698 -0.0028700358 0.020534728 0.36967158 0.88010573 -0.7488498
-0.46323955 -0.0013871692 -0.6979004 -0.7846877 -0.056869153 0.2746911 0.05666732 -0.28041205
-0.25505406 0.37808135 -0.23453334 -0.049709182 0.08846791 0.09290486 0.48456502 0.5070994
0.19828399 -0.12934911 -0.47542152 0.36059025 0.33706713 -0.88536674 -0.25538406 -0.7937858
0.92492664 -0.83032227 0.6793129 -0.5322569 -0.44784638 -0.7364172 0.044205476 -0.74978065
0.11817801 -0.21955189 -1.0959451 0.912082 0.4554779 0.5950474 -0.31298843 -0.14008902
-0.14567074 0.031067172 0.13936004 0.4996338 0.2552436 0.09347357 -0.05411866 -0.37532258
00000000: 45d5 453d f99c a43d 6738 873e dfcd 89bd
00000010: b22c 21bf e043 173e 2784 36bf c4eb 60be
00000020: 6ffd a7bd 9830 9abc 4b8b 5bbe 2f5a b2be
00000030: 4ab0 743f a882 87be a4fb d13e 8147 eb3e
00000040: 09c5 553f f9d1 3cbf dbc2 0c3d 7c36 073e
00000050: 419a 5ebd 1650 2d3f e827 bfbe 51a2 c53c
00000060: c644 c83e 0d6e 233f cd12 703f 6e56 2abf
00000070: 346b 95be d5e3 66bd 186c bb3e 7268 273e
00000080: 162e aabe a18c ae3e a4c2 273e 6426 073f
00000090: bff4 ad3f 1f56 89bf a2ea a23e ce47 c33b
000000a0: 27b2 ddbe 4fff 0e3f 88fc 833e 2301 f0be
000000b0: 8991 243f f67f 333e 77ae 743e 30d0 c13e
000000c0: 6954 a8bc ad6c 0e3e 187c 893e c6aa 9abe
000000d0: c74e 8bbd 3e48 2ebe 472a 3d3f 32e1 143f
000000e0: 67d5 083f df90 49bd 2435 d03e ddde 243f
000000f0: 3cc3 3dbe fb70 1d3f 4227 a5bd 19ac 67bf
00000100: a725 7b3f 70e7 963d 3e52 403f c5a3 693e
00000110: b400 46bf e591 263f 00f9 b9be 8c97 0f3e
00000120: e417 d3be 0e2a db3c 84d8 2cbf baf8 9ebd
00000130: dade 42be eca4 223e 4e9a 69be 1972 f13e
00000140: ff55 d4bd afc9 94be 6d60 213e 33db bfbf
00000150: 5b59 9abe d902 51be 2067 e1bd a5b7 543d
00000160: 62c0 1e3e 8d96 fdbd 0a03 d43e c342 613d
00000170: c1b8 7c3d ffbe c43e 0f86 093c c5a3 403f
00000180: 3288 00bd 29c2 943e cfdf 5ebf adcc 30bd
00000190: ca68 093f 68f9 2c3d b877 a1bb e365 493e
000001a0: 8768 0dbf 261d 86be 64d3 adbe 81fc ff3e
000001b0: 7f2e 2a3e d6af 4ebf 0d58 703f 4245 74bd
000001c0: 5977 a13e ba89 c93b d6f3 31bf 9b68 02bf
000001d0: 6861 b43e fe1e 4dbe fc5a 8cbd 24a5 ec3e
000001e0: fdba 263d deb6 2bbf 70d5 713e 00aa 183d
000001f0: 17ad e93d e474 343f c91c c1bd 33ba 50bd
00000200: c72b 6c3e f3bc 463f 88b1 933e a8ac 57bf
00000210: aa44 ccbe c4c4 7cbd 952c c0bd 4ded 223e
00000220: 3040 a0bd 4e17 093f 4b99 ae3e 0033 063e
00000230: cb05 dd3d 4c5a 2dbd 2175 ddbc 371f a63d
00000240: ac5a 39bf b730 283d 8560 5bbf ca9f 0e3f
00000250: d9b8 a9bd b7a3 853e 1357 35be 7c89 3d3f
00000260: 7716 333f 950c 09bf a721 16be c54c 70be
00000270: df57 30bd d2ca 0bbf 4695 f73e 28cb d03e
00000280: 1c42 36bf 1299 c3be fc98 cf3d 1649 7e3e
00000290: 3044 15bf 167c 1bbf ff70 32bd daf6 d8bd
000002a0: 3c16 21bb 1e99 273f 1722 6e3f 1292 ae3d
000002b0: bd33 cf3e dcb0 383f f82b 47bd 3dab 16bf
000002c0: 8fe8 3e3e f1f7 943e 0afa 1a3f 454a 5cbd
000002d0: 7ccc 523f 2e19 75bf d26e e23b b20c 0c3e
000002e0: ec12 11bf c641 68bf 4104 36bd 7d31 fe3e
000002f0: 0f98 e9bd 370f fabd 18b4 fd3e 33b1 6dbd
00000300: fc64 b43e e45c b5be fff9 8fbe 6268 a9bb
00000310: 0971 323f 470f 1ebf a633 a4bd 9ecb b6be
00000320: 07fc ba3c 7d3c bc3d ba7f 94be 3617 3cbb
00000330: 7238 a83c 9845 bd3e 9c4e 613f 9fb4 3fbf
00000340: bc2d edbe add1 b5ba 9aa9 32bf 4be1 48bf
00000350: a1ef 68bd 50a4 8c3e fe1b 683d 2b92 8fbe
00000360: 7296 82be e193 c13e 8229 70be db9b 4bbd
00000370: aa2e b53d e744 be3d e818 f83e 44d1 013f
00000380: f50a 4b3e 1874 04be 736a f3be 499f b83e
00000390: 1094 ac3e 65a7 62bf b3c1 82be 8c35 4bbf
000003a0: fec7 6c3f 0090 54bf 73e7 2d3f fd41 08bf
000003b0: 1f4c e5be d685 3cbf cd10 353d a0f1 3fbf
000003c0: 5007 f23d 36d2 60be ee47 8cbf 357e 693f
000003d0: 6634 e93e 0755 183f 0540 a0be 7f73 0fbe
000003e0: b62a 15be 9580 fe3c 66b4 0e3e 00d0 ff3e
000003f0: 4aaf 823e 126f bf3d 87ab 5dbd 482a c0be

FC3.bias f4 [2]
0.07134588 -0.114527635
00000000: ca1d 923d 778d eabd
