results/run001/actor_0_net.pt (torch_old, 525546 bytes, 10 tensors)

BN1.weight f4 [24]
00000000: 2478 863e a241 d03e cc21 4d3e 8518 1d3e
00000010: 2e5b 803f 7a48 a73f d523 963e 0235 dd3e
00000020: 491c c83d b3a9 843e 9274 c13e b497 9c3e
00000030: 34cb b6bb 2d1d 5abc 25e0 2d3d 7fc6 753c
00000040: 0a61 d53e 3cba 2c3d cbd7 ab3e 8b39 023d
00000050: 830d 953f 4b29 b83f 59f3 303e f051 353f
0.26263535 0.40675074 0.20032424 0.15341385 1.0027826 1.3068993 0.29324213 0.43204504
0.0977102 0.2591072 0.3778425 0.3058449 -0.005578423 -0.01331262 0.04245009 0.015000938
0.41675597 0.042169794 0.33563074 0.03179316 1.1644748 1.4387602 0.1728033 0.7082815

BN1.bias f4 [24]
00000000: f09b d5be d6a4 773e b53b 593c 99f7 29be
00000010: d07d 26be 645e 9bbe 2a83 a13c 7b75 62be
00000020: 6df4 293d b29b 9b3e 0682 713c 4cc0 88bc
00000030: a4ed 57bb 539a c33b 113b 34bc 5f72 283c
00000040: 2b92 953e a84c 373f 11ff 60be b292 22bd
00000050: 5335 963e a0b8 643c 9251 03be eabd d0be
-0.41720533 0.24183974 0.013258864 -0.16598357 -0.16258931 -0.30345452 0.019715864 -0.22115128
0.04149287 0.30392224 0.014740473 -0.016693257 -0.0032948041 0.0059693246 -0.011000411 0.010281174
0.2921308 0.71601343 -0.219723 -0.03969068 0.29337558 0.013960034 -0.12824085 -0.40769893

BN1.running_mean f4 [24]
00000000: 6468 05c1 e468 39bf 5346 cc3f 4cdc f0bb
00000010: c628 103e 48c9 7f40 5346 cc3f 4cdc f0bb
00000020: 102f 06c1 3e99 39bf 6d59 f13f 537c 963c
00000030: ad29 043e 6067 7f40 6d59 f13f 537c 963c
00000040: cac5 06c1 4f87 38bf 9542 da3f b191 353d
00000050: bd00 eb3d b0f1 7d40 9542 da3f b191 353d
-8.337986 -0.72425675 1.5958961 -0.00735048 0.14078054 3.9966602 1.5958961 -0.00735048
-8.38649 -0.72499454 1.8855416 0.01836983 0.12906523 3.9906845 1.8855416 0.01836983
-8.423288 -0.72081465 1.7051569 0.044328395 0.1147475 3.9678764 1.7051569 0.044328395

BN1.running_var f4 [24]
00000000: 67fe 5041 afb0 8c3f 4e49 6c43 e615 6041
00000010: f9ac db41 5e2d 1840 4e49 6c43 e615 6041
00000020: 2a0d 4741 5229 8e3f da86 6843 9ac6 5d41
00000030: 188e e241 bca3 1d40 da86 6843 9ac6 5d41
00000040: e137 4041 b4a6 8f3f 9c9e 7243 0826 5f41
00000050: 8071 e741 3260 2740 9c9e 7243 0826 5f41
13.06211 1.099142 236.28635 14.005346 27.45946 2.377769 236.28635 14.005346
12.440714 1.110636 232.52676 13.860987 28.319382 2.4631186 232.52676 13.860987
12.013642 1.1222749 242.61957 13.946785 28.93042 2.6152463 242.61957 13.946785

FC1.weight f4 [400, 24]
00000000: 0608 21be a01b f73e cdb7 ce3e 1ec4 963e
00000010: 9b4b af3f e4bc b2be c1dd 933e bd0a f13e
00000020: bcff 0bbd 80fc 9c3e 4956 2cbf 7685 12bf
00000030: 25b0 0e3d 3603 073e 335b 19bf f0d3 62bd
00000040: ba45 5a3e 6ef9 efbd d721 953e 4459 743e
00000050: c755 d0be 851f 273f aedf 043e f0cb 833f
00000060: cabc ac3e cb1d 283e 5d3f d2be 0a70 0dbf
00000070: 9a21 32bf 9efb d0bd f1f2 d8be c7ee 82bf
00000080: 8e84 0c3a 4f54 53be b413 3b3e 74d4 5bbf
00000090: e721 dd3d 2bfb a73e f598 6d3e 4d25 c93d
000000a0: ec3c 903e 4a3e f3be 842b 73be 022f f5be
000000b0: c252 1d3f 59e3 4d3f 890e b0be d233 78bf
000000c0: 66e5 2cbe 2d74 be3e 3b5e c53e 0ef8 c43e
000000d0: 54b5 b23d bc92 003e 74e6 b93e 8ac5 9dbe
000000e0: 50b0 2bbe 72cd a93e 30a1 a73e b5f5 eebe
000000f0: a40f bb3e eb9e 3f3e c7c0 823e 9902 393e
00000100: ffe1 16be 005d 0cbd 6856 c73d 31fa 1d3e
00000110: 7836 e03e d9dd 1b3f 16ff fc3d 095c 02bf
00000120: 51f7 4ebe dc11 223f b93f ba3e c2a0 9ebe
00000130: f7d9 803f 23e5 6d3f 900d 8f3e a93e 913e
00000140: c725 ed3e 5fcc f03e cb6d 27be 7a90 123e
00000150: 5a49 8c3e 49df 063e e0ae 50be f154 1fbe
00000160: f087 563f 1333 963e 6401 243d 9922 8ebd
00000170: 9d74 34be 48d1 40bf 4c73 cb3d 0a20 003f
00000180: 5493 c1be 3b7c 19bf bbcf 293d feb3 943e
00000190: 9592 923f 2cb7 0e3f ff32 cdbd 3397 673e
000001a0: 3c45 15bf 70c0 97be 3065 0f3f 27f3 86be
000001b0: 065c 013f c452 91be d585 f53e 98d6 dabe
000001c0: 2878 4f3e 5229 bcbe ff02 583f 1d54 d03d
000001d0: f8b7 a43e 60b3 693e 30d2 243f d091 bd3d
000001e0: afe6 a3be e91e 7dbe 8440 2abf b16d 39bd
000001f0: 6bcb 04bd 7384 843f 7838 2fbf 9472 973d
00000200: ef5e 70be 1e16 88be ec82 03bd 8f81 553f
00000210: 89d6 563e 6706 fabd 00ed 363d 86f4 883d
00000220: d13d 18bf 8f7d 553d 3b9b 063f 0e77 25bd
00000230: ce14 4f3f 90ec a1be e84c ef3e d6a7 a33c
00000240: a7c8 8abe 2f1d 4bbf f5e6 993e f211 02be
00000250: dea1 203f ff49 a83e 266c 9d3e 3db2 c1bd
00000260: 6da9 4abe 5e4f 35bf 6a0d 54bf ffb5 f33e
00000270: 398a b73d ab61 13be 98cc 29bf cb3a b93d
00000280: a3e6 6cbd c9fe a2be 5a17 793e de1d 46bd
00000290: 2791 5dbf ada7 0abf 593e 923d 1959 40be
000002a0: 253c 4e3d eac7 9f3d c63f c2bf 2bf2 813e
000002b0: 20ec 97bd 5f90 debe f894 d6bf d966 00be
000002c0: 5bb4 efbe 3b31 90be 713e 9f3e 388b 743e
000002d0: d56e 64be 3cdf a73e 9561 a03e 1113 f73d
000002e0: 9fa9 09bf 0ccd 17bf f641 b43e 7494 6bbe
000002f0: 005c 5bbf a29a 693c 5f28 dc3e 3d3f abbe
00000300: 9648 dabe a493 a1be 2065 353f 998f bebd
00000310: 6794 f03e 99ac 523f 6fa3 203f f1d9 90be
00000320: a6de e63d 9c46 15bf c05d 783f 5c81 37bf
00000330: 09d2 633e dbff 3ebe 5b00 363f 0ab4 1c3e
00000340: c911 b03e c261 d2be 173d 3c3f 4bad 1b3e
00000350: 4470 fcbe 969e 0ebf 2994 343f a110 3abe
00000360: bb78 be3c 2379 e03c 1262 1bbf 1dc0 0dbd
00000370: ca2e f7bd b76a 3d3d d545 1ebf c0e7 28be
00000380: ba31 b5be cfc2 15be 3a15 35bf 7b00 87bf
00000390: 3829 103e bba6 673e 4aac 11bf 4fe9 8ebe
000003a0: 31b5 00be c129 bbbe 5c2a aabd 9380 2fbe
000003b0: 5d1f a33e 9e04 cd3e 50de 34be f073 2cbf
000003c0: f665 08be 6a11 2d3f 5a91 5bbe 8b86 293f
000003d0: e472 3f3f f9c5 2e3f d838 46be a90a 983f
000003e0: 2739 07bf 9cfc f23e 530e b63c acd4 b43e
000003f0: 813f 0a3e 52f9 e63d 6de7 573e 98c0 21be
-0.15725717 0.48263264 0.40374604 0.294465 1.3694948 -0.34909737 0.28880122 0.47078505
-0.034179434 0.30661392 -0.6731916 -0.57234895 0.034835953 0.13184819 -0.59904784 -0.0553779
0.21315661 -0.11717497 0.2912738 0.23862177 -0.40690443 0.6528247 0.12975952 1.0296612
0.33737785 0.16417615 -0.41063967 -0.55249083 -0.6958252 -0.10204242 -0.4237285 -1.0229119
0.00053603284 -0.2063763 0.18269235 -0.8587105 0.10797482 0.32808813 0.2320288 0.09821568
0.2817148 -0.4750846 -0.23747069 -0.47887427 0.61454403 0.8042503 -0.3438609 -0.9695407
-0.16884384 0.3719801 0.38548455 0.384705 0.08725992 0.12555975 0.36308634 -0.30814773
-0.16766477 0.33164555 0.32740164 -0.46671835 0.3653537 0.18712966 0.25537702 0.18067397
-0.14734648 -0.03426838 0.097332776 0.15427472 0.43791556 0.6088539 0.12353341 -0.50921685
-0.20211531 0.633085 0.36376742 -0.30982023 1.0066518 0.9292776 0.27940035 0.28368118
0.46317884 0.47030923 -0.16350476 0.14312926 0.27399713 0.13171114 -0.2037921 -0.15559746
0.83801174 0.29335842 0.04004039 -0.06940193 -0.1762261 -0.7531934 0.099341005 0.5004889
-0.37807715 -0.59955186 0.041457873 0.29043573 1.1450983 0.5574825 -0.10019492 0.22616272
-0.5830877 -0.29639006 0.56013775 -0.26357386 0.5053104 -0.28383458 0.47953668 -0.42741847
0.2026068 -0.36750275 0.8437957 0.10172293 0.32171607 0.22822332 0.6438322 0.09256327
-0.32011935 -0.24718823 -0.66504693 -0.045270626 -0.032420557 1.035292 -0.6844554 0.07394901
-0.23473714 -0.26579374 -0.03210728 0.83400816 0.20980276 -0.122082524 0.044659615 0.06687264
-0.59469324 0.052121695 0.5258061 -0.040396743 0.8089112 -0.31625795 0.46738362 0.019977491
-0.2710621 -0.79341406 0.3005902 -0.12702158 0.6274699 0.32868955 0.30746573 -0.094578244
-0.19791193 -0.7082423 -0.8283297 0.4759979 0.08961911 -0.14392726 -0.6632781 0.09044417
-0.05783714 -0.3183501 0.24325314 -0.048368327 -0.8654961 -0.541621 0.07140798 -0.18783988
0.050350327 0.078018025 -1.5175712 0.25380072 -0.07418084 -0.4346952 -1.6764212 -0.12539233
-0.46817288 -0.2816256 0.31102327 0.23881233 -0.22307904 0.32787502 0.3132445 0.120641835
-0.53774446 -0.5929725 0.35206574 -0.23005849 -0.85687256 0.014258059 0.4299955 -0.33446684
-0.42633504 -0.31557953 0.7085743 -0.09304733 0.46988222 0.82294613 0.6274938 -0.28291276
0.112729356 -0.58310866 0.9701805 -0.7168176 0.22248091 -0.18652289 0.7109429 0.15303054
0.3438857 -0.41090208 0.73530716 0.15202825 -0.49304402 -0.5571073 0.70538574 -0.18170406
0.023250928 0.027401512 -0.6069652 -0.03460704 -0.12069471 0.04624435 -0.61825305 -0.16494656
-0.353895 -0.14625095 -0.70735514 -1.0547022 0.14078224 0.22622196 -0.5690352 -0.27912375
-0.12569119 -0.36555293 -0.08308861 -0.17138891 0.31859866 0.40042585 -0.1766293 -0.67364407
-0.13320145 0.67604697 -0.21442166 0.6622092 0.74784684 0.6827083 -0.19357622 1.1878253
-0.5282158 0.4745835 0.022223627 0.35318506 0.13500787 0.11278023 0.21084376 -0.15796125

FC1.bias f4 [400]
00000000: 99d6 2dbd c042 cabe eff2 1ebf 3b0f f43e
00000010: b461 6abe bd73 10be 35c3 b43e e27d 36bf
00000020: c996 463e f262 e5be f19b 0abe aab5 20bf
00000030: 5ccd 3ebe a537 32be 6790 adbe 3635 d5bd
00000040: c17e eabd 4017 f5be fa54 3ebe 7267 2cbf
00000050: a7d2 4cbf 9aea 23bf 37f1 32bf 264b 38bf
00000060: 82d1 553e 5935 afbd d445 5cbe 78f5 15bf
00000070: a56b 77bf 2866 f8be d77d 2abf 11f6 03bf
00000080: f4a6 9b3e dc24 093e 9f4f 973e 1857 ffbe
00000090: addc 93be 9fd1 0f3d c33e 1ebf f583 67bf
000000a0: 7b0f cabd d29e 40bf 919e d1be 8ed2 29bf
000000b0: 27d3 b0be 6560 42bf 7b42 bebe 1b0c c9be
000000c0: 0fd8 16bf e02c 82bf 4e74 87bf 4c06 17bf
000000d0: c844 d73e bdc1 b9be 394e 52be ac9c 13be
000000e0: 3458 93bf c57c b4be e8fa bfbe dda5 a73e
000000f0: 7dd5 dcbe 11b7 6bbf 593c 33bf 2403 0ebf
00000100: 8208 32bf 74d8 0b3e c957 37bf b747 c1be
00000110: 57cb 06bf 73fb 82be aa0f abbe effb c3be
00000120: 6880 753d eb22 83be 222b 08bf 1028 f3be
00000130: 40b2 87bf c35d 23bf e7b0 113f 34ff 7cbf
00000140: 4ac4 db3d 8da6 e4be ba0c 8f3d 732e ca3d
00000150: 6051 81bd d45f b7be 398c 2ebf 064c 9dbd
00000160: 9bd1 a03e f362 84be cbae 7abe be85 9bbf
00000170: 777c 233d 3b45 cebe 2ae0 9dbe a61c d0bd
00000180: 33c0 e7be 93d8 203e f248 ed3e a6fc 75bf
00000190: e6d1 19bf a422 41bf e2e9 94bd df82 cabe
000001a0: d537 96bf e4de eebe 5e65 7cbf 36f6 0fbe
000001b0: 3cfb 13bf 253f 2abf fd10 05bf db2d a4bd
000001c0: 869f c5bd fc03 2dbd cfa0 69bf 590c 12bf
000001d0: a621 c0be aefb b03e 2753 503d 167a 22bf
000001e0: d20c 2fbf 9af3 94bf 12e4 e7be b105 4fbf
000001f0: 34ed ffbe e209 86be 268d f8be e1d3 0ebf
00000200: fe7e 0bbf 1e43 eebe f850 093e f711 653e
00000210: 9902 8ebf cb78 1abf 8c4f c8be 27f1 60bc
00000220: e597 2bbf d7a5 25bf a3e6 5bbe 05c1 87bd
00000230: 8a7b 1bbf 2cdf 39bf 39f0 c6be 1203 36bf
00000240: c4d7 1abf 610a 7ebd 4627 75bf 3456 01bf
00000250: d61c 50bf 05ba 383e bd4b 18be d11c bcbe
00000260: 1703 87be c8df 0fbf e1d5 16bd 3bab b5be
00000270: efee c9be c085 d1be ff07 b5bc da2d f33b
00000280: bc81 c5be e0da 24bf 2107 dc3d 25e5 933e
00000290: c844 74bf 5ef6 8fbe 5a97 0bbf b5c6 10bf
000002a0: 1ab4 bebe 1ceb 97be 6293 18bf 4795 3bbe
000002b0: f3b4 f4be 977a 18bf 9ebc 59bf daaf dbbe
000002c0: 7f49 52bf cccc 99bf cd4e 7f3d 99f8 dcbe
000002d0: 1eb6 e8be a712 3c3f 6c24 a4be e0af 3abf
000002e0: fe3e 9fbe 1876 82bf 58f3 f9be 0e09 54be
000002f0: b271 c93e 15ac 81bd 1a94 fd3d 4283 5bbe
00000300: e8fb 583f 0ee2 cf3e 44d0 18bf 6584 0e3d
00000310: 4889 3ebf a16d 71bf 432b dabe a623 98be
00000320: ac1c efbe 213c 373e 4211 babd b74c d6be
00000330: c227 4ebe e867 cabd 29e7 df3e 3b42 16bf
00000340: 221b bdbe b8c1 97be 94a3 95be 8445 aebe
00000350: f8c7 98be 74b2 2fbf 6552 0cbf 393a 5cbe
00000360: 0332 77bf 07ca f5be 3a4e d6bd eacd 8bbf
00000370: 0a5a 59be 91b4 09bf ed12 d7be 4506 2abf
00000380: 81fd 88be 5349 29bf c45a 6cbe 1638 27bf
00000390: 06f3 48bf fecc 933e 61af 75bf 6c35 79bf
000003a0: 2c58 f7be 450b abbe 51a5 9dbf 5e11 2abf
000003b0: 26a5 04bf ea93 f1be 6355 41bf d418 d5be
000003c0: 2930 96be dabe 2abd 9889 92be 37d0 f13e
000003d0: 4c05 4abe fce1 50bf 0c5f 22bd 89a7 d0be
000003e0: 1d8e 54bf 230a f1be 49ac fd3e 69fe febe
000003f0: 752e ec3d b8f7 8fbf 6648 3dbf f55e dcbe
-0.042440984 -0.3950405 -0.6208944 0.4766787 -0.22888833 -0.1410665 0.3530518 -0.7128583
0.19393457 -0.44802052 -0.1353605 -0.627772 -0.18633026 -0.17404039 -0.33899233 -0.1041054
-0.11449958 -0.478693 -0.18587103 -0.67345345 -0.8000893 -0.6402985 -0.69899315 -0.7198967
0.20880702 -0.08555097 -0.21511012 -0.5857768 -0.9664863 -0.4851544 -0.66598266 -0.5154734
0.30400813 0.13392967 0.29552934 -0.49871135 -0.288793 0.03511202 -0.61814517 -0.90435725
-0.09866234 -0.7524234 -0.4094129 -0.66336906 -0.34536096 -0.75928336 -0.37160096 -0.39267048
-0.5892343 -1.0169945 -1.0582368 -0.58993983 0.42044663 -0.36280623 -0.20537652 -0.14415234
-1.1511292 -0.35251442 -0.37496114 0.3274373 -0.4313163 -0.9207621 -0.7001396 -0.5547354
-0.6954423 0.13656789 -0.71618325 -0.37750027 -0.5265402 -0.25582466 -0.33410388 -0.38278148
0.05993691 -0.25612578 -0.53190815 -0.47491503 -1.0601273 -0.63814944 0.56910557 -0.9882691
0.107307985 -0.44658318 0.06984849 0.09872141 -0.06314349 -0.358153 -0.6818271 -0.07680516
0.31409916 -0.25856742 -0.2448074 -1.215019 0.03991362 -0.40287194 -0.30835086 -0.10161714
-0.45263824 0.15707617 0.46344715 -0.96088636 -0.60085905 -0.7544348 -0.07271172 -0.39552972
-1.1735789 -0.46654427 -0.98592174 -0.14058766 -0.5780523 -0.665026 -0.5197905 -0.08016559
-0.09649567 -0.042240128 -0.91261 -0.5705009 -0.37525672 0.34567016 0.05086055 -0.6346754
-0.6837894 -1.1636841 -0.4529119 -0.8086806 -0.4998566 -0.26179415 -0.48545188 -0.5579205
-0.5449065 -0.4653558 0.13409793 0.22370134 -1.1094543 -0.60340565 -0.3912319 -0.01372937
-0.6702865 -0.64706177 -0.214747 -0.066286124 -0.6073538 -0.7260616 -0.3885515 -0.71098435
-0.6048548 -0.062021617 -0.9576305 -0.5052216 -0.81294 0.18039711 -0.14872642 -0.36740735
-0.26369545 -0.5620084 -0.036825065 -0.354822 -0.39440104 -0.40922356 -0.02209854 0.0074212374
-0.38575542 -0.64396477 0.10743547 0.2888576 -0.9541745 -0.2811765 -0.5452782 -0.565532
-0.37246782 -0.29671562 -0.5959989 -0.18318664 -0.47794303 -0.5956206 -0.8505343 -0.42907602
-0.82143396 -1.2015624 0.06233101 -0.43158415 -0.45451444 0.7346596 -0.32059038 -0.72924614
-0.31102747 -1.0192289 -0.4881847 -0.20706579 0.39344555 -0.0633165 0.12381764 -0.2143679
0.8475938 0.40602154 -0.5969279 0.03479423 -0.74428225 -0.94307905 -0.4261113 -0.29714698
-0.46701562 0.17894031 -0.09085323 -0.41855404 -0.20132354 -0.098831 0.4373105 -0.5869481
-0.36934763 -0.29639983 -0.29226363 -0.3403741 -0.29840064 -0.6863167 -0.54813224 -0.21506585
-0.96560687 -0.48005697 -0.10464139 -1.0922215 -0.21225753 -0.5379115 -0.42006627 -0.66415817
-0.26755908 -0.6612751 -0.230815 -0.65319955 -0.78495824 0.28867334 -0.9597073 -0.9734714
-0.48309457 -0.33407035 -1.2316076 -0.6643275 -0.51814497 -0.47183162 -0.75520915 -0.41620505
-0.29333618 -0.041685916 -0.286206 0.47229168 -0.19728583 -0.81594825 -0.039641425 -0.4075282
-0.8302935 -0.47078046 0.49545506 -0.49803475 0.115322985 -1.1247473 -0.73938596 -0.43041196

FC2.weight f4 [300, 400]
00000000: 0f4c 91bf a14e 06bd e2db 743e 8ff1 34be
00000010: 6dd8 4abf 7218 a53e 8de4 0cbe aa79 10bf
00000020: 9dbe 57bf e79e 1ebe 5fa4 043e 1826 acbe
00000030: 84b1 e13e cbfc c53d f752 55be a9c5 6c3f
00000040: e7ea 04bf ab3b 4abf 1218 91be ae5b 273f
00000050: 5607 193f 247c c93d de78 ed3e fe45 27be
00000060: d99e 93be 2712 d8be 75bc 30bd fadb 88bf
00000070: 3fbd 4c3f 0b98 bf3e 83ec 823e e15f 49bf
00000080: 8f72 f8be 024d f03d 5318 e6bc 306e 2d3e
00000090: a525 973e ec4e e4bd cc18 503f 31fc 1d3e
000000a0: f96f eebe 5e7b 413f cfe8 12be ef98 35bf
000000b0: e04f 283e a179 383f b65f 2abe 0938 88bf
000000c0: bcb5 c73e f15b 18bf ac95 d7be f614 36be
000000d0: beab d7be 6193 183f 8ec1 c43d 22ae a93e
000000e0: 51f4 f93e 9d02 d93e a694 48bf 008c 65be
000000f0: 1e28 aa3e 1287 a1bd bbee 1d3f 69ee b5bd
00000100: e308 c53e 6c95 84bf e557 9a3f fb1d ea3e
00000110: d8b8 1abe b284 053e 4679 e0bd 5005 183f
00000120: fb92 14be 121c 8ebe c14e 9e3e 7d15 363f
00000130: 07f4 4cbe 9d32 143f 2e54 12be 4c11 c83e
00000140: 953b 833e 1bac c4bd bdeb 82be aa9b 0abf
00000150: c96c 8ebe 1efd 3a3e 6bab 733f c3a4 00bf
00000160: e206 b9bd 1306 533e 30f2 dc3e ab7e af3e
00000170: f51e 05bf d75c 033f 183d db3d 1df1 92be
00000180: 2840 c93e 4fd3 09be 661e acbe 0055 643f
00000190: 9dcc 933f ec8d e73e 3413 86be 0eea cebe
000001a0: a393 5d3e 33f1 0f3f 9c36 1d3f 2396 0a3f
000001b0: 67f8 08bf 6741 0d3f 427a f2be 248f c7be
000001c0: 5f1b 19bf dab5 b13d 87c8 adbe 120a 5d3f
000001d0: fce6 bebe a6b1 6cbe 0b54 7ebe e87a 90bd
000001e0: 1044 0b3f 9c03 053d c05e bd3e 8d3b 14be
000001f0: 35bf f3be 7e3d acbe 939b a93d 5c0d 593f
00000200: 821b 3e3e 1076 a8bb 1ad7 33be e94d 79bd
00000210: 4676 0bbf 2740 ea3d 38a1 0bbe 4587 953e
00000220: ba7f b73e b505 873e 01cd c4be eec9 0c3f
00000230: 9aaa 823e ecce b93c bf51 123f c3d2 ff3d
00000240: 334c 28be 54ac 1c3f c427 253e 2c2f b03c
00000250: 98fe 463f a416 223b 8e2d bf3e 59af 733f
00000260: b268 263e c9d7 f4be 081d c33e e677 3abf
00000270: 206c 303f 6a7f 89be af81 54be afca 4a3e
00000280: 11fe a23e 9c8f 9dbd 7129 1ebf d421 aebe
00000290: 57d3 2a3f c46f e23d d9e4 88bd dccc bdbe
000002a0: 4da1 0fbe 9dd9 b8be 5165 773e 5a1d 863d
000002b0: f25c 3abe aa20 383f c572 0fbd 36b1 e93e
000002c0: 9c1a ca3a fddb c9bd fd72 99be 5c44 ed3e
000002d0: 020b 743e ee9f 503e af23 bbbf 5524 3b3f
000002e0: 9d82 59be 3f56 e33d 9fa6 713e 4ae4 033e
000002f0: ca7e 0cbf 19c5 7e3e edcc 94bf 644a 89bf
00000300: 1794 d8be d46d abbe cbd0 73bf 2185 0ebf
00000310: 3f0d e43e f808 9d3e 7542 403d e027 5a3c
00000320: 8931 bd3e 7917 4dbe c52e 2c3d 04b3 e23e
00000330: ec1e 6b3e d4c6 2d3f 1919 9f3e c806 0d3f
00000340: 0e73 783e 17c9 3bbf c0b9 5fbd 1978 103f
00000350: b566 b6be 44c3 2bbd aadd b3bd 9764 68be
00000360: e4bf 2a3e 3c3e ed3e 6b34 7ebe 2c09 9c3e
00000370: d5a1 853d 1b22 94bd e596 d73e eb65 613e
00000380: 5c52 653e c21b eb3e 4c00 383e 4c6e 8a3e
00000390: e746 8f3f 7493 36be af7e 68bd 0c27 cd3e
000003a0: 057b 1abe c05d 32be a6df 5e3e c72c 903e
000003b0: e951 1cbc c6c0 4cbe e72b 31be f24e 57be
000003c0: 9be3 573f 6d1f 3abd 56f6 d9be 12c4 e0be
000003d0: 94be ca3e 99d2 fdbe 4a6e 22bf 7d59 333e
000003e0: d7d5 ba3e 0cde b7be a7a5 62be accc a73e
000003f0: 1cc4 76be 1991 183e 631d 37be aac6 1fbf
-1.1351336 -0.03278983 0.23912004 -0.17670272 -0.7923649 0.32245213 -0.1375906 -0.56435645
-0.8427523 -0.15490304 0.12953328 -0.33622813 0.44080746 0.09667357 -0.2083243 0.92489105
-0.5192093 -0.78997296 -0.28338677 0.6537427 0.5977682 0.09838131 0.46381277 -0.16335294
-0.2883213 -0.4220135 -0.043148477 -1.0692132 0.79976267 0.37420687 0.2557107 -0.78661925
-0.485249 0.11733438 -0.02808777 0.16936564 0.29520908 -0.11147866 0.8128784 0.15428235
-0.46569803 0.7557887 -0.14346622 -0.70936483 0.1643672 0.7206059 -0.16638073 -1.06421
0.3900584 -0.5951529 -0.42106378 -0.17781433 -0.42123216 0.5959988 0.0960723 0.33140665
0.4881921 0.42384806 -0.7835182 -0.22416687 0.33233732 -0.07887091 0.616924 -0.08883364
0.38483343 -1.03581 1.2058073 0.45725998 -0.15109575 0.130389 -0.10960631 0.59383106
-0.14509194 -0.2775579 0.3091946 0.7112654 -0.20014964 0.5788973 -0.14289925 0.39075696
0.25631395 -0.09603139 -0.2557048 -0.54143775 -0.2781737 0.18260619 0.9518344 -0.50251406
-0.09034516 0.20607786 0.43153524 0.34276327 -0.5200036 0.5131354 0.10705012 -0.2869958
0.3930676 -0.13459514 -0.33616942 0.891922 1.1546818 0.45225465 -0.26186526 -0.40412945
0.2163835 0.56227416 0.6141145 0.5413534 -0.5350403 0.5517792 -0.473589 -0.38976395
-0.5980739 0.086772636 -0.33942053 0.8634349 -0.37285602 -0.23114643 -0.24836747 -0.070546925
0.5440073 0.032474145 0.3698635 -0.14475842 -0.47606817 -0.33640665 0.082816266 0.8478601
0.18565181 -0.0051410273 -0.17562523 -0.060865317 -0.54477346 0.11438017 -0.13635719 0.29204765
0.35839635 0.26371542 -0.38437656 0.5499562 0.25520784 0.022681676 0.57155985 0.124913715
-0.16435318 0.6120045 0.1612845 0.021506868 0.7773223 0.0024732733 0.37339443 0.95189434
0.16250876 -0.4782088 0.38108087 -0.728392 0.68914986 -0.26855022 -0.20752595 0.1980388
0.31834462 -0.07693407 -0.61781985 -0.34010184 0.6672873 0.11056474 -0.06684274 -0.37070358
-0.14026375 -0.36103526 0.24159743 0.06548567 -0.18199518 0.7192484 -0.035021562 0.45643014
0.0015419307 -0.098564126 -0.29970542 0.46341217 0.23832324 0.20373508 -1.4620265 0.73102313
-0.21241231 0.111004345 0.23598717 0.12880054 -0.54880965 0.24879874 -1.1625038 -1.0725827
-0.42300484 -0.3348223 -0.9524047 -0.5567189 0.44541356 0.30670905 0.04693838 0.013315171
0.36951855 -0.20028485 0.04203679 0.44277203 0.22961015 0.6788151 0.31073835 0.5508847
0.2426264 -0.73353714 -0.054620504 0.56433254 -0.35625234 -0.041934267 -0.087825134 -0.22694622
0.16674763 0.46336544 -0.24824683 0.30475748 0.06525008 -0.072330676 0.4210731 0.22011535
0.22394699 0.45919615 0.17968863 0.27037275 1.1193513 -0.17829686 -0.05676144 0.40068853
-0.1508599 -0.17418575 0.21765003 0.28159162 -0.009541013 -0.19995412 -0.17301904 -0.21026209
0.84331673 -0.045440126 -0.42570752 -0.4389959 0.39598525 -0.49574736 -0.6344954 0.17514606
0.36491272 -0.35911596 -0.22133504 0.3277334 -0.24098247 0.148991 -0.17882304 -0.6241251

FC2.bias f4 [300]
00000000: b418 f5be 0337 ccbd add5 33bf d177 273e
00000010: fce4 b0bf 9da7 fcbd 2529 a2be d00c 503e
00000020: 386d 2fbe 8fe6 09bf 8443 0ebf 3c86 653e
00000030: 74a7 c4be a3bb cb3e 5ba0 07be 7841 3ebe
00000040: 7138 c2be b07a f8be 9167 1abf e9e3 97be
00000050: 385c 39bf 8d14 433e 5689 1dbf acc9 27bf
00000060: aff8 e5be 3a2f bcbe 3b7d c7bd dd66 1ebf
00000070: 1e00 f3be 8b9e 78bf 73f4 2c3e 3392 953d
00000080: 2284 27bd fb6b bebe a31f 4dbe d4c6 39bf
00000090: 7f43 2dbf 0e7d 06bf 7375 84be 1bb5 0fbf
000000a0: 3005 96bf ea47 0fbf 21dd 1abd 2194 b3be
000000b0: 3399 f5be bd6e c1be 46b5 0ebf cde1 5fbd
000000c0: 2209 b73c 0c63 873e e926 aebe 7f69 9fbe
000000d0: 4558 53be 0f9a 75bd ffe1 4dbf 8183 1dbe
000000e0: 45f9 22bf dda1 7d3e 7fff 9cbd 0561 18bd
000000f0: 0833 b03b f23e 20bf cd33 02bf 0010 97be
00000100: f72d 6bbe 55c5 39bf 3b2c 10bf c36c 8bbe
00000110: be51 473e 56b6 05be 1e90 b6bf 26a9 f1be
00000120: 225e 5b3d 2e34 43be c5cd 8abd dc40 3dbf
00000130: c936 ccbe e44d 4bbe 76d5 bdbe 7abc e2be
00000140: 64d3 2cbf cdbf 97be 49dd f9be 0395 bfbe
00000150: 447b 4abe d9eb 4ebf 95f2 cebe 9d79 8bbe
00000160: 8d86 f7bc 66c2 993e ff0f 28bf 9d14 b23d
00000170: 46e6 963c 3d37 ddbe c559 e23d c869 b03e
00000180: 11b2 0dbf 310e 9abe 860a 38be bbd0 99be
00000190: c66d 7cbc d566 c4be 4324 8ebe c30a 67bf
000001a0: f60f c3be f5c6 ffbe d8b1 20bf a01d 9cbe
000001b0: 9257 abbd d1a2 07be 6a64 13be fe9c f53d
000001c0: 5f15 56be 2bc7 5fbe 776a c63d a9e2 7cbe
000001d0: 7947 21bf 21af 22bc 1c1a a2be 1c43 10be
000001e0: ac95 203e 729e 21bf c37a a0bd 85fa 23bd
000001f0: a6d6 ccbe 0831 bcbe c602 39be 0819 d3bd
00000200: 0058 0c3e 9868 753d 2f71 80be c5d3 1c3e
00000210: 5f40 26bf c48f eebe 7a11 fcbe f1e5 b4be
00000220: ecb5 e2be 7d65 ebbe 6cb3 86be baef 5cbe
00000230: 70ab 57be cf04 2cbf 6f7f fcbe 4991 8abe
00000240: bb36 94be 217c 65be cfbe 08be d7ab b4be
00000250: bd03 7a3e a6b7 f5be f810 a8be 0979 0cbe
00000260: eccc 01bf a192 6f3e 69c4 d5be 572d 98bd
00000270: 6ccd f93d bb7f 30be d6f4 cbbe ad45 46be
00000280: 9249 823e 41e9 8e3d 4a8a 01be dea9 423e
00000290: adca 01bf ac74 f3be 672e 73bf d7fd 0cbf
000002a0: fc11 693e f770 cebe ab65 20bf 562f 94be
000002b0: d7f8 ebbe 8669 62bf 2ac3 1dbf cf30 d5be
000002c0: 3cb4 44be ba32 9bbf b4e2 ddbd fa19 1abe
000002d0: df1a 7dbf 843d 3ebf 6f21 31be 1410 a5be
000002e0: 3b0e cfbe 50d2 e6bd c117 a8bd 749f 84be
000002f0: 74ad e0be e3d7 4abf c9dd dbbe 9f93 b2be
00000300: a5b1 b4be f292 73be 1c4c 3dbe 8a01 7abf
00000310: 05d9 2fbe 5535 01bf ea3f 07bf c5d7 c23c
00000320: 9704 8fbe 3b48 0ebf 1c49 033e 330e c3be
00000330: d1ef ac3e f688 eebe 1bfa a5bd b233 4fbf
00000340: 1410 b33e 5d0c d83d 09f1 593e c0e4 83be
00000350: ceac 953e ef53 82bd dc5a 6cbe 54d7 c1be
00000360: 489b bcbe 7bfd 9abe fd33 1cbf a70b b4bd
00000370: 5999 5fbd 5b9d c4bd 3801 8bbd 761b e2be
00000380: 0098 91be c798 ab3c 5627 abbf 2054 8dbe
00000390: 84e2 af3e 94c4 2dbe c81d c5be 8710 07bd
000003a0: 460a 57bf be62 adbe 4cd8 d8be db50 33bf
000003b0: 23ff 95be 1a98 043e 0d9f 843d 7b4e 1cbf
000003c0: 5334 2ebf 767c 13bf 7d17 3bbe 08b4 cdbe
000003d0: 2c5e 5abf b160 193c 12d6 cabe cc20 e3bd
000003e0: 6a3a 9ebf bd38 d3be d3bd c9be 6d9d b0be
000003f0: 15a3 29bf d5cf a3bc 57ea 30be 27c4 04bf
-0.4787041 -0.0997143 -0.7024792 0.163543 -1.381988 -0.12336657 -0.31672016 0.20317388
-0.17131507 -0.5386743 -0.5557177 0.22414488 -0.38409007 0.39791593 -0.13244765 -0.18579662
-0.37933686 -0.48531103 -0.6031428 -0.2966607 -0.7240634 0.19050808 -0.61537683 -0.655421
-0.44916293 -0.3675478 -0.09740683 -0.61875707 -0.47461027 -0.9711692 0.16890125 0.07303276
-0.040897496 -0.37191758 -0.200316 -0.7256901 -0.67681116 -0.5253457 -0.25870857 -0.5613572
-1.1720333 -0.5596911 -0.03780854 -0.3507395 -0.47968444 -0.377798 -0.5574535 -0.0546587
0.022343222 0.26442754 -0.3401406 -0.31135175 -0.20639141 -0.059961375 -0.8042297 -0.15382196
-0.63661605 0.24768777 -0.076659195 -0.0372019 0.005377177 -0.62596047 -0.5086029 -0.29504395
-0.22966753 -0.7256673 -0.5631749 -0.27231416 0.19464776 -0.13057837 -1.4262731 -0.47199363
0.05355657 -0.19062874 -0.06777529 -0.7392709 -0.39885548 -0.19853932 -0.3707692 -0.4428442
-0.67510056 -0.2963852 -0.4880164 -0.37418374 -0.19773585 -0.80828625 -0.4041945 -0.2724122
-0.030215526 0.30031127 -0.6564941 0.08695338 0.01842035 -0.43206206 0.110522784 0.34455705
-0.5534983 -0.30088952 -0.17972764 -0.3004206 -0.015407031 -0.38359705 -0.2776204 -0.90250796
-0.38098115 -0.4995648 -0.6277137 -0.30491352 -0.08366312 -0.13245703 -0.14393774 0.119928345
-0.2090659 -0.2185332 0.09688275 -0.24695839 -0.62999684 -0.009929449 -0.31660545 -0.140881
0.15682095 -0.63132393 -0.07835915 -0.040033836 -0.40007514 -0.36756158 -0.18067464 -0.10307509
0.13705444 0.0599142 -0.25086352 0.15315159 -0.6494197 -0.4659406 -0.49232084 -0.3533168
-0.4427942 -0.45975867 -0.26308763 -0.21575823 -0.21061492 -0.6719484 -0.49315974 -0.2706397
-0.28948006 -0.22410633 -0.13354038 -0.35287353 0.24415489 -0.47991675 -0.32825446 -0.13718046
-0.5070331 0.23395778 -0.41751412 -0.07430523 0.12197384 -0.17236225 -0.39835232 -0.19362517
0.25446755 0.069780834 -0.1265041 0.19010112 -0.50699884 -0.4754995 -0.9499268 -0.5507483
0.22760767 -0.4032056 -0.62655133 -0.28942364 -0.46088287 -0.88442266 -0.6162592 -0.416388
-0.19209379 -1.2124856 -0.10834256 -0.15048972 -0.9886913 -0.74312615 -0.1729791 -0.3223883
-0.40440544 -0.11270583 -0.08207656 -0.25902903 -0.43882334 -0.79235667 -0.42942646 -0.3487825
-0.35291782 -0.23786524 -0.18486065 -0.976586 -0.1717263 -0.50472003 -0.528319 0.023784528
-0.2793319 -0.55578965 0.12820858 -0.3809677 0.33776715 -0.46588868 -0.081043445 -0.80938256
0.34973204 0.10549233 0.21283354 -0.2576046 0.29233402 -0.06363665 -0.23081535 -0.37859595
-0.3683722 -0.30271515 -0.6101683 -0.08791285 -0.054589603 -0.09600326 -0.06787342 -0.44161576
-0.2843628 0.020946873 -1.3371379 -0.27603245 0.34352505 -0.1696952 -0.38499284 -0.032974746
-0.8400005 -0.33864397 -0.4235252 -0.7004525 -0.29296216 0.12948647 0.06475649 -0.6105725
-0.6804859 -0.5761179 -0.18270679 -0.40176415 -0.85299945 0.009361432 -0.39616448 -0.1109024
-1.2361577 -0.41254225 -0.39402637 -0.34495106 -0.6626447 -0.019996563 -0.17276894 -0.51861805

FC3.weight f4 [2, 300]
00000000: d4d3 bbbc 4620 e73d a12f b3be 3e58 933d
00000010: c948 893e 8b36 00bf 9f82 2fbf 4dab d13e
00000020: 4db8 c0be 6a41 353d 5f3e adbe 3f1d 53bd
00000030: 8d53 a53d 0d6a 57bd dbec 08bf 9c31 983e
00000040: 5051 6ebd e906 cf3d e2eb bdbe 59fc ddbe
00000050: e9a8 933e ac2b eb3c f562 a53d 9aa9 993e
00000060: e5ae f53d f226 92be 0b56 f6bd e8f8 913e
00000070: f287 26be 0799 07be fa2f 803e 8a8a d2be
00000080: 8c0c 293e ea39 c9bc 441c b03e dd51 143f
00000090: cba7 3d3e 020f 33be 5b34 193f 9593 45bd
000000a0: 02b5 533e cb8a 093e 60e8 4b3d abf6 54bf
000000b0: 6508 f93d f817 c2be bc0e 893c 8f9b 3f3c
000000c0: 2624 85be faa7 423d f65f 41be 2b9d ecbb
000000d0: 17a8 5bba ebf9 0ebf 4dd3 25be 862c 173f
000000e0: 43b6 5dbe b76f 9d3c d099 7fbe c331 32bd
000000f0: 7678 38bf 9438 813c b543 6fbe 2ea6 ddbe
00000100: f28c 8b3e 9d34 fabd fcf3 ce3d c006 7c3d
00000110: b030 393d 3e55 bc3e e036 873e 162c 89bf
00000120: 832d babe 853c ef3e fbd1 ef3b cded 96be
00000130: 6f83 59bf 25eb e6bd 4efa 08be 28ba 10b9
00000140: 990f ad3e 8bdc 3ebf 3c0c 063c 17e6 c93e
00000150: d186 4ebf 8b60 813e 3d7a edbd 52df 463c
00000160: abe6 1cbf 66b9 febe 9d5e 09bf a703 6a3e
00000170: 21c2 723e 5d7e 733e ccf1 84bd 7b13 2abe
00000180: f78c 8e3d 828c b5be c698 a13d 057e d8be
00000190: a3f3 233e 1cc9 acbe 660a 3f3d 5d54 1b3e
000001a0: f9cc c63e 2073 02bf b1c5 8d3c ab34 843e
000001b0: 77dc 103e 6efc 273f 39ed a43d 8d9e 2abe
000001c0: c8c0 71be 7a2f c5bd 2abd f8be 7b4d 9e3d
000001d0: 89f8 7cbd d5ab b9be 1450 13bf 536a 8a3e
000001e0: 3b12 b13f b407 6f3e 52f3 e23c 381a 71be
000001f0: fd7e 86be e0d5 aa3d 47ea c53e cc6b 6c3e
00000200: 116a f8bc 361c 9bbd 12a0 593e 4a5f b6be
00000210: 4fc6 243f cb0b 23bf d790 473c 2889 0d3e
00000220: ff7d 0fbe d2ab 94bc 89b4 a13a 2eb8 373d
00000230: 5217 6f3e 58dc 703e 3619 1abf 9b2c a7be
00000240: 7434 c2be 079c bebe 96e8 e83e b1a6 123f
00000250: 5381 c7bd 3514 5c3e 031c bd3e 3b7d d73e
00000260: e65b 97be d9ac 283e 52c2 0bbf 60d8 06be
00000270: 2996 c2be f99b 773f 7512 4b3d ecbf bdbe
00000280: 0a84 5a3e c376 cf3e b185 0abe 4b85 e2bd
00000290: 47ef 8a3e fcd9 393e 4eb7 8c39 1f8b d0be
000002a0: ad2f dcbc b0c8 273e a741 a3bc 17de 8abc
000002b0: 6fea cdbe 44e7 c43d 5e4b 5c3d 0e45 33be
000002c0: be71 923e 0f20 4bbb e60f 1e3f 8296 44be
000002d0: 83bb 273d 0078 3dbe 7e3e 63be 5ee0 a63b
000002e0: 904c 23bf c47b 0ebd 2cb1 3a3f bd75 c73e
000002f0: 0672 213e c739 383e f357 e13d 2e7c a9be
00000300: ce26 f8be 97d6 1ebf c4a0 d9be fa54 263f
00000310: 6bb3 6e3a 40fa 923e f29b a73d 93bd 483f
00000320: 4c65 53bd 8e3a 29bf e534 5ebe 38fb cfbd
00000330: b4bf 90be f79a ba3d a869 b53e bb5d 25be
00000340: f49e 6b3f cda5 bebe dfec 6bbe 5319 c4be
00000350: 4d6f 093d afa6 d0be 4924 a13e 53d9 2a3f
00000360: ad6b 883e 1288 0fbe c730 eabd 8e86 c03e
00000370: 80d1 153f 5217 713c 58e5 673e 8312 bb3d
00000380: 970e 8abe 4d62 9ebd c3b5 8d3e 83b3 433e
00000390: 185a 16bf 67c9 6b3e d464 91bc cf9f 9cbd
000003a0: f90b ba3d b85e 443f 141f fdbe 0fc6 ad3d
000003b0: b19f a0be 38a8 d63d 9e71 ab3e dd0a acbe
000003c0: b9d6 16bf f5a1 bbbc 50fa 32be fa41 86be
000003d0: 949d 0f3d 3de6 66bf 3527 e7be eab5 20bc
000003e0: 971b 093f d951 dd3d 73b4 2c3e 0296 bd3c
000003f0: a6d5 1ebe f895 54bd 1277 dc3d 78ac 2c3e
-0.022928156 0.112854525 -0.34997275 0.07194565 0.26813343 -0.50083226 -0.68558687 0.40951005
-0.3764061 0.044251837 -0.33836648 -0.051541563 0.08072577 -0.052591372 -0.5348641 0.2972535
-0.058183014 0.1010874 -0.37094027 -0.43356588 0.28839806 0.028707348 0.08075515 0.30012208
0.11996249 -0.28545338 -0.1202813 0.28510213 -0.16262797 -0.13241969 0.25036603 -0.41121322
0.16508693 -0.024563748 0.34396565 0.57937413 0.18521039 -0.17486194 0.59845513 -0.04823645
0.20674518 0.13431852 0.049782157 -0.83188885 0.12159804 -0.37908912 0.016730659 0.011694803
-0.26004142 0.047523476 -0.18884262 -0.0072208843 -0.00083792344 -0.55850095 -0.16193886 0.5905231
-0.21651559 0.019218309 -0.24961019 -0.043504488 -0.7205881 0.015774049 -0.23365672 -0.43290848
0.2725597 -0.122170664 0.1010513 0.061529875 0.045212448 0.36783785 0.26409054 -1.0716579
-0.36362848 0.4672586 0.007318733 -0.29478303 -0.84966177 -0.11275319 -0.13376734 -0.00013802259
0.33800963 -0.7455527 0.008181628 0.39433357 -0.80674464 0.2526897 -0.11595581 0.012138205
-0.6128947 -0.49750823 -0.53659993 0.22852956 0.23706867 0.23778673 -0.064914316 -0.16608994
0.06960481 -0.3545876 0.07890467 -0.42283645 0.16010909 -0.33747184 0.046640776 0.15168901
0.38828257 -0.50956917 0.01730618 0.25821432 0.141466 0.6561955 0.08053059 -0.16662045
-0.23608696 -0.09628196 -0.4858182 0.07729622 -0.06176046 -0.3626391 -0.57544065 0.27034244
1.3833688 0.23342782 0.027703915 -0.23545158 -0.2626876 0.08341575 0.38655302 0.23087996
-0.030324014 -0.0757374 0.21252468 -0.35619575 0.64365095 -0.6368987 0.012180529 0.13821852
-0.14012907 -0.018148337 0.0012337129 0.04485338 0.2334874 0.23521554 -0.6019472 -0.3265122
-0.37930644 -0.37228414 0.4548995 0.572856 -0.097414635 0.21492083 0.36935434 0.4208773
-0.295623 0.16472186 -0.54593384 -0.13168478 -0.38005188 0.9672237 0.04957815 -0.37060487
0.21339431 0.40520296 -0.13527562 -0.1106058 0.2713568 0.1814956 0.00026839453 -0.4073114
-0.026878202 0.1638515 -0.019928766 -0.016951604 -0.4021792 0.09614423 0.053782813 -0.17506811
0.28602403 -0.003099445 0.6174301 -0.19198039 0.04095031 -0.18502808 -0.22191808 0.0050926646
-0.637887 -0.034786 0.7292659 0.38957015 0.15766153 0.1799079 0.11003103 -0.33102554
-0.48467106 -0.6204619 -0.42505467 0.64973414 0.0009105715 0.2870655 0.08184041 0.7841427
-0.051610276 -0.6610497 -0.21699865 -0.10155338 -0.28271258 0.091115884 0.35432172 -0.16149037
0.9203942 -0.3723587 -0.23039578 -0.3830057 0.03355341 -0.4075217 0.31472996 0.6673786
0.2664465 -0.1401675 -0.11435085 0.37602657 0.58522797 0.014715033 0.22646081 0.0913439
-0.26964256 -0.07733593 0.27677736 0.19111447 -0.5873122 0.23026048 -0.017748274 -0.076476686
0.09084315 0.7670703 -0.49437773 0.08485042 -0.31371835 0.10481304 0.3348512 -0.33602038
-0.5892139 -0.022904376 -0.17478299 -0.2622221 0.035062388 -0.90195066 -0.451471 -0.009808997
0.53557724 0.10806627 0.16865711 0.023142818 -0.15511188 -0.051900834 0.10764898 0.16862667

FC3.bias f4 [2]
00000000: 50d2 dcbd ade1 a03e
-0.107823014 0.31422177
