results/run001/actor_1_net.pt (torch_old, 525546 bytes, 10 tensors)

BN1.weight f4 [24]
00000000: ecff ad3e 85b2 ae3e b38b 173e 7c20 c73e
00000010: 1ed9 61bf c5a8 c0bf e9b6 c93e 2337 7c3e
00000020: f45c b63e 4304 e13b 5e10 38bc 27fd 073e
00000030: fc5e e13d 0297 eb3e b708 0b3f 8c5e 853e
00000040: 5c5d 143f bc0c 963e 632e b53e b887 dabe
00000050: 6714 813f 2c21 b13f a070 913e 07d1 0f3f
0.33984315 0.34120575 0.14799385 0.3889197 -0.8822192 -1.5051504 0.39397362 0.24630408
0.35617793 0.006866963 -0.011234371 0.13280164 0.11004445 0.46013647 0.5431017 0.26048696
0.57954955 0.2930659 0.35386953 -0.4268167 1.0084351 1.3838248 0.2840624 0.56178325

BN1.bias f4 [24]
00000000: f8c5 043e 0b74 7dbe dbe2 8a3d 0d6b 93be
00000010: 6b8f 0abf f080 a43e 6781 983d 4ddb 50be
00000020: af5c a03e 94fe f13c fa7b 113c c197 d0bc
00000030: 3440 2e3f 642b 1c3e c881 513e 718e d6bd
00000040: c1d3 d33e 6f2a 8abe 9f98 13be 5919 2ebf
00000050: efe9 313f 9dc5 cd3e 3a82 ad3d 0e1e b33a
0.12966144 -0.24751298 0.067815505 -0.2879261 -0.5412509 0.32129622 0.074465565 -0.20396157
0.31320712 0.029540338 0.008879656 -0.025462987 0.68066716 0.15250927 0.20459664 -0.10476387
0.41372493 -0.269855 -0.14413689 -0.6800743 0.6949758 0.4018983 0.08472104 0.0013665573

BN1.running_mean f4 [24]
00000000: cdda f7c0 1611 28bf c0f7 4140 7435 c13d
00000010: c628 10be 48c9 7f40 c0f7 4140 7435 c13d
00000020: 0f22 fac0 ca70 26bf 0a45 3f40 f5ab 9c3d
00000030: ad29 04be 6067 7f40 0a45 3f40 f5ab 9c3d
00000040: f9d9 fac0 5912 26bf 0c8c 5140 85e0 58bc
00000050: bd00 ebbd b0f1 7d40 0c8c 5140 85e0 58bc
-7.745459 -0.6565107 3.0307465 0.094340235 -0.14078054 3.9966602 3.0307465 0.094340235
-7.8166575 -0.6501585 2.9885888 0.07649986 -0.12906523 3.9906845 2.9885888 0.07649986
-7.839108 -0.64871746 3.2741728 -0.013237123 -0.1147475 3.9678764 3.2741728 -0.013237123

BN1.running_var f4 [24]
00000000: 5c3c 7141 8480 8e3f 1e58 8d43 16ee 5841
00000010: f9ac db41 5e2d 1840 1e58 8d43 16ee 5841
00000020: d6d5 6841 fe63 903f 0619 9143 285e 5b41
00000030: 188e e241 bca3 1d40 0619 9143 285e 5b41
00000040: 3a14 6441 ee5a 913f f6bf 8e43 3f97 5b41
00000050: 8071 e741 3260 2740 f6bf 8e43 3f97 5b41
15.077236 1.113297 282.68842 13.558126 27.45946 2.377769 282.68842 13.558126
14.552206 1.1280515 290.1955 13.710487 28.319382 2.4631186 290.1955 13.710487
14.254938 1.1355875 285.4997 13.724425 28.93042 2.6152463 285.4997 13.724425

FC1.weight f4 [400, 24]
00000000: 52d3 1fbd 45e3 84bf f67b 86bf b626 4b3f
00000010: b645 e73d 2d26 043f 1e94 5cbf 3fa0 253f
00000020: d880 433e 8fcf 203e 6d9d 1dbe f626 ec3e
00000030: dea5 17bf 111a 46bd 3fdb 023f 65e2 e23e
00000040: dfc0 923d d9b7 68be 1b4c 093f 0f53 233d
00000050: 6ae8 b9be bef1 cd3e bf4c 9d3e 2340 ac3c
00000060: e432 80bf e713 3bbd 4bdc 4f3f 5193 21bf
00000070: 9ac2 a23e 47df 893e 7388 973f 3a9b 2cbf
00000080: fc97 73bf bb9b 203e aaf5 cc3d 4eb4 44be
00000090: a2ae 22be e898 f2be 63a6 aabd d3fa abbe
000000a0: 19c8 63bf 5950 18be 88c2 e13e 297e 4c3e
000000b0: a066 823f 2595 cd3e d820 1f3e 0689 053f
000000c0: c896 eabd bcad 943f 0d76 a33f ac19 c13e
000000d0: c8e6 debd 1266 fdbd c362 f73f eafd 383e
000000e0: fa13 4bbe fea6 d13e 4557 3dbe 4a43 8c3e
000000f0: b822 223d d8fd 13bf 7263 b9be 7aa7 683e
00000100: 32c5 76be 244c 8c3f 3f94 123e 5df0 923f
00000110: 4188 23be beae ccbe 1535 393d 6e39 86bf
00000120: 4dce b93e fcfc 96be 67b8 9bbd 7ecd 233f
00000130: 28c9 153f a26d f0bd b251 32be e1d6 283f
00000140: 95ab 66bf f302 33be ff7f abbd bd0f 543f
00000150: a468 97be 3781 b63e 39db b3bf 21f2 833f
00000160: edde 3ebe 3fdf 3abc 450f 523f ce1e 343d
00000170: 692e c43e fb84 303c 4afe ce3e 40ed c03e
00000180: 8c45 fa3e 864a 19bf 46d5 84be be4b 82be
00000190: d2eb 793e 15a8 1b3f d0d0 49be 1514 32be
000001a0: 6faf 0ebe 5283 1ebf dd2b 06bf cc87 a93f
000001b0: beaf c9be d59e f5be 1634 1cbf 19b0 af3f
000001c0: 8dec 99be b71b 5f3d 19a1 363f 6392 4f3f
000001d0: eb2e 4fbe 09f8 703e 809c 2a3e 4e85 fd3e
000001e0: 23ee 9bbe a9c3 44bf 1cc9 fd3e 68e2 0a3f
000001f0: b723 9b3e 7df5 1bbf 3563 263f 0dce b33e
00000200: eb76 92bb a0f4 05bf 6b8b 36bd 145a d63e
00000210: 58ce e9be f484 d9bc 5c52 e4be 03f6 9f3e
00000220: c164 f03e 7872 b1be 086a 303f 0b20 e23e
00000230: 4533 093f c94b b93d 051d 203e dd3b e63e
00000240: 8203 cb3e da5c b3be 2f49 3c3e fb71 1ebc
00000250: 772b 43bf 78c1 363e 96b5 883e bcea fd3c
00000260: 0907 6a3e 08cd ac3d ed80 01bd f805 86bf
00000270: 9486 81be 1841 b33d cf91 68bd be4b 6cbf
00000280: 65e6 19bb 3f2e 33bf a6de 38be 00a0 373e
00000290: 9d81 40bf 9253 193e 79c1 eebe f95a 1a3e
000002a0: 7daf 13bf 1454 84bd 245f 5d3d 514e 0b3f
000002b0: 223e 36bf 845e 04be 3ec4 07be 7472 0c3f
000002c0: 75f9 b6bd 4d44 883d 6984 273e 86ba 903e
000002d0: 3999 f73e 3414 8bbe 603a c43e f6aa 733e
000002e0: d9cc 22bf e520 923e 8531 2bbf d7ab b7be
000002f0: 608c 07be 9f44 a2be c05b a1be f9f2 4e3f
00000300: b159 373f ba11 1bbf bbd9 9bbf 8a0f bebe
00000310: e63e f5be 6289 14bf 440e 65bf 1c5b c0be
00000320: 1eb2 ff3e ae54 9ebe d01e c2be cff0 2a3f
00000330: e1ca bebe 12cb ad3d 4bd6 c2bd 1aa9 1b3f
00000340: 14c7 d13e 7a9c d03d 967d 06be e247 0f3f
00000350: 526a 843d b755 c5be e19c 19bf ceab 243e
00000360: e14f 53bd 0fff 19bf 14b1 e03d b19e 8f3f
00000370: bc4a b23d ad2a 83bf 412b 0d3c 316f 9e3f
00000380: 4dea 93be c0f9 9b3d 7ee6 373e 7342 4d3e
00000390: e5d9 58be acaa cd3e 2bc2 84be c3e4 b13e
000003a0: 31dc 53be 2706 b8be d744 e83d 2042 a53e
000003b0: 037c 56bf e815 debe e530 0b3e 7c00 57bd
000003c0: 5cf2 e8be cac4 7c3e 79ee 613d d17d 573d
000003d0: ee20 d0bf 899a ec3e 5b87 88bd 67b6 71bd
000003e0: 2a1a debe 4259 29be 4fa0 d03e dc23 0f3e
000003f0: f163 223f ecc9 36bd a25b f23e 1dfc 94bd
-0.03901989 -1.0381857 -1.050658 0.79355943 0.11292593 0.5162075 -0.8616351 0.6469764
0.19092119 0.15704177 -0.15392084 0.46123475 -0.5923747 -0.048364703 0.51115793 0.4431335
0.071656935 -0.22726382 0.5363175 0.039874133 -0.3631013 0.40223497 0.30722615 0.021026677
-1.001553 -0.045673277 0.81195515 -0.6311541 0.31789094 0.2692816 1.1838516 -0.67424357
-0.95153785 0.15684406 0.10007794 -0.19209406 -0.1588693 -0.47382283 -0.08332517 -0.335898
-0.889772 -0.148744 0.44093728 0.19970001 1.0187569 0.4015285 0.15539873 0.52162206
-0.114545405 1.161552 1.2770401 0.377149 -0.10883862 -0.12372984 1.9327015 0.1806561
-0.19831839 0.40947717 -0.18490322 0.27395087 0.03958389 -0.5780921 -0.36208683 0.22720137
-0.24098662 1.0960736 0.14314364 1.1479603 -0.15969945 -0.39977068 0.04521664 -1.0486276
0.36290208 -0.29489887 -0.07603531 0.6398543 0.58510065 -0.11739661 -0.17413977 0.6595288
-0.90105563 -0.17481594 -0.08374023 0.82836515 -0.29572022 0.35645458 -1.4051276 1.0308267
-0.18639727 -0.011405765 0.8205455 0.04397469 0.38316658 0.0107738925 0.40428382 0.37681007
0.48881185 -0.5987934 -0.25943965 -0.25448412 0.24406365 0.6080335 -0.19708562 -0.17390473
-0.1393411 -0.6191913 -0.5241068 1.3244567 -0.39391893 -0.47972742 -0.61016977 1.3725616
-0.30063286 0.05446979 0.71339566 0.81082743 -0.20232742 0.23532118 0.16661263 0.49515766
-0.3045512 -0.76861054 0.49567497 0.5425172 0.30300686 -0.6092146 0.6499513 0.35118142
-0.0044697425 -0.52326393 -0.044566553 0.418656 -0.4566524 -0.026552655 -0.44594085 0.3124238
0.4695187 -0.34657645 0.6891179 0.44165072 0.53593856 0.09047658 0.1563607 0.44967547
0.39651114 -0.35031778 0.18387292 -0.00967073 -0.762382 0.1784724 0.2670104 0.03099572
0.22854246 0.08437544 -0.031617094 -1.0470572 -0.25297987 0.0875265 -0.05677968 -0.92303073
-0.0023483273 -0.6999244 -0.18053684 0.17932129 -0.75197774 0.14973286 -0.46631983 0.15073766
-0.5768965 -0.06461349 0.05404581 0.54416376 -0.7118856 -0.1292668 -0.13258454 0.5486214
-0.08934299 0.06653652 0.16359104 0.28267306 0.48359087 -0.2716385 0.38325787 0.23795685
-0.6359382 0.28540722 -0.66872436 -0.3587329 -0.13237143 -0.3169298 -0.31515312 0.80839497
0.71621233 -0.60573924 -1.2175821 -0.3712123 -0.4789955 -0.5802213 -0.8947489 -0.3756951
0.4994058 -0.3092398 -0.37914133 0.66773695 -0.3726416 0.08485998 -0.095135294 0.60804904
0.40972197 0.101860955 -0.13133845 0.5596906 0.064655915 -0.38541958 -0.60005003 0.16081163
-0.05158985 -0.60154814 0.10971275 1.1220304 0.08705661 -1.0247399 0.00861627 1.2377683
-0.28889695 0.076159954 0.1795902 0.2004488 -0.2117687 0.40169275 -0.25929388 0.34744844
-0.20689465 -0.35942194 0.11341255 0.32277012 -0.83782977 -0.43376088 0.1359287 -0.052490696
-0.45497406 0.24684444 0.055159066 0.052610222 -1.6260049 0.4621165 -0.06666442 -0.059011843
-0.43379337 -0.16537955 0.40747306 0.13978523 0.6343375 -0.04462616 0.47335535 -0.07274649

FC1.bias f4 [400]
00000000: 07dc b9bb 119a e7be 6307 71be a004 d2be
00000010: 92da 4cbf 2ac9 29bf de10 83bd af9d 063d
00000020: b3b8 1abf 6602 893c 143e 983e e8fd 11bf
00000030: 3847 33bf daf6 83be 04db 06bf 64ad 31bf
00000040: e11a 24bf b5b0 3cbf 764e 27bf 6334 79bf
00000050: 39f1 c3bd 8ad1 ecbe 15ed 45bf c723 0bbe
00000060: 96c8 97bd 21cf 0dbf 0095 fabe 98d0 9dbd
00000070: c86a 2dbf af6b 53bf edc9 16bf 5afa 88bc
00000080: a3b1 c3be b1a1 46bf 1df1 d9be 4add dbbc
00000090: 3c5b a5be 97d3 1fbd a887 69be e18c cdbe
000000a0: 4ba1 31be 24d8 11bf 04e5 52bf 0b5a 01bf
000000b0: eebd 3fbf 657f 9cbd db5e 48bf 5301 edbe
000000c0: ef6a 49bf 48a5 b2be c60e 44bf 7c4d 6fbf
000000d0: 2194 4abf c034 00bf 77c6 ebbd f861 59bf
000000e0: 235a 9b3e ccf4 bdbe 9b72 5cbe 8aa2 18bd
000000f0: 863c 95be 0a32 f8be 8ff5 aabe aefb c4be
00000100: 4585 d43e 504b 45bf 6012 37bf 49b8 d2bd
00000110: 0a5e 813d 10b8 f2bd a1b0 34bf f6fd 7fbe
00000120: 2d7b eebe 8d46 9cbf cf2e 80be dba2 42bf
00000130: 3b0d 13bf 6338 6cbf d7f3 94bf a6c5 b3be
00000140: 31e0 fdbe 90b8 bfbe 05be cb3d 05e3 21bf
00000150: cc7c 1abe ab93 66bf cfeb 38bf 346a 96be
00000160: e569 16bf 7c85 3bbe d419 25bf b2f9 0dbf
00000170: 770a bf3c 45d7 13be 96a4 12be fe62 dbbe
00000180: f19f 1ebf 2ba5 d5be 4ed1 a6be 89d3 64bf
00000190: f245 c3be f262 d13c ac0c 33be b7c5 f2be
000001a0: 82c8 eebe 6ae8 02bf 3e86 61bf 455c a0be
000001b0: 6731 a7bc 2c70 99bf 3dca 163f defa 1fbf
000001c0: 98ba 01bf dce0 b43e b9cf 6cbf 96ad ebbe
000001d0: 0649 e1be d522 13bf 1032 6cbe 22bf 7dbd
000001e0: bf39 f9bd ab02 ff3c 56d0 d6be f1f1 24bf
000001f0: cf5d 39bf 7037 6bbf 09e2 13bf dfbf 3e3e
00000200: 21f3 8dbd 5cf7 273d 6886 1c3d a4d0 20bf
00000210: 288e 4ebf d223 fabe 8b73 b0be 1a0e 5fbe
00000220: fd1d 05bf dae9 a6be ec05 113e 6a08 723c
00000230: b952 47bf 8d82 c8be b14c 82be 2d2b 02bf
00000240: d3f3 42bf 9063 2cbf 08f8 a3bc fea1 87be
00000250: 6dcd 17bf cd23 afbe 92da 4dbd 6a58 c6be
00000260: 52ea 52bf a96a a8be add2 933d b664 90be
00000270: 5d26 4dbf 6ee7 823e 78ba ebbe e6d9 3ebf
00000280: 79d6 6b3d 8830 3ebe 5993 bc3e 90a3 403c
00000290: 3afb a43e 3e46 4dbf 233a afbd 0c5b 11bf
000002a0: 4854 19bf 73e6 e13e c3b8 ddbe 5afb a9be
000002b0: 7f25 e3be 7d36 01bf 3fce 46bf b8f1 78bf
000002c0: 0767 15bf 65a3 19bf ab65 66bf 1e30 05bf
000002d0: 31ab 39bf 816a 05bf 03f5 cbbe 1b57 38bf
000002e0: ca09 15bf 19d7 19bf b7cc 533e 0463 17bf
000002f0: 9646 02bf cc50 21bf b874 473e a92c a9be
00000300: 3161 2dbf 3d10 22bf dbda f3bd db48 01bf
00000310: 0a96 b0bd 0520 86bf 9606 09bf 4cd6 edbe
00000320: a1ce 1cbf 48b1 863c 2641 0bbf ff5f bdbe
00000330: 3853 18bf e4f7 d1be 2672 d3be af40 bfbd
00000340: e68b 30bf 290e c8be 981d 08be 1b49 09bf
00000350: dd11 57bf 34db 12bf d3b2 5fbf 581a e0be
00000360: 9e16 0dbf 94aa 62bf aede 10bf 00a2 5fbf
00000370: 5377 febc 91a1 c1be e723 13bf 39a9 933e
00000380: 79cf 10bf 16ac 1cbf 2b4f b8be 6a2c 00bf
00000390: 3473 00bf eb46 58be 7d5d 82be 826a 99bd
000003a0: 013e 963d 0d32 913e 4a1e 0ebf 36d0 093f
000003b0: 2249 89be f1ef 2cbf e41b 0abe e2a2 c83e
000003c0: 4d37 cebe b7b2 a8be ead4 0abf d7e1 083e
000003d0: f069 82be 4755 02bf e670 82bf 7ff7 343d
000003e0: 1c07 aabe bb56 27bf dc87 14bf 87c5 7abf
000003f0: c1fb 3dbf 1e86 99bd f66c 1fbf dfb5 37bf
-0.0056719813 -0.4523473 -0.23537974 -0.41019154 -0.8002101 -0.66322577 -0.063997015 0.032865223
-0.6043808 0.016724776 0.29734862 -0.57028055 -0.70030546 -0.2577427 -0.5267794 -0.694052
-0.64103514 -0.73707134 -0.65354097 -0.9734556 -0.09567494 -0.46253616 -0.77314883 -0.13587867
-0.074113056 -0.5539418 -0.48941803 -0.07705802 -0.6774106 -0.8258619 -0.58901864 -0.01672094
-0.38221464 -0.7759047 -0.42566767 -0.026838917 -0.3229617 -0.039020147 -0.22805655 -0.40146545
-0.17346685 -0.5697043 -0.823807 -0.5052802 -0.74899185 -0.07641486 -0.7826974 -0.46290073
-0.7867879 -0.34891725 -0.7658504 -0.93477607 -0.79132277 -0.5008049 -0.115124635 -0.84915113
0.30342206 -0.37100828 -0.21528094 -0.037264384 -0.29147738 -0.48475677 -0.3339047 -0.38473266
0.41507927 -0.7706804 -0.71512413 -0.10289056 0.06316765 -0.118515134 -0.70582014 -0.24999222
-0.4657835 -1.220903 -0.25035712 -0.7602975 -0.57442063 -0.9227354 -1.1636914 -0.3511173
-0.49585107 -0.37445498 0.09948353 -0.6323703 -0.15086669 -0.90069073 -0.72234815 -0.29377902
-0.5875533 -0.18312639 -0.64492536 -0.5545913 0.02332042 -0.14437588 -0.14320597 -0.42848963
-0.619628 -0.41727576 -0.32581562 -0.8938528 -0.38139302 0.025559876 -0.17485303 -0.4741647
-0.4663735 -0.51135886 -0.8809546 -0.31320396 -0.020409299 -1.1987357 0.5890234 -0.6249217
-0.50675344 0.35327804 -0.9250446 -0.46030873 -0.44001025 -0.57475024 -0.23065972 -0.061949857
-0.12169217 0.031129202 -0.41955823 -0.64431673 -0.72408766 -0.91881466 -0.5776678 0.1862788
-0.06931139 0.041007385 0.038214117 -0.6281836 -0.80685663 -0.48855454 -0.34463152 -0.21782723
-0.51998883 -0.3260029 0.14162415 0.014772514 -0.778606 -0.39162102 -0.25449136 -0.5084713
-0.76153296 -0.6733942 -0.020015731 -0.26490778 -0.5929783 -0.34207 -0.050257273 -0.3873933
-0.82388794 -0.32893875 0.072179176 -0.28201836 -0.8013666 0.25567192 -0.46040702 -0.74551237
0.057577584 -0.185732 0.36831167 0.011757746 0.3222292 -0.80185306 -0.085560106 -0.5677955
-0.5989423 0.4412113 -0.43305025 -0.3319958 -0.44364545 -0.5047377 -0.77658457 -0.97243834
-0.5836033 -0.60014945 -0.89998883 -0.52026546 -0.7252684 -0.5211564 -0.39835367 -0.7200791
-0.5821806 -0.6009384 0.20683561 -0.5913546 -0.50888956 -0.6301391 0.19478118 -0.33041885
-0.6772643 -0.6330603 -0.11906978 -0.50501794 -0.08622368 -1.0478522 -0.53525674 -0.46452558
-0.6125279 0.016441956 -0.54396284 -0.36987302 -0.5950198 -0.41009438 -0.41298026 -0.09338509
-0.6896347 -0.39073303 -0.13292539 -0.53627175 -0.8401163 -0.5736573 -0.8738224 -0.437701
-0.55112636 -0.8854153 -0.5658978 -0.8735657 -0.031062758 -0.37818578 -0.5747666 0.28840044
-0.5656658 -0.6120008 -0.359979 -0.5006777 -0.50175786 -0.21120803 -0.2546195 -0.07491018
0.07336045 0.28358498 -0.5551497 0.5383333 -0.26813608 -0.6755362 -0.13487202 0.3918677
-0.40276566 -0.3294885 -0.5423113 0.13367401 -0.2547145 -0.5091137 -1.0190704 0.044181343
-0.3320855 -0.65366715 -0.58019805 -0.9795765 -0.7421227 -0.07496284 -0.62275636 -0.7176189

FC2.weight f4 [300, 400]
00000000: ba26 c9be e355 a0bf d1c9 203e de21 dcbe
00000010: 9680 b8be 800e 00bf c311 ecbd 4e85 afbf
00000020: 1e9f 02bf e394 94be c3a8 af3d b554 9dbe
00000030: 7962 03bf 68c8 873c 9cac 76bf bdfd 943e
00000040: db40 8c3e 7740 c3be 781e 8dbe a80d 86be
00000050: 1141 2bbf a2dc e7bd b42c 26bc 463d 693e
00000060: 8710 363e b1be 893d 91da d9bd 2b6f 30bf
00000070: 000d 303f 89fe a33e 9e99 623e 51e0 78bf
00000080: 4bc0 0dbd 2768 41bf c388 c53e 171d 20bf
00000090: fea4 98be e2b5 113e ef07 f4bd 5a71 babe
000000a0: 2f36 bc3c bb7f 0c3f 9f8f d9bd a85a c6be
000000b0: 83bc 203f 8090 a8be a923 2f3f cacd b53e
000000c0: 9684 0dbf 872e 253f def3 acbe 39ed 94be
000000d0: c408 f1be 65eb 783e 8f93 e33e 5964 32be
000000e0: 21f7 c6bd baca 293f c718 9d3e a4ba 0ec0
000000f0: 95ef 00be 9cf2 0dbf cbee e0bf d5d9 aabc
00000100: 9576 97be d7f3 45be 9437 58be 6591 25be
00000110: 86ab 41be 2d88 4a3e 5699 61bd 5b01 293f
00000120: 13f5 ab3e 8f1f 67bf 2798 013d 4147 8f3e
00000130: 2bb4 493f 6745 963e fcd5 93be b97f 5dbf
00000140: abba 943e 83a1 d6be 6fbb be3e fe62 2fbd
00000150: 624d 07bf 3fea 81bf 998a 4cbe 4f2f b2be
00000160: c9f0 e13e 6e8b 1abf 4ed5 c8be 6904 1a3f
00000170: 9159 96bc 6605 37be 53d4 24be d2e1 abbe
00000180: c61f 7d3b d93a 2cbe b234 bc3e 290b 84bf
00000190: 2daa cd3e 4bf2 a9bf 9124 8abd 8379 f9be
000001a0: c160 68be 79fc 8cbe e935 66be 2c1b 6bbe
000001b0: 58de c7bd bc12 30be a8c3 a8be fb2e 7ebe
000001c0: 2b89 ce3d 78f0 8dbe 903f 39bf 58d5 30bf
000001d0: 2d4b b3be 6a4b 12be b14b a93e cea4 11bf
000001e0: 300f 85bf 3714 25bf ed13 90bd ad6a 0ebe
000001f0: f26b 81bf 1140 d2bf e05c b13e 9e5f ba3d
00000200: 79d4 19bf 1c6d 1cbf a49d 5bbf 79d1 cabf
00000210: 84d7 c5be 0875 74bd 2aa7 c0be 7817 3fbf
00000220: d2e5 ad3d 7992 3d3d 040b 07bf be71 2ebe
00000230: fae9 3d3c dbbb b1bf edda e43b 3108 97bf
00000240: ed80 c93e aa3a 473d 896f 36bf 7781 fcbe
00000250: cc6f 063e e54b 15bf 7e4e 72bf 95f8 ef3e
00000260: d840 0bbf 3616 efbe 57e2 04bf 8439 623e
00000270: 3427 91bf 3ff9 3fbf b159 efbe fb98 21bf
00000280: 8a94 9cbf 2838 953e c845 f0be 677e 153e
00000290: cd7e 5e3c 511d b2bf aff8 e6bf dca2 3cbe
000002a0: 40bc e0bb 5946 b8be db50 8a3d dd29 c8be
000002b0: f5b9 b93d 567d 0cbf 206c 44bf acda 0d3f
000002c0: 979e c3be 9eda df3e e8c6 b53e 674d 1ebf
000002d0: 5177 a43e 3397 f63e cd52 24bf 6bbe 54bf
000002e0: 46e9 2ebf fb01 ecbe eb8f edba 7fe6 60bf
000002f0: cac4 2e3f 1b02 57be 69a5 b5be cf15 8abd
00000300: a2c6 8c3e 12d0 273f c5ec 0f3f 8e71 69bf
00000310: 9d08 8bbe 5bd1 7c3e c1af 4b3f fce0 db3c
00000320: c188 cb3d 93b4 7abe 4277 5f3f be7e b8be
00000330: 7458 9ebd 533b b2bd 63c1 813e 3fd5 20bd
00000340: 50cf 813f 371a 573e c993 1dbf 9a55 133f
00000350: 7f6b d6be 58cc 1d3e 42cf f03d e846 783e
00000360: 756a 90bf f940 823f 4d56 efbe 3d3e 5c3f
00000370: 994b 663d d6d6 b13d bf32 c83d 8e75 2b3e
00000380: ddff b03d 90e1 7e3f eb3b 0bbf 9cdb 02be
00000390: eacb 20bf e8e2 f1be 6df2 2ebf 350d 81bf
000003a0: 64e5 1dbe d09c cebe 4a45 183f 01e4 dabe
000003b0: d9f9 8ebd 095d 89be 001c 2c3f 18e1 b0bf
000003c0: f61c 743f 776f a9be ffdb 13bf 0e06 e0be
000003d0: 7530 48bf 0302 64bd 82a0 84be 8412 c1bf
000003e0: 89a8 0abf 4e65 67be 6715 d3bd ec4b 2bbe
000003f0: 4603 efbe 1502 4dbf 73de c7bd e3db 533f
-0.3928736 -1.252621 0.15701987 -0.4299459 -0.36035603 -0.50022125 -0.11526825 -1.3712556
-0.51024044 -0.29019842 0.085771106 -0.3072869 -0.5132213 0.016575053 -0.9635713 0.29099837
0.2739323 -0.3813512 -0.27562308 -0.26182294 -0.6689616 -0.11321379 -0.010142494 0.2277728
0.17779742 0.067258246 -0.10637391 -0.6891963 0.68769836 0.32030132 0.22128913 -0.9721728
-0.034607213 -0.7554955 0.38580903 -0.6254439 -0.2981338 0.14229539 -0.11915576 -0.36414605
0.022975056 0.548824 -0.10623097 -0.3874104 0.62787646 -0.32922745 0.6841379 0.35508567
-0.55280435 0.6452412 -0.33779806 -0.29087237 -0.47077 0.24308546 0.44448516 -0.17421092
-0.09715105 0.6632496 0.30682966 -2.2301416 -0.12591393 -0.5544832 -1.7572874 -0.020855824
-0.29582658 -0.19331299 -0.21114951 -0.16168745 -0.18913087 0.1977851 -0.055077873 0.66017693
0.33585414 -0.9028253 0.031639244 0.2798405 0.7879054 0.29349825 -0.28874195 -0.86523014
0.29048666 -0.419201 0.37252375 -0.042819016 -0.5285245 -1.0149611 -0.19974746 -0.3480172
0.44129017 -0.60369 -0.3922524 0.6016298 -0.018353255 -0.17873153 -0.1609662 -0.33570725
0.0038623675 -0.16819324 0.36758953 -1.0315906 0.40168896 -1.3277067 -0.06745256 -0.4872552
-0.22693159 -0.2753637 -0.22481503 -0.22959584 -0.097592056 -0.17194647 -0.32961774 -0.24822609
0.100847565 -0.27722526 -0.72362614 -0.69075537 -0.35018292 -0.1428658 0.3306556 -0.56892097
-1.039526 -0.6448397 -0.070350505 -0.13907881 -1.0111067 -1.6425802 0.3464117 0.09100269
-0.6008983 -0.6110399 -0.85787416 -1.5845176 -0.38640988 -0.059681922 -0.37627536 -0.74645185
0.084911 0.046282265 -0.52751184 -0.17035577 0.011591429 -1.3885454 0.006984106 -1.1799375
0.39356175 0.04863993 -0.7126394 -0.49317524 0.13128585 -0.5831893 -0.9465102 0.4686934
-0.5439582 -0.46696633 -0.5190787 0.22092253 -1.1340089 -0.74989694 -0.46748117 -0.63124055
-1.223283 0.29144406 -0.4692824 0.14599 0.013580036 -1.3915197 -1.8044642 -0.18421501
-0.0068583786 -0.3599117 0.06753703 -0.3909444 0.090686716 -0.5487875 -0.76727486 0.5541179
-0.38206932 0.4372148 0.35503316 -0.61836857 0.3212228 0.4816223 -0.64188844 -0.83103055
-0.68324697 -0.4609526 -0.0018124556 -0.8785171 0.68269026 -0.20996897 -0.3547776 -0.06742441
0.27495295 0.65551865 0.56220657 -0.91188896 -0.2715501 0.24689238 0.79565054 0.02684068
0.09938193 -0.24482946 0.8729135 -0.36034197 -0.07731715 -0.087027214 0.25342855 -0.039265867
1.0141392 0.21006094 -0.6155363 0.5755249 -0.41878888 0.15409982 0.11758281 0.24245799
-1.1282488 1.0176078 -0.4674553 0.8603247 0.05622444 0.08683555 0.09775304 0.16744062
0.08642552 0.9956293 -0.543883 -0.12779087 -0.6281115 -0.47243428 -0.6833866 -1.0082155
-0.15419537 -0.40354013 0.59480727 -0.42752078 -0.069812484 -0.26828793 0.67230225 -1.3818693
0.9535669 -0.33092853 -0.5775756 -0.4375462 -0.7819894 -0.05566598 -0.25903708 -1.5083776
-0.54163414 -0.22597238 -0.103068165 -0.1672818 -0.46682185 -0.800813 -0.09759226 0.82757396

FC2.bias f4 [300]
00000000: 7c25 0fbf 2c55 1b3f 0451 ffbe 3c68 143f
00000010: bdf7 22bf 016e 59bf 9153 d3be 59bd 393d
00000020: cb71 06be 9dc8 173e 6941 cdbe 11f1 c8be
00000030: feec 19be c6fb c7be f4a4 8dbf 357c c6be
00000040: aecb 18bf 3d16 bdbe 8318 84be 0f01 83be
00000050: bb53 67bd c354 f3bc 9e8e 29bf b24e 0fbe
00000060: 7ccd 64bf 8b60 f13d d356 82be 66b5 03be
00000070: eb00 91be a05f 46be 736d b1bf b492 073e
00000080: e63a cbbe b208 ecbe e9d1 d2be 5e50 68be
00000090: 82a1 f0be 500e 8ebe c09c f7be 3666 10bf
000000a0: cab3 a1bf 9234 61bf fefb a73e a48e 0fbf
000000b0: 75b9 79bf 7950 12bf 26fe 05bf c3df 063e
000000c0: 1f09 023e 1244 19bf 43f6 50be 2f57 9cbe
000000d0: ebc3 25bf a619 bdbe d358 763e 33aa 4ebf
000000e0: d05b 16bc 86d9 febe f65e 1dbf 9250 673e
000000f0: 14ee bfbe 14c3 fcbe 9bb2 ad3d 9469 21bf
00000100: f670 57be 2931 36bf f9ab 4dbe ec1e 573d
00000110: df4e 7cbe f388 03bf 224a 82be 0811 18bf
00000120: 1f56 17bf 597d 05bf a42c 00be fc75 11bd
00000130: 29de 1cbf e4b5 d9be 9bac 54be 3dff 53bf
00000140: 3806 1f3e ebf3 80be f996 02bf 89f0 32bf
00000150: 3a21 dabe 5ae5 04bf 6fc8 273f 7a5c a3be
00000160: cb3f 35bf e7a3 8dbe 1ffb 8fbe f183 dcbe
00000170: 2aef 1dbf 0ae8 21bf 58ab f8be 5cfc c8bd
00000180: 0c6f 95bf 6746 bd3d d54f fbbe fba9 b9bd
00000190: 17b1 ebbd bfa3 e93d 8721 d2bb 9c40 bcbe
000001a0: 999a 0abf 602b bcbe 6459 fdbe 0340 2b3e
000001b0: 743b 5abe 279f bfbd 4354 fc3c 7460 30bf
000001c0: 48f6 babe b7a1 6bbe 3095 6bbe eb15 363e
000001d0: 83cf 3cbf ee43 95bf 933b 0ebf 8843 e4be
000001e0: c2fa 3dbf 123e 80be efe1 10be 5dee 0d3e
000001f0: 7588 1b3d 0d22 bebd a5e5 2abf 5e8c 93be
00000200: 0476 003f 3b35 4fbf a84d 34bf 4b8a a6bc
00000210: 0c79 42be 7584 8fbf daf7 97be 3fc8 2e3e
00000220: 41a3 0cbf 2a60 14bf e1b4 03bf efd5 7cbe
00000230: 81ed 51be 8f88 3ebd aaba e0be 62bd 663e
00000240: 343e 283e 6415 c1be ad9a dabe 06e2 5dbf
00000250: 1c18 5bbf 8bc6 bfbe a75a 8dbe e43b 2fbf
00000260: 76e6 c9be bdf1 28bf 0d44 dcbe 6911 16bb
00000270: 88c7 1ebf 749c 60bf 14e2 55bf c324 39bc
00000280: d5c9 153e 86f0 203e a7b5 d0bd 7ccd e3bd
00000290: 006b 90be e882 1abf cacb 21bf ec4b ccbd
000002a0: 53d2 13bf 572d 09bf adc9 05bf 9a24 9abd
000002b0: 5c31 a3be 3e90 b2bd c805 0fbf 9475 f23c
000002c0: 38ec f9bd e8dc 2fbf 006d 903e 644e fabe
000002d0: adec 91be 8c93 bd3d 28b3 0ebf 4e7b dcbe
000002e0: b8c4 123e bc1a 93be 9724 21bc e5c7 86be
000002f0: 539d 61be f673 43bf 6869 19bf 024e 92be
00000300: c511 b4be 2d69 f2be f707 e9be c1b9 6dbd
00000310: 048a abbe 04d9 38bc b244 7abe f86a cd3d
00000320: 1892 e3be 3626 17bf af7f 68be 34f6 37be
00000330: ed04 e7bd 0ea3 01be 9853 f5be 89fa ae3e
00000340: 0875 5a3d 605e 30bf 0cdb 18bf 9525 51bd
00000350: 8554 a0bf 857b 1bbf 9762 60bd 87a9 27bf
00000360: bbcd 67be 7896 0c3d cedd 6cbe 89bc f8be
00000370: e5ca 4abe c016 fdbd 1cea bebe 12f7 03bf
00000380: 61a5 abbe 176f 493d 70fc d0be 1e77 a53e
00000390: 48b3 bcbe 512a 25be b99c 2bbf 051a 11be
000003a0: 79c2 163f 916e ccbc 1039 1bbf 8315 9bbe
000003b0: 22d8 1abe ef71 de3d 827a 84be ad65 16be
000003c0: e9bf eabe 8b35 bebe e48a 0dbf 6ac8 4bbd
000003d0: 182d bbbe d8fe 8ebe d192 14bf 4552 f1be
000003e0: b8b4 25bf a80a 1a3f e26a 68bf a84b 1cbe
000003f0: bd6b 18bf 399b 1f3e 75d6 73bf 8b28 f5be
-0.5591657 0.60676837 -0.49866498 0.5797155 -0.6365927 -0.8493348 -0.41274694 0.04534659
-0.13129346 0.14822622 -0.40088966 -0.3924642 -0.15031812 -0.39059275 -1.1065965 -0.38766637
-0.5968579 -0.3693103 -0.2579995 -0.25586745 -0.056476336 -0.029703503 -0.6623324 -0.13994864
-0.89376044 0.11785992 -0.25456867 -0.12862167 -0.28321013 -0.19372416 -1.3861526 0.13239557
-0.39693373 -0.46100384 -0.41175774 -0.22686908 -0.4699822 -0.27745295 -0.48361778 -0.5640596
-1.2632992 -0.8797084 0.32809442 -0.5607703 -0.9754861 -0.5715404 -0.52340925 0.13171296
0.12698792 -0.5986949 -0.20406441 -0.30535266 -0.6475207 -0.3693363 0.24057321 -0.80728453
-0.009177163 -0.49775332 -0.61473024 0.22589329 -0.37486327 -0.49367583 0.08481332 -0.63051724
-0.21039185 -0.7116876 -0.20085134 0.052519724 -0.24639462 -0.5138084 -0.25447184 -0.5940099
-0.59115785 -0.5214439 -0.12517029 -0.03551291 -0.6127649 -0.42521584 -0.20768969 -0.8281134
0.15529716 -0.25186095 -0.51011616 -0.6989828 -0.42603475 -0.5191246 0.6554021 -0.31906492
-0.70800465 -0.2766411 -0.28121278 -0.43069413 -0.6169306 -0.6324469 -0.48568225 -0.09813759
-1.1674514 0.09241944 -0.49084345 -0.09065624 -0.115083866 0.11408185 -0.006412688 -0.36768043
-0.5414215 -0.36751842 -0.49482262 0.16723637 -0.21311742 -0.09356528 0.030801898 -0.68897176
-0.36516023 -0.23010908 -0.2300613 0.17781799 -0.7375414 -1.1661355 -0.55559653 -0.44582772
-0.7421075 -0.25047356 -0.14148687 0.1386046 0.037971932 -0.092838384 -0.6675666 -0.2881803
0.5018008 -0.809406 -0.70430994 -0.020329615 -0.18991488 -1.1212298 -0.29681283 0.17068575
-0.54936606 -0.57959235 -0.51447874 -0.24690984 -0.20500757 -0.04651695 -0.43892413 0.22533181
0.16429979 -0.37711632 -0.42696133 -0.8667301 -0.85583663 -0.37456164 -0.27608225 -0.6845076
-0.3943364 -0.65993863 -0.4302067 -0.002289856 -0.6202321 -0.8773873 -0.8354809 -0.011300269
0.14627774 0.15716752 -0.101908974 -0.111231774 -0.28206635 -0.60356 -0.6320158 -0.099754184
-0.57742804 -0.5358481 -0.5226086 -0.075265124 -0.31873596 -0.08718918 -0.55868196 0.029597081
-0.12203258 -0.6869645 0.2820816 -0.48887932 -0.28500882 0.09256658 -0.5574212 -0.43062824
0.14332855 -0.28731334 -0.009835384 -0.26324382 -0.2203267 -0.7634882 -0.5992646 -0.2857514
-0.35169807 -0.47345868 -0.4551389 -0.058038477 -0.33503735 -0.011282209 -0.24440268 0.10030168
-0.44447398 -0.5904268 -0.22704957 -0.17965013 -0.112802364 -0.12659857 -0.4791534 0.34175518
0.053334266 -0.68894005 -0.5970924 -0.05106123 -1.2525793 -0.6073535 -0.054781523 -0.65493053
-0.22637074 0.034323186 -0.23131487 -0.4858134 -0.1980396 -0.12357855 -0.37287986 -0.51548874
-0.33524612 0.04917821 -0.40817595 0.32317442 -0.3685553 -0.16129424 -0.67036015 -0.14170082
0.5889049 -0.024955066 -0.60633945 -0.3028985 -0.1512151 0.10861575 -0.25874716 -0.14687224
-0.4584954 -0.37150225 -0.55290055 -0.049751677 -0.3655784 -0.27928805 -0.58036524 -0.4713308
-0.6472888 0.6017251 -0.9078809 -0.15263236 -0.59539396 0.15586556 -0.9524911 -0.47882494

FC3.weight f4 [2, 300]
00000000: 67b5 563f 4c8d 9fbe ff97 31bd bcd0 1ebf
00000010: cc87 0a3f 7dac 453e 9a53 04bd b1fa 473d
00000020: 0eaa 943f 1640 aa3e 2aec b73e 9691 42bd
00000030: 1574 cd3e 35a6 273e 73ab ec3e b0dc bfbd
00000040: 56eb b0bd 1f86 ddbe 1eca 7e3e 5e2c 90be
00000050: 59e9 2d3e cca9 fc3c 9e9e 3d3e ceaa 8dbd
00000060: 307e 91be 036f b7be bed9 ba3e 3d52 ecbe
00000070: a1f9 80be 19c5 53bf 9e24 aabe a022 583e
00000080: 382f 0fbf 826f b8be a45e da3d 8350 003e
00000090: 2437 54bc 9d65 d3bd 03c9 ddbc 4b09 663e
000000a0: 040d 0dbe 3e38 f73d de3b c4be 5cdf a33d
000000b0: 8484 643d 483a 3a3d a3a8 183e fcfe 343f
000000c0: 1af5 46bf b5c1 1f3e 2d74 903e 1e70 023e
000000d0: 059e 9c3d 7e3e afbe 7489 adbe c262 11bf
000000e0: 38f3 19bf bb5f bf3c c2b4 723f 928f d1be
000000f0: 863d 003f ba97 203d d0ae 56be e140 edbe
00000100: 9de0 9f3e 3f55 21bf 74f9 7d3e 0399 f33e
00000110: d5b0 233e e0cf 89bc cb06 5abe ff37 243e
00000120: d5bb 03bf f914 37bf cdfb 2bbe 4c2b 26be
00000130: 08dc b7be 0c11 893e 2125 62be 9551 363d
00000140: ead9 1ebf 6b5e 903e 8cf6 f33e 86ca f63e
00000150: 7c3f f5bd 595e 1e3e 1a0c f5bc f657 d3bb
00000160: 6b16 bfbd ed96 0e3e 351b 393e bc99 1fbf
00000170: fe06 5abe 14e0 7bbe d8cf b7be 71a6 f13e
00000180: ca18 373c 9713 5dbe 43f9 a6be 478d 743f
00000190: c64d 5a3e 0b2b fd3d c882 cd3d 8fa0 4b3e
000001a0: 49c1 56be 99e3 603f e98e 9bbe 9d0d 4a3f
000001b0: 2c2c 3a3f d6ad ca3d 8522 c93e 0d6d 093e
000001c0: 7917 78be b937 773f c911 51bd 8481 99ba
000001d0: 49e1 94be 45d3 50be 0ec6 7f3e cad8 ca3d
000001e0: c2be 10bf d5d1 0abf cc19 19bf fc7e 183f
000001f0: a587 033e 0241 a53b 77f8 1abf 6b6a a93e
00000200: d6ae 4bbf edfb c53c f159 383f b90a 64bd
00000210: 4b91 e63e d16b 10bf fb70 08be bacd f5be
00000220: 2122 74be fdef 3b3e 30fa 04bf 6da8 29be
00000230: 7ea1 3ebf b916 afbe a0e9 f4bc c125 53be
00000240: 0336 a7be 0470 2fbc e5ac 16bf fa81 443e
00000250: a658 f23e 4a63 9cbd 29ee d23e df96 35be
00000260: 0e86 91be 3815 883e f947 973e 7499 dd3e
00000270: 5a73 86be 9984 2fbf 9df8 13be 11bd b73e
00000280: 5fdc 9dbe b2a4 dd3d 3878 3ebf 0bba 10bf
00000290: 58b5 bd3e 4eb5 773e 4f6d bcbe 13a8 533e
000002a0: 633d 8cbe 81fc 9cbb e045 e93e 8be6 34be
000002b0: 1ca5 34be e26d 9cbd 03c7 04bf 851a cc3e
000002c0: 0c9c c6be d329 0cbf 6f09 d1be 2c98 373f
000002d0: b239 3b3d 495e debe c5fb 8a3f 8f68 e93e
000002e0: a057 dfbd 51b0 be3e 2331 acbd adad cf3e
000002f0: 430f ce3e 0ecc f3be 7750 003e 58c5 7ebd
00000300: 43b1 063d 9933 16bd 71da 78bd a52d d6be
00000310: 84c3 073e ab72 18bf 0233 063e 8b2c 92bd
00000320: b740 88be 4cc6 0bbf 9ef7 9b3e 5918 b73c
00000330: 679d a0be e900 d0bc bd91 d0bc c5bc c7be
00000340: 005e 66bd 6aff 28bd e98a fb3e e47c 0c3e
00000350: f909 bfbe c076 26bf 6487 0e3f 6779 5cbe
00000360: d38b 61bd 4111 de3e 5837 9ebe 8936 eebd
00000370: dec6 9ebd c2ba edbc bf86 4f3e 8bc8 183b
00000380: ebfc a7bc 805d 8fbe b459 3ebf 2dd1 13bf
00000390: 99d8 e0be 317e 943e 51ad 5abf 9b1b 29be
000003a0: f085 bcbd d9fe 8c3e 2539 02be 1ff9 15bd
000003b0: b758 053e 5712 39bf 4e70 b7bd de2c ac3e
000003c0: 4b2a 1ebe 2096 823e c615 a9be 1bab 063e
000003d0: 4fdb 13bf 7965 983d 020f e6be e1da 9c3d
000003e0: 39a8 c3be af94 1cbf 4dd0 28be 7c82 82be
000003f0: 0a44 74bc 9a27 893f 6dbe d5bd aacb 1f3f
0.8387055 -0.31162488 -0.043357845 -0.62037253 0.5411346 0.1930408 -0.03230629 0.048823062
1.1614397 0.3325202 0.35922366 -0.047502123 0.40127626 0.16371997 0.46224555 -0.09368265
-0.08638637 -0.4326639 0.24881789 -0.2815885 0.16983546 0.030842684 0.18517539 -0.06917344
-0.28416586 -0.35826883 0.3649425 -0.46156493 -0.25190452 -0.8272262 -0.33231062 0.21106958
-0.55931425 -0.36022574 0.106625825 0.12530713 -0.0129526 -0.103221156 -0.027073389 0.22464482
-0.13774496 0.12071274 -0.38326925 0.08001587 0.05579044 0.045465738 0.1490808 0.70701575
-0.77717745 0.15601237 0.28213635 0.12738082 0.07647327 -0.34227365 -0.3389393 -0.5679132
-0.6013675 0.023361078 0.94807065 -0.40929848 0.5009388 0.039207198 -0.20965123 -0.4633856
0.31226054 -0.630207 0.2480219 0.47577676 0.15985425 -0.016822755 -0.21291654 0.16036986
-0.51458484 -0.71516377 -0.16795273 -0.16227454 -0.35910058 0.26770818 -0.22084476 0.044511396
-0.6205126 0.28197035 0.47649038 0.48201388 -0.11974999 0.15465678 -0.029912997 -0.0064496947
-0.09330448 0.13924761 0.18076785 -0.62343955 -0.2129173 -0.24597198 -0.3590076 0.47197297
0.011175344 -0.21589504 -0.32612047 0.9552807 0.2131873 0.123617254 0.1003471 0.19885467
-0.2097217 0.87847286 -0.3038247 0.7892702 0.7272365 0.09896438 0.3928415 0.13420506
-0.24227704 0.965694 -0.051042352 -0.0011711572 -0.2907813 -0.20393093 0.24977896 0.099046305
-0.56541073 -0.5422643 -0.5980499 0.5956876 0.12844713 0.00504315 -0.6053538 0.33089003
-0.79563653 0.02416798 0.7201224 -0.05567429 0.45032725 -0.56414515 -0.13324349 -0.4800852
-0.23841144 0.18353267 -0.51944256 -0.16568156 -0.7446517 -0.34197024 -0.029896557 -0.2061987
-0.32658395 -0.010707859 -0.58857566 0.19190207 0.47333258 -0.076361254 0.41197327 -0.17733334
-0.28422588 0.2657869 0.29547098 0.43281138 -0.2625988 -0.685617 -0.14450307 0.35886434
-0.30832192 0.10822429 -0.7440219 -0.5653388 0.37052417 0.24190256 -0.36802146 0.20669584
-0.27390584 -0.004790843 0.45561123 -0.1766607 -0.17641109 -0.07638146 -0.5186617 0.39863983
-0.3879093 -0.5475132 -0.4082751 0.7171657 0.04570932 -0.4343131 1.0858084 0.45587584
-0.10905385 0.37243894 -0.084078096 0.40562192 0.4024602 -0.4761662 0.12530695 -0.06219992
0.032883894 -0.0366703 -0.060755197 -0.418317 0.13258177 -0.5954997 0.13105395 -0.07137402
-0.26611874 -0.5459945 0.30462354 0.022350477 -0.31370088 -0.025391059 -0.025460118 -0.39011207
-0.05624199 -0.041259207 0.49129418 0.13719517 -0.37312296 -0.6502495 0.5567534 -0.21530686
-0.055064987 0.4337254 -0.309016 -0.116314955 -0.07752775 -0.029019717 0.20266245 0.0023312892
-0.020506343 -0.28001022 -0.74355626 -0.5774105 -0.4391525 0.29002526 -0.8542071 -0.16514437
-0.09205234 0.27538183 -0.12717111 -0.036614534 0.13022123 -0.7229361 -0.08956967 0.3362798
-0.15445821 0.2550516 -0.33024424 0.13151209 -0.57756513 0.074412294 -0.44933325 0.07658935
-0.3821428 -0.61164373 -0.1648571 -0.25490177 -0.0149088 1.071521 -0.104367115 0.6242014

FC3.bias f4 [2]
00000000: 3862 353d 1d29 fc3d
0.04428312 0.12312529
