results/run003/actor_1_net.pt (torch_old, 580506 bytes, 10 tensors)

BN1.weight f4 [24]
0	0x3f18e4d5	0.5972417
1	0x3ee02f96	0.43786305
2	0x3ebc13cc	0.36733854
3	0x3f1d3d30	0.6142149
4	0x3f804bee	1.0023172
5	0x3f8f7d0e	1.1210039
6	0x3f183260	0.59451866
7	0x3d859e3d	0.06524322
8	0x3e96d172	0.2945667
9	0x3ecc49c7	0.39900038
10	0x3ec94741	0.39312175
11	0x3dc808d7	0.09767311
12	0x3d8181a4	0.06323555
13	0x3eee87eb	0.46588072
14	0x3f045c55	0.5170339
15	0x3ece9b37	0.40352795
16	0x3ef65ba6	0.48116797
17	0x3f29998b	0.6624991
18	0x3f08697f	0.53285974
19	0x3f0babf7	0.5455927
20	0x3f658da5	0.8966926
21	0x3f8024a3	1.0011181
22	0x3eab549b	0.33462986
23	0x3e8b1ed5	0.2717196

BN1.bias f4 [24]
0	0xbd9fb9cd	-0.077991106
1	0xbe965a48	-0.29365754
2	0x3e341a41	0.1758814
3	0xbe71b435	-0.236039
4	0x3d956b83	0.07295897
5	0x3e4125b6	0.18862042
6	0x3e2059b7	0.15659223
7	0xbd72d3ce	-0.059284024
8	0x3e1a25ad	0.15053435
9	0xbf2c2612	-0.6724559
10	0x3f0e10e5	0.5549453
11	0xbda73349	-0.08164079
12	0x3dbc9be4	0.09209421
13	0x3eba8a0c	0.36433446
14	0x3e97f38c	0.29678
15	0xbe7181d3	-0.2358468
16	0x3ea44e1f	0.32090852
17	0xbf0c4664	-0.5479491
18	0x3e427377	0.18989359
19	0xbdbfa9d9	-0.09358568
20	0x3e397f81	0.18115045
21	0x3ebac20a	0.36476165
22	0x3e2b9208	0.16754925
23	0x3e23ee0b	0.16008775

BN1.running_mean f4 [24]
0	0xc0954175	-4.6642404
1	0xbf16ff98	-0.58983755
2	0x41115644	9.083561
3	0xbcebd483	-0.028787857
4	0xbf298464	-0.6621764
5	0x40755bf7	3.833738
6	0x41115644	9.083561
7	0xbcebd483	-0.028787857
8	0xc096f2f0	-4.7171555
9	0xbf19797a	-0.59950984
10	0x410eb898	8.920067
11	0xbe188a7a	-0.14896575
12	0xbf29f345	-0.66386825
13	0x40755887	3.8335283
14	0x410eb898	8.920067
15	0xbe188a7a	-0.14896575
16	0xc097b41d	-4.7407365
17	0xbf1c2af8	-0.61003065
18	0x4113b6a4	9.23209
19	0xbe13f405	-0.14448555
20	0xbf2455d4	-0.64193463
21	0x4073dd21	3.8103716
22	0x4113b6a4	9.23209
23	0xbe13f405	-0.14448555

BN1.running_var f4 [24]
0	0x418d58e7	17.66841
1	0x3f8ab169	1.0835391
2	0x43bf880e	383.06293
3	0x415f9927	13.974891
4	0x41ebb8d6	29.465252
5	0x4021665a	2.521872
6	0x43bf880e	383.06293
7	0x415f9927	13.974891
8	0x418beb5c	17.489922
9	0x3f8d0759	1.1017867
10	0x43c0c33c	385.52527
11	0x41634fa6	14.206945
12	0x41f2a5c5	30.330942
13	0x40218e92	2.5243268
14	0x43c0c33c	385.52527
15	0x41634fa6	14.206945
16	0x418caf20	17.58551
17	0x3f8eab75	1.1146075
18	0x43c3d612	391.67242
19	0x416b718d	14.715222
20	0x41f9f805	31.246103
21	0x402b5ff0	2.6777306
22	0x43c3d612	391.67242
23	0x416b718d	14.715222

FC1.weight f4 [512, 24]
0	0xbc288337	-0.01028519
1	0x3ed0db2d	0.40792218
2	0xbd9778a9	-0.07396061
3	0x3e88824b	0.26661906
4	0x3ec894ea	0.39176112
5	0x3e312fad	0.17303343
6	0xbdac5f33	-0.08416595
7	0xbdcd2bbc	-0.10018107
8	0xbc185555	-0.0092976885
9	0x3eb64b48	0.3560431
10	0xbd9b839f	-0.07593464
11	0x3c470f16	0.012149593
12	0x3d12efa9	0.03587309
13	0xbc63a32e	-0.013893886
14	0xbe9d0f98	-0.3067596
15	0x3ead9299	0.33900908
16	0x3e8180e6	0.25293654
17	0x3f1bb309	0.6082006
18	0xbc9fb6fe	-0.019496437
19	0x3e82369d	0.25432292
20	0xbe6c43d0	-0.23072743
21	0xbe93998d	-0.28828087
22	0x3d7f6bd9	0.06235871
23	0x3e97c6e8	0.2964394
24	0x3e42056e	0.18947384
25	0x3f00171e	0.50035274
26	0xbdcffafb	-0.101552926
27	0xbdc6069b	-0.09669229
28	0x3e17e6d3	0.14834146
29	0x3d82a466	0.06379013
30	0xbcb54e11	-0.022131952
31	0xbd46e6f5	-0.0485601
32	0x3e8d5da8	0.27610517
33	0x3eb4af6c	0.35290086
34	0xbe58c815	-0.21170075
35	0xbd6fcad3	-0.058543038
36	0xbe353f19	-0.17699851
37	0x3a8b0de7	0.0010609002
38	0xbd6e30fe	-0.05815219
39	0xbd5a5dce	-0.053312115
40	0x3e8293f4	0.25503504
41	0x3d48a5ee	0.048986368
42	0xbe57fcc5	-0.21092518
43	0xbe8621a7	-0.2619755
44	0xbf644bbd	-0.8917807
45	0x3e289764	0.16464001
46	0xbdef530e	-0.11685763
47	0xbed020cb	-0.4065002
48	0xbdbfdf5f	-0.093687765
49	0x3e47e9a4	0.1952272
50	0xbe88e5a2	-0.26737696
51	0xbe8abd79	-0.2709768
52	0x3e518ef6	0.20464692
53	0x3e93e800	0.2888794
54	0xbe9517ce	-0.29119724
55	0xbe1f6f52	-0.15569809
56	0xbe83097b	-0.2559317
57	0x3ebbee10	0.36705065
58	0xbe23e90d	-0.1600687
59	0xbca9462c	-0.020663343
60	0x3dbea6a4	0.09309128
61	0x3e703d6c	0.2346093
62	0xbe0f1dc2	-0.13976195
63	0xbdda5088	-0.10659891
64	0xbeb6e917	-0.35724708
65	0x3eadabb6	0.33920068
66	0x3dfe6a78	0.12422651
67	0xbd482f55	-0.048873264
68	0xbe8271e5	-0.2547752
69	0x3ee614ef	0.44937846
70	0x3e891bcb	0.26779017
71	0xbd5f3c2f	-0.054500755
72	0x3d2cc8f7	0.042183843
73	0x3e31155f	0.17293309
74	0x3e05afe7	0.13055383
75	0xbd93244c	-0.071846575
76	0xbdfb6d44	-0.122767
77	0xbed03b63	-0.40670308
78	0x3d89e48d	0.06733046
79	0x3c1309d8	0.008974515
80	0x3d6795be	0.05653929
81	0x3e454dbe	0.19267938
82	0xbec7ed2c	-0.39048135
83	0x3ed8bd94	0.42332137
84	0xbdf233fe	-0.11826323
85	0xbf45ff82	-0.77343
86	0xbea38d34	-0.31943667
87	0x3e7df96b	0.24802177
88	0xbe0aac63	-0.13542323
89	0x3e59c17b	0.21265213
90	0xbe245934	-0.16049653
91	0xbe4343b7	-0.190688
92	0xbdbf8bd0	-0.09352839
93	0xbeaf6c9d	-0.34262553
94	0xbd1a5e2f	-0.037687477
95	0xbe36c4b7	-0.17848478
96	0xbdd7b3d4	-0.10532346
97	0x3d1741da	0.036928035
98	0x3d5e2720	0.05423653
99	0x3d3d93bf	0.04628348
100	0x3ebfc8f9	0.37458017
101	0x3d458bf9	0.04822919
102	0x3e088115	0.13330491
103	0x3e92082a	0.28521854
104	0xbd2e2b9b	-0.042522054
105	0x3dcdce7a	0.10049148
106	0xbdefb096	-0.11703603
107	0x3e2311e3	0.15924792
108	0x3d1168ae	0.03550022
109	0x3e5a591f	0.2132306
110	0xbd9c9eb4	-0.07647458
111	0x3e68ff44	0.22753626
112	0xbeb2e9fc	-0.3494414
113	0x3d91eb3c	0.071249455
114	0xbed410e0	-0.41419125
115	0xbe2dd9a1	-0.1697755
116	0xbf171383	-0.5901415
117	0x3e536827	0.206452
118	0xbf016da1	-0.50557905
119	0xbe6d9681	-0.23201944
120	0x3d2a9de9	0.0416545
121	0x3e4d9102	0.20074847
122	0xbe17208b	-0.14758508
123	0x3d301561	0.04298914
124	0x3e670eba	0.22564211
125	0x3f10846a	0.5645205
126	0xbcd4026c	-0.025880061
127	0x3d88baa5	0.066762246
128	0xbe0bc341	-0.13648702
129	0x3e6234fa	0.22090521
130	0xbe320b31	-0.17387082
131	0x3e374138	0.17895973
132	0x3e56fb01	0.20994188
133	0x3e0dc8ca	0.13846126
134	0xbcd6fcec	-0.02624365
135	0x3e39616f	0.18103574
136	0xbcb978ac	-0.022640549
137	0xbc9de065	-0.019272039
138	0x3ec909d3	0.39265308
139	0x3e0cfd9f	0.13768624
140	0x3e7db69e	0.24776694
141	0xbdf98c96	-0.12185018
142	0x3ecafd85	0.39646545
143	0xbdfe6660	-0.1242187
144	0x3df0bb6f	0.117545
145	0xbe10b8b5	-0.1413296
146	0xbeb0f723	-0.3456355
147	0xbe5b31aa	-0.21405664
148	0x3e760910	0.24026895
149	0xbdc609e7	-0.096698575
150	0xbec4f1ab	-0.38465628
151	0xbdc4811b	-0.095949374
152	0x3da91a02	0.08256914
153	0x3ed6d7b3	0.4196144
154	0xbe2c8daf	-0.16850923
155	0x3ef152e2	0.47133547
156	0x3dfc055e	0.12305711
157	0xbd01238d	-0.031528044
158	0x3d0d101c	0.03443919
159	0x3e947c2a	0.2900098
160	0x3e9b31c7	0.30311415
161	0x3dd9debe	0.10638188
162	0x3ed5e421	0.4177561
163	0x3f08590c	0.53260875
164	0xbdd0cc19	-0.101951785
165	0xbd93bbee	-0.07213579
166	0x3e92e347	0.28689024
167	0x3e16d4f8	0.14729679
168	0xbe6a4b8a	-0.22880378
169	0x3b98f7ce	0.0046682125
170	0x3dc50a66	0.09621124
171	0x3dcd00cd	0.10009918
172	0xbe60e499	-0.21962203
173	0x3f377acb	0.7167174
174	0x3db1f8ba	0.08690019
175	0x3e546114	0.20740157
176	0xbe660a30	-0.22464824
177	0x3d894adb	0.06703731
178	0xbda6bc1a	-0.08141346
179	0xbc8e7205	-0.017388353
180	0x3e7aa823	0.24478202
181	0x3e8a4d58	0.27012134
182	0xbd79b08f	-0.060959395
183	0x3c5cfa48	0.013487406
184	0xbdae6aa9	-0.085164376
185	0x3e463301	0.19355394
186	0x3ebc73fc	0.3680724
187	0xbe25e17d	-0.16199298
188	0x3f297673	0.66196364
189	0xbea6247d	-0.32449713
190	0x3e8d335a	0.2757824
191	0xbdf7b820	-0.12095666
192	0x3e97dbd6	0.2965991
193	0x3ee1e9cf	0.44123694
194	0xbd8d432b	-0.06897577
195	0xbebb98da	-0.36640054
196	0x3d7b5847	0.061363485
197	0x3e88e260	0.2673521
198	0x3d4e30ec	0.050339624
199	0xbe850887	-0.25983068
200	0x3ed2b301	0.41152194
201	0x3f0185d9	0.5059486
202	0xbe2ee972	-0.1708124
203	0xbe9e9b84	-0.30978024
204	0x3ce48276	0.02789424
205	0x3e1ee4f1	0.15517022
206	0xbe9731c0	-0.29530144
207	0xbf12f6b1	-0.5740767
208	0x3ee58c19	0.4483345
209	0x3e835e5a	0.25657922
210	0xbe1fb69e	-0.15597007
211	0x3dd8abbe	0.10579632
212	0xbdfd02e8	-0.1235407
213	0x3d6585f3	0.056035947
214	0xbe7667ff	-0.24063109
215	0xbbdc0492	-0.006714412
216	0x3db2492c	0.08705363
217	0xbe15612c	-0.1458785
218	0xbe8eb798	-0.27874446
219	0x3e7765ec	0.24159974
220	0x3e272d2e	0.16325828
221	0x3ed0bfdd	0.4077138
222	0xbe85c3ce	-0.2612595
223	0x3e847fa7	0.2587864
224	0x3d004bfb	0.03132246
225	0x3db14c0c	0.08657083
226	0xbe0155f5	-0.12630446
227	0x3e811b0e	0.25215954
228	0xbe401671	-0.1875856
229	0x3ebe699f	0.37189957
230	0xbe4405c6	-0.19142827
231	0x3e64d10d	0.22345372
232	0x3e3e0103	0.18555073
233	0x3dde1af0	0.10844982
234	0xbe3433ff	-0.1759796
235	0x3f1b3cdb	0.60639733
236	0xbecea8ec	-0.40363252
237	0x3de792cf	0.113072984
238	0xbe85984e	-0.26092762
239	0x3eca399b	0.39497074
240	0xbd6970b2	-0.05699224
241	0x3eaa895e	0.33307928
242	0xbdef5ab7	-0.11687224
243	0xbdb5743a	-0.08860059
244	0x3eb07029	0.3446057
245	0x3eea460a	0.4575656
246	0x3d18983d	0.03725456
247	0x3d103a49	0.035211835
248	0xbd2e3e3f	-0.04253983
249	0x3e9602ce	0.29299015
250	0x3e60253d	0.21889205
251	0x3dfa1123	0.122103
252	0xbd00b6fe	-0.031424515
253	0x3db93deb	0.09045013
254	0x3e7a27a9	0.24429192
255	0x3e70ad23	0.23503546

FC1.bias f4 [512]
0	0x3db95e75	0.090512194
1	0xbdac411d	-0.08410857
2	0xbe8dd687	-0.27702734
3	0xbe94a6f6	-0.2903363
4	0xbda532b4	-0.080663115
5	0xbeffb21c	-0.49940574
6	0xbebd982a	-0.37030154
7	0xbda2f4c9	-0.07956845
8	0xbdd8639b	-0.10565873
9	0xbe048fc0	-0.12945461
10	0xbdb123f0	-0.08649433
11	0xbecbb14d	-0.39783707
12	0xbe66ed01	-0.22551347
13	0xbd78fdba	-0.060788848
14	0xbe4ffa05	-0.20310219
15	0xbe366c80	-0.17814827
16	0xbee133bb	-0.4398478
17	0x3c60495d	0.013689366
18	0x3c1f737b	0.0097321225
19	0xbe23c075	-0.15991385
20	0xbd8714d0	-0.065957665
21	0xbed774fe	-0.42081445
22	0xbe8b4217	-0.2719886
23	0x3de42db2	0.11141528
24	0xbe78e917	-0.24307667
25	0xbf17ccb5	-0.59296733
26	0xbe434e8b	-0.1907293
27	0xbe235c15	-0.15953095
28	0xbed6a638	-0.4192369
29	0xbba7b221	-0.00511767
30	0xbea5b98d	-0.32368127
31	0xbeabd513	-0.33561
32	0x3cb2afa4	0.021812268
33	0xbea39192	-0.31947
34	0xbdcb54fd	-0.099283196
35	0xbeb0cbcf	-0.34530494
36	0xbe819148	-0.25306153
37	0xbee45a05	-0.4459993
38	0x3d993c97	0.0748226
39	0xbe432e2b	-0.1906058
40	0xbe09fe35	-0.13475879
41	0xbd71e745	-0.059058446
42	0x3c34a47f	0.011025547
43	0xbdc4f8b7	-0.09617751
44	0x3d37c330	0.04486388
45	0xbeebead9	-0.46077612
46	0xbe4bf3c4	-0.19917208
47	0xbd8cf240	-0.06882143
48	0xbe72c8b3	-0.23709373
49	0xbe4b236a	-0.19837728
50	0xbdeac794	-0.11463848
51	0xbf13e80a	-0.5777594
52	0xbea95c4f	-0.33078238
53	0xbdd56bb1	-0.10420931
54	0xbb3f9bdd	-0.002923719
55	0xbe864ae2	-0.26229006
56	0xbe6036d5	-0.21895917
57	0xbf084432	-0.5322906
58	0xbec48da1	-0.38389304
59	0x3d98b30f	0.07456028
60	0xbeb2ea98	-0.34944606
61	0x3db10055	0.086426415
62	0xbe04cb4a	-0.12968174
63	0xbe4b53ea	-0.1985623
64	0xbe6fd2f3	-0.23420314
65	0xbc9ab2c5	-0.018884072
66	0xbec6e4dd	-0.38846484
67	0xbc74f57e	-0.014951108
68	0x3d8e220a	0.06940086
69	0xbeabb173	-0.3353382
70	0xbe05e5f0	-0.13075995
71	0xbeb03794	-0.34417403
72	0xbeefee47	-0.4686148
73	0xbd1e6be5	-0.038677115
74	0x3d55462c	0.052068874
75	0xbeb07bc5	-0.3446943
76	0xbda0a08f	-0.07843124
77	0xbe8c58a2	-0.2741137
78	0x3c8907ad	0.016727293
79	0xbe153e71	-0.14574601
80	0xbe15298f	-0.14566635
81	0xbf0c5655	-0.5481923
82	0xbe0427be	-0.12905785
83	0xbef38ba7	-0.47567484
84	0xbe9b2207	-0.30299398
85	0xbf01840d	-0.5059212
86	0xbec6ef6d	-0.38854542
87	0x3d24f5d2	0.040273495
88	0xbe1b752e	-0.15181419
89	0xbeba4082	-0.3637734
90	0xbe9846ff	-0.29741666
91	0x3c2f6b3d	0.01070672
92	0xbda94f7a	-0.08267112
93	0xbecf4aba	-0.404867
94	0xbe8f3970	-0.2797351
95	0xbe4d9882	-0.20077708
96	0xbe96ad01	-0.29428867
97	0xbe2b373c	-0.16720289
98	0x3e7e4486	0.24830827
99	0xbd0d251c	-0.03445922
100	0xbe37baf1	-0.17942406
101	0x3ca6c09c	0.020355515
102	0xbd29b736	-0.04143449
103	0xbea48f6c	-0.32140672
104	0xbeb7767c	-0.35832584
105	0xbecdd549	-0.40201786
106	0xbea982a3	-0.3310748
107	0xbe87fff4	-0.26562464
108	0xbddae2ea	-0.10687812
109	0xbea83647	-0.3285391
110	0xbe55a53d	-0.20863815
111	0xbeb398c7	-0.35077497
112	0xbe1bc632	-0.15212324
113	0xbf0725d1	-0.5279208
114	0x3de8012e	0.1132835
115	0xbefe0835	-0.49615636
116	0xbe058bdf	-0.13041638
117	0xbbfb6c16	-0.007672797
118	0xbd95bfba	-0.073119596
119	0xbe80efad	-0.25182858
120	0xbe6121ec	-0.21985596
121	0xbda20c9d	-0.07912562
122	0xbde13718	-0.109968364
123	0xbe34ab51	-0.17643477
124	0xbda334ac	-0.07969031
125	0xbeb3bacc	-0.35103452
126	0xbe962b7a	-0.29330045
127	0x3dbd7820	0.09251428
128	0xbe92bb56	-0.2865855
129	0xbe470098	-0.1943382
130	0x3db332d4	0.08749929
131	0x3c7a88b8	0.015291385
132	0xbe7ab50e	-0.2448313
133	0xbe788952	-0.24271134
134	0xbe3044ff	-0.1721382
135	0xbe347512	-0.17622784
136	0xbe2daafd	-0.16959758
137	0x3d8577c2	0.065169826
138	0x3e66f95d	0.22556062
139	0x3e11a357	0.14222465
140	0x3e1443d3	0.14478998
141	0xbd860326	-0.06543569
142	0xbe21fea3	-0.15819792
143	0xbd26ab85	-0.040690918
144	0xbeb6f791	-0.35735753
145	0x3cfdeb4d	0.03099599
146	0x3c7d37ea	0.0154552255
147	0xbb24c4b1	-0.0025141651
148	0x3e065195	0.13117059
149	0xbdc1fb21	-0.09471727
150	0x3d6c5b6f	0.057704385
151	0xbe5bd638	-0.21468437
152	0xbe69c406	-0.22828683
153	0xbe592d2f	-0.21208642
154	0xbe823f36	-0.2543885
155	0xbdbdd810	-0.09269726
156	0xbe54d28f	-0.20783447
157	0xbebf5c81	-0.37375262
158	0xbe479228	-0.19489348
159	0x3e2dd8d0	0.16977239
160	0xbe91abf6	-0.28451508
161	0xbee841ea	-0.45362788
162	0xbe05772d	-0.13033743
163	0xbed7fc70	-0.42184782
164	0xbbbaf188	-0.0057050623
165	0xbe686fe0	-0.22698927
166	0xbeb588cc	-0.3545593
167	0xbe82a83c	-0.25518978
168	0xbe67e372	-0.22645357
169	0xbe900d7f	-0.28135297
170	0xbd6e8c01	-0.058238987
171	0xbe8cc7d4	-0.27496207
172	0xbf1b9490	-0.60773563
173	0x3de607ff	0.11231994
174	0xbcb2508d	-0.021766925
175	0xbdb54192	-0.08850397
176	0x3d9d48a0	0.07679868
177	0xbe5525ff	-0.20815276
178	0xbe92200a	-0.2854007
179	0x3e86d2a1	0.26332572
180	0xbe63a2e4	-0.22230107
181	0xbea13bc3	-0.31490907
182	0x3df24201	0.118289955
183	0xbe8537fc	-0.26019275
184	0xbf1c3a5a	-0.6102654
185	0x3d42b154	0.047532395
186	0xbedfec70	-0.43735075
187	0xbe9599be	-0.29218858
188	0xbec10bd2	-0.3770433
189	0xbeb98416	-0.36233586
190	0xbe6e4e40	-0.23272038
191	0x3c94ab6d	0.018148148
192	0xbdd27984	-0.102770835
193	0xbe704c21	-0.23466541
194	0xbf0bb2f7	-0.54569954
195	0xbd895bcc	-0.06706962
196	0xbe7c1535	-0.24617465
197	0x3e5513ac	0.20808285
198	0xbeca80d8	-0.39551425
199	0x3dd1c7e0	0.10243201
200	0xbe7346f7	-0.2375754
201	0xbeb6ae3b	-0.35679802
202	0xbeb5d3b0	-0.35513067
203	0xbea44587	-0.32084295
204	0xbe64d8c3	-0.22348313
205	0xbca89594	-0.020579137
206	0xbf186f40	-0.59544754
207	0xbe908f05	-0.28234115
208	0x3eaad3e9	0.333648
209	0xbd9edf64	-0.07757452
210	0xbef176c9	-0.47160938
211	0xbedae037	-0.42749187
212	0xbd49e050	-0.049286187
213	0xbe04aa5c	-0.12955612
214	0xba1a458b	-0.00058849965
215	0xbeb8fc96	-0.36130208
216	0xbf004a06	-0.5011295
217	0x3db4284c	0.087967485
218	0xbe6c154d	-0.23055
219	0xbeb80529	-0.35941437
220	0xbbe8959f	-0.0070979143
221	0xbd437801	-0.047721867
222	0xbee02d49	-0.4378455
223	0xbe039a9f	-0.12851952
224	0xbede1261	-0.43373397
225	0xbeb88fd0	-0.3604722
226	0xbea68ee2	-0.32530886
227	0xbe55db97	-0.20884548
228	0x3d0278b7	0.031853404
229	0xbe89a366	-0.26882476
230	0x3dddf33b	0.10837408
231	0xbdfc650d	-0.123239614
232	0xbe84bdb2	-0.25925976
233	0xbe08d23a	-0.13361445
234	0xbe9459da	-0.289748
235	0xbf1031b5	-0.56325847
236	0xbeadc1be	-0.33936876
237	0xbdc2b28e	-0.09506713
238	0x3cbcd18e	0.023049142
239	0x3e4afedc	0.19823784
240	0xbd9c0112	-0.07617392
241	0xbde0e0e0	-0.109803915
242	0xbed9df2c	-0.4255308
243	0x3df77717	0.120832615
244	0x3d0318b2	0.032005973
245	0xbd612c42	-0.05497385
246	0x3e2dd2bc	0.1697492
247	0xbe51af5c	-0.2047705
248	0xbe9aae88	-0.30211282
249	0xbed9a1e0	-0.42506313
250	0x3e3f9053	0.18707399
251	0xbdad0b33	-0.08449402
252	0x3e446f3b	0.19183056
253	0xbe980d67	-0.29697725
254	0xbd02173e	-0.031760447
255	0xbe848f24	-0.25890458

FC2.weight f4 [256, 512]
0	0xbdcd7424	-0.10031918
1	0x3e3d2f2e	0.18475029
2	0xbbed525f	-0.0072424854
3	0xbf399e2f	-0.72506994
4	0xbe0848c5	-0.1330901
5	0x3d095425	0.033527512
6	0xbdbfdc6c	-0.09368214
7	0x3c47c891	0.012193815
8	0xbd952804	-0.07283023
9	0xbf025bac	-0.5092113
10	0x3da68df9	0.08132548
11	0x3dfaad45	0.1224008
12	0x3cc68f69	0.024238305
13	0xba054a27	-0.0005084597
14	0x3e7fd131	0.24982144
15	0xbe2a13c8	-0.16609108
16	0xbdeb86bf	-0.1150031
17	0xbdd0d8aa	-0.101975754
18	0xbe8081f2	-0.2509914
19	0x3f03b3ea	0.514464
20	0xbe7d394a	-0.24728885
21	0xbe64f224	-0.22357994
22	0xbe843db4	-0.25828326
23	0x3e09a7e4	0.13442951
24	0x3de25085	0.11050514
25	0x3e2160d7	0.15759598
26	0xbe1cd533	-0.15315704
27	0x3eb87101	0.36023715
28	0xbdbbf87f	-0.09178256
29	0xbd6532c2	-0.05595661
30	0xbe55e792	-0.20889118
31	0xbd7b79a4	-0.061395302
32	0xbedf3141	-0.43592265
33	0x3d28162e	0.041036777
34	0xbc9846f8	-0.018588528
35	0xbeb0d926	-0.3454067
36	0xbf92e686	-1.14766
37	0xbdce0457	-0.100594215
38	0xbefae1bf	-0.49000356
39	0x3ec66e11	0.3875585
40	0x3e788507	0.24269496
41	0xbd4b1a27	-0.049585488
42	0x3d01c528	0.031682163
43	0x3e15c7a6	0.14626941
44	0x3eaec5e8	0.34135365
45	0xbf160aa5	-0.5860999
46	0xbed79be1	-0.42111114
47	0xbf129d28	-0.5727105
48	0xbe6594e8	-0.22420084
49	0x3c84288e	0.01613262
50	0x3ec25977	0.3795888
51	0xbebdec2f	-0.37094256
52	0x3dcabfbc	0.09899852
53	0xbefba0cd	-0.4914612
54	0x3da8f8c5	0.08250574
55	0xbec2830a	-0.379906
56	0xbe62e6b2	-0.22158316
57	0xbe6d1114	-0.23151046
58	0xbe26123e	-0.16217896
59	0xbe43955e	-0.19099948
60	0x3e528bb1	0.205611
61	0x3e854c90	0.26034975
62	0xbf1df931	-0.6170836
63	0x3e8b419e	0.271985
64	0xbe5ad793	-0.21371298
65	0x3e4735d5	0.19454129
66	0x3d423b36	0.04741975
67	0x3e1c9604	0.15291601
68	0xbe068ec1	-0.13140394
69	0xbdd03fd7	-0.101684265
70	0xbe3ddb30	-0.18540645
71	0x3e18e51c	0.14931148
72	0xbe2a4053	-0.166261
73	0x3ce2a880	0.027668238
74	0xbe870a00	-0.26374817
75	0xbead653d	-0.338663
76	0x3ea272f5	0.3172833
77	0xbed6658c	-0.4187435
78	0x3ebc66c7	0.36797163
79	0xbe2645de	-0.1623759
80	0x3dd698aa	0.10478337
81	0xbe96425e	-0.2934751
82	0xbeaa434d	-0.3325447
83	0x3e4e9f5e	0.20177981
84	0x3de3e7ad	0.11128173
85	0x3e0e87b9	0.13918962
86	0xbf0184b6	-0.50593126
87	0x3e94d12e	0.2906584
88	0x3e118cb0	0.14213824
89	0x3e6f1182	0.23346522
90	0xbdb9e090	-0.09076035
91	0xbdb5ba22	-0.08873393
92	0xbe32ccd0	-0.17460942
93	0xbef8eb5c	-0.48617065
94	0x3bbd3986	0.0057746796
95	0xbe5257e2	-0.20541337
96	0x3c3a01b6	0.011352947
97	0xbe255376	-0.16145119
98	0xbecb31ce	-0.39686435
99	0x3f00bac9	0.5028501
100	0xbe5c0f5d	-0.21490236
101	0xbd5f1549	-0.05446366
102	0x3e889116	0.26673192
103	0x3c82092d	0.015873516
104	0xbe9c4457	-0.3052089
105	0x3d9ed19d	0.07754824
106	0xbee8cb61	-0.45467666
107	0x3e4e3f36	0.201413
108	0x3e8ab776	0.27093095
109	0xbdc6ed0c	-0.09713182
110	0x3e9533d4	0.29141104
111	0x3e35e0eb	0.1776158
112	0x3e13e863	0.14444117
113	0x3e318b5a	0.17338315
114	0x3eb86ac1	0.36018947
115	0xbecb0adf	-0.3965673
116	0xbeffbaa1	-0.49947074
117	0x3e6bb1d2	0.23017052
118	0x3e17ae44	0.14812571
119	0xbdc29d98	-0.09502715
120	0x3eb093c2	0.3448773
121	0xbe38e1d3	-0.18054895
122	0x3f26259f	0.64901155
123	0xbdb5b45a	-0.0887229
124	0xbe5bfd25	-0.21483286
125	0xbef02c67	-0.46908876
126	0x3e2d0c29	0.1689917
127	0xbd891a71	-0.066944964
128	0xbf213b40	-0.62981033
129	0xbd34041e	-0.04394924
130	0xbe75b60b	-0.23995225
131	0x3e7c1e30	0.2462089
132	0xbdb7639d	-0.089545466
133	0xbcf5104d	-0.029915
134	0xbdc32976	-0.095293924
135	0xbe21705f	-0.15765522
136	0x3e449358	0.19196832
137	0x3d2747fa	0.040840127
138	0xbee81f93	-0.4533659
139	0xbf01c404	-0.5068972
140	0x3dce7944	0.10081723
141	0x3c8f7684	0.017512567
142	0xbe813f3b	-0.25243554
143	0x3e3c33f1	0.18379189
144	0xbd2035c7	-0.039113786
145	0x3d39b960	0.045342803
146	0x3ee52fe5	0.44763103
147	0xbe2df9c7	-0.16989814
148	0xbead31e4	-0.33827126
149	0xbd90ca82	-0.07069875
150	0x3ddd79c7	0.10814243
151	0xbcadcb58	-0.021215126
152	0x3e388a6b	0.18021552
153	0xbd9fb5a6	-0.077983186
154	0xbe8cb824	-0.27484238
155	0xbe9ed98d	-0.31025353
156	0xbe84e6d9	-0.25957373
157	0x3e5411af	0.20709871
158	0xbe935202	-0.28773504
159	0x3e92cba5	0.28670993
160	0xbefc2fbf	-0.49255177
161	0xbe9f1bfd	-0.3107604
162	0xbdc4d8fb	-0.09611698
163	0xbed0b2e7	-0.40761492
164	0x3da4fd29	0.08056099
165	0xbef106a5	-0.47075382
166	0xbe0da1ab	-0.13831203
167	0xbe4c9013	-0.19976835
168	0xbed684dc	-0.4189824
169	0x3ee336a9	0.4437764
170	0x3f01f611	0.5076609
171	0xbeaf36fa	-0.3422163
172	0x3db92187	0.09039598
173	0xbe2459c4	-0.16049868
174	0x3d56d362	0.052447684
175	0xbc8e1be7	-0.01734729
176	0xbe59dec3	-0.21276383
177	0xbd2fcdeb	-0.042920988
178	0x3bb91a4f	0.005648888
179	0xbe03542f	-0.12825082
180	0xbe03f1e0	-0.12885237
181	0xbe94554b	-0.28971323
182	0xbdb6878b	-0.089125715
183	0xbe10d6ce	-0.14144441
184	0xbe215031	-0.15753247
185	0x3ed6cb9b	0.41952214
186	0x3e9c595c	0.30536926
187	0xbd9c8f10	-0.076444745
188	0xbeaacfdd	-0.33361712
189	0x3eb1874f	0.34673545
190	0xbe98dd84	-0.29856503
191	0x3e6927a1	0.22769023
192	0xbdf1e73f	-0.11811685
193	0x3e00b4dd	0.12568994
194	0x3ed5a462	0.41726977
195	0xbe1f533f	-0.155591
196	0x3e90f367	0.283107
197	0x3d4b27df	0.04959857
198	0xbdedc2b0	-0.11609399
199	0xbe9c9468	-0.30581975
200	0xbd0abdd6	-0.033872448
201	0xbef2d699	-0.4742935
202	0xbea39331	-0.31948236
203	0xbebe1bc0	-0.37130547
204	0xbe4801d1	-0.19531943
205	0xbcd4ac78	-0.025961146
206	0xbeec169d	-0.46111003
207	0xbd8bfb2b	-0.06835016
208	0xbea9b9be	-0.33149523
209	0xbe84cad3	-0.25935993
210	0xbe56bcc4	-0.20970446
211	0x3dde2eb9	0.108487554
212	0x3da95c32	0.08269538
213	0xbdd845c5	-0.105601825
214	0xbe45dd08	-0.19322598
215	0x3f3cb194	0.7370846
216	0xbece1d19	-0.40256575
217	0xbd851c64	-0.06499556
218	0xbf0a25fe	-0.5396422
219	0xbc8bb072	-0.01705191
220	0xbecb8a4b	-0.39753947
221	0xbe919585	-0.28434387
222	0xbd3d608d	-0.046234656
223	0x3e4cfa96	0.20017466
224	0x3e434ac1	0.19071485
225	0xbdb0deda	-0.086362556
226	0xbecb69c8	-0.39729142
227	0x3f0aca4c	0.5421493
228	0xbeec59f8	-0.4616239
229	0xbdf36a7f	-0.11885547
230	0x3e25ac30	0.16178966
231	0x3ef42e43	0.47691545
232	0xbf0002b6	-0.50004137
233	0xbd97525f	-0.07388758
234	0xbd864351	-0.06555808
235	0xbe11ae71	-0.142267
236	0xbdfb6275	-0.122746386
237	0x3e598c15	0.21244843
238	0x3dec435f	0.115362875
239	0x3d5d39b1	0.054010097
240	0xbecd33a1	-0.40078452
241	0x3dd69988	0.104785025
242	0xbd88a90d	-0.06672869
243	0x3f01a11c	0.5063646
244	0xbddd7393	-0.1081306
245	0xbe927462	-0.28604418
246	0xbde9abed	-0.11409745
247	0x3d5e11b3	0.054216098
248	0x3e14f837	0.14547811
249	0x3c86dc1c	0.016462378
250	0xbd089894	-0.033348635
251	0xbc3c43ba	-0.011490757
252	0x3dfa6aed	0.12227426
253	0x3eb607c3	0.35552797
254	0xbe947fd4	-0.29003775
255	0x3dc0f832	0.094223395

FC2.bias f4 [256]
0	0xbe0d7f98	-0.13818204
1	0xbe0a5126	-0.13507518
2	0xbe1d82d4	-0.15381938
3	0x3cb55d09	0.02213909
4	0xbe855633	-0.26042327
5	0xbd99d615	-0.07511536
6	0xbeb1f82b	-0.3475965
7	0xbe1bc424	-0.1521154
8	0xbdc99f32	-0.09844817
9	0xbe2c6a93	-0.1683753
10	0xbd9724d5	-0.07380072
11	0x3d5d07d2	0.053962536
12	0xbe749884	-0.23886305
13	0xbe92d322	-0.28676707
14	0xbea2f3d6	-0.31826657
15	0xbe5065ed	-0.20351382
16	0xbe867f4f	-0.26269004
17	0xbe58d29d	-0.21174093
18	0xbd08f601	-0.033437733
19	0x3db9e28b	0.09076413
20	0xbcab8535	-0.020937541
21	0xbe3e8bdc	-0.1860804
22	0xbc26e725	-0.010186945
23	0xbecac613	-0.39604244
24	0x3d7f3488	0.062305957
25	0xbc514d05	-0.012774711
26	0xbe2649de	-0.16239116
27	0xbdee08bc	-0.1162276
28	0xbe447c56	-0.19188055
29	0xbdde8ad8	-0.10866326
30	0xbd07c04f	-0.033142384
31	0xbe0fac06	-0.14030465
32	0xbdaa77b2	-0.08323611
33	0xbe45a1e1	-0.19300033
34	0xbdad8acd	-0.0847374
35	0x3d29f779	0.041495774
36	0xbe6c19d7	-0.23056732
37	0xbe1a392c	-0.15060872
38	0xbd7e3a65	-0.062067408
39	0xbe264100	-0.16235733
40	0xbeaac8ff	-0.33356473
41	0xbe34aa75	-0.17643149
42	0xbe74bc09	-0.23899855
43	0xbe347078	-0.17621028
44	0xbe4ed7dc	-0.20199531
45	0xbe325444	-0.17414957
46	0x3cee5239	0.029091941
47	0xbeab5b42	-0.33468062
48	0xbe866a21	-0.26252845
49	0xbe28d81a	-0.16488686
50	0x3d88508d	0.06655989
51	0xbd9acf26	-0.07559042
52	0xbe6b963a	-0.23006526
53	0x3d40baf4	0.047053292
54	0xbe9111ec	-0.28333986
55	0xbd24afae	-0.040206604
56	0xbd4497e7	-0.047996428
57	0xbe15127c	-0.14557832
58	0xbef47725	-0.4774715
59	0xbe260066	-0.1621109
60	0xbe866626	-0.26249808
61	0xbe12975e	-0.14315554
62	0xbc4cb390	-0.012493983
63	0xbde266ca	-0.11054762
64	0xbe7f027b	-0.2490329
65	0xbe237b83	-0.15965085
66	0xbd18e54f	-0.03732806
67	0x3b262841	0.0025353583
68	0xbe459080	-0.19293404
69	0xbd083152	-0.03325016
70	0xbe4f3ad0	-0.20237279
71	0xbe31dc9d	-0.17369314
72	0xbe5ebd51	-0.21751906
73	0xbdd24292	-0.102666035
74	0xbe0e332c	-0.13886708
75	0xbe32e840	-0.17471409
76	0xbe92387c	-0.2855872
77	0xbe160ff3	-0.14654522
78	0xbda7b478	-0.081887186
79	0xbd883398	-0.06650466
80	0x3dcc81ac	0.099856704
81	0xbee17895	-0.4403731
82	0xbeb5815e	-0.35450262
83	0xbe9fd3e9	-0.31216362
84	0xbd214291	-0.039370123
85	0xbd51529b	-0.05110417
86	0x3de3325a	0.11093588
87	0xbe9fbd53	-0.3119913
88	0xbe033c27	-0.12815915
89	0x3c01fb44	0.007933442
90	0xbdceb226	-0.10092573
91	0x3b962396	0.004581879
92	0xbe3f7ea4	-0.18700653
93	0xbeaf6772	-0.3425861
94	0xbe601cb5	-0.21885951
95	0x3bee3a9a	0.0072701694
96	0xbea44401	-0.32083133
97	0xbea9dcca	-0.3317626
98	0xbe7c7444	-0.24653727
99	0xbe2b3712	-0.16720226
100	0xbdbe57f6	-0.09294121
101	0xbe19f9e3	-0.1503673
102	0xbda5eb89	-0.081015654
103	0xbdd0db0d	-0.101980306
104	0x3cc59ff7	0.024124129
105	0x3d88f729	0.06687767
106	0xbedb8a4b	-0.42878947
107	0xbd29003e	-0.041259997
108	0xbc778834	-0.015108157
109	0xbd19e920	-0.03757584
110	0xbe43f05e	-0.19134662
111	0xbd2ed2f8	-0.042681664
112	0xbeb35d4c	-0.35032117
113	0xbe045534	-0.12923127
114	0xbe94164f	-0.2892327
115	0xbe918ef5	-0.2842938
116	0xbe4c8337	-0.1997193
117	0xbd58701f	-0.052841302
118	0xbe149bea	-0.14512601
119	0x3d840ca2	0.06447722
120	0xbc9e3a98	-0.019315049
121	0xbdb2a7d0	-0.08723414
122	0xbd3b92cc	-0.045794293
123	0xbe3d1f6c	-0.18469018
124	0x3da8edbf	0.082484715
125	0xbe33446f	-0.17506574
126	0x3b36f602	0.0027917628
127	0xbd865930	-0.0655998
128	0x3d97e1ec	0.07416138
129	0xbec4c688	-0.38432717
130	0xbe8d4ad7	-0.2759616
131	0xbe8b001e	-0.27148527
132	0xbdf17c0e	-0.1179124
133	0xbcbe2da1	-0.023215117
134	0xbe08eea2	-0.13372281
135	0xbe1db3bf	-0.15400599
136	0xbe0856b8	-0.1331433
137	0x3ca637dd	0.02029031
138	0xbe5f2bac	-0.21794003
139	0xbdad938c	-0.08475408
140	0xbe79fce3	-0.24412875
141	0xbe3047be	-0.17214867
142	0xbe14d504	-0.14534384
143	0xbd829a2e	-0.06377064
144	0xbd9a0d1f	-0.07522034
145	0xbe4590ed	-0.19293566
146	0xbd544c26	-0.051830433
147	0xbdf3ec09	-0.119102545
148	0xbdcdd857	-0.10051029
149	0xbbfe2f1a	-0.00775708
150	0xbe41ad29	-0.18913712
151	0xbc38a3b3	-0.011269498
152	0xbe65cb3a	-0.22440806
153	0x3dd656bc	0.10465762
154	0xbec107a1	-0.37701133
155	0xbecee99f	-0.40412614
156	0x3d89bf36	0.06725924
157	0xbe8687e8	-0.26275563
158	0x3e13311b	0.14374201
159	0xbcddf6e7	-0.027095271
160	0xbd18cd4e	-0.03730517
161	0xbe8db6b2	-0.27678448
162	0xbe0a47a6	-0.13503894
163	0xbdb0a25a	-0.08624716
164	0x3bd667c5	0.006543132
165	0x3c394992	0.011309044
166	0xbe9cb6e9	-0.306083
167	0xbe97b41d	-0.29629603
168	0xbb05b8c2	-0.0020404314
169	0xbdc6102a	-0.09671052
170	0xbe454d96	-0.19267878
171	0xbec59699	-0.3859146
172	0xbe97e246	-0.2966482
173	0xbea13e95	-0.3149306
174	0xbe83cc31	-0.25741723
175	0xbdc18d38	-0.094507635
176	0xbe4e51e3	-0.20148425
177	0xbe096657	-0.13417946
178	0x3d830855	0.063980736
179	0xbea7ced3	-0.32774982
180	0xbeb53849	-0.35394505
181	0xbe7a5532	-0.24446562
182	0xbe1af470	-0.15132308
183	0xbe3f973b	-0.18710034
184	0xbe677d5a	-0.22606412
185	0xbdbcf90b	-0.09227189
186	0xbf1a3265	-0.60233146
187	0xbe493668	-0.1964966
188	0xbde72d54	-0.112879425
189	0xbdcaee09	-0.09908683
190	0xbeae0f9b	-0.3399628
191	0xbe7b5111	-0.24542643
192	0x3d6ae6b9	0.05734894
193	0x3d6ec3fe	0.05829238
194	0xbdba606a	-0.09100421
195	0xbe674cb9	-0.22587861
196	0xbea3bb03	-0.31978616
197	0xbeae58e2	-0.34052187
198	0xbdf9f624	-0.12205151
199	0xbe5d1070	-0.21588302
200	0xbe3b0b43	-0.18266015
201	0xbe60525b	-0.21906416
202	0xbcb89bb5	-0.022535184
203	0xbb30cec6	-0.0026978715
204	0xbe62754d	-0.22115059
205	0x3e46395f	0.19357823
206	0xbe71e867	-0.2362381
207	0xbc879a16	-0.016552966
208	0xbe4ed356	-0.20197806
209	0xbe50f04b	-0.20404164
210	0xbe607019	-0.21917762
211	0xbd875220	-0.06607461
212	0x3dc54367	0.096319966
213	0x3c9e8ce8	0.019354299
214	0xbd92467d	-0.07142351
215	0x3d46869b	0.048468214
216	0xbe4783cd	-0.19483872
217	0xbe3995ba	-0.18123522
218	0xbe11516e	-0.14191219
219	0xbe4605aa	-0.19338098
220	0xbe29550b	-0.16536348
221	0xbddd0770	-0.10792434
222	0x3cdd71e5	0.027031848
223	0xbd9fdfc8	-0.07806355
224	0xbe5800d8	-0.21094072
225	0x3bc2e01f	0.0059471275
226	0xbd346ad7	-0.044047203
227	0xbe672828	-0.22573912
228	0xbe4cb9ae	-0.19992706
229	0xbe9e51da	-0.30921823
230	0xbe7bbb7f	-0.24583243
231	0xbe669362	-0.2251716
232	0xbd352bf7	-0.04423138
233	0xbcc71938	-0.024304017
234	0x3cf228ca	0.029560465
235	0xbedabdce	-0.42722934
236	0xbe86710d	-0.26258126
237	0xbe240938	-0.16019142
238	0xbd77018e	-0.060304217
239	0xbdf65b96	-0.120291874
240	0xbe6808e2	-0.22659639
241	0xbe361666	-0.17781982
242	0xbe8f1405	-0.2794496
243	0xbddb0551	-0.106943734
244	0xbe93ecd1	-0.28891614
245	0xbe138c55	-0.14409001
246	0xbd950262	-0.07275845
247	0xbec526ea	-0.38506252
248	0xbd8cebab	-0.068808876
249	0xbe212868	-0.1573807
250	0xbea02d0b	-0.31284365
251	0xbeb75b14	-0.35811675
252	0xbe1e65b5	-0.15468486
253	0xbdc38233	-0.09546318
254	0xbdd3f2d1	-0.10349048
255	0xbecfccfd	-0.4058608

FC3.weight f4 [2, 256]
0	0x3e6b908b	0.23004358
1	0xbf012354	-0.5044453
2	0xbebc96e4	-0.3683387
3	0x3e954770	0.29156065
4	0x3f3d31ef	0.7390432
5	0xbf083026	-0.5319847
6	0x3d6dde9d	0.05807363
7	0x3dfa2256	0.1221358
8	0x3e74175f	0.2383704
9	0xbf3bfe99	-0.7343536
10	0xbeb2a1c1	-0.34889033
11	0xbe932345	-0.28737846
12	0xbdd57ba5	-0.10423974
13	0x3e96510f	0.29358718
14	0x3f115752	0.56773865
15	0x3e46b600	0.19405365
16	0x3e51b787	0.20480166
17	0xbf4bcd09	-0.79609734
18	0xbdeab7e7	-0.11460858
19	0xbda89b81	-0.08232785
20	0xbeeaa174	-0.45826304
21	0x3e2c3484	0.16816908
22	0x3e96fb8f	0.294888
23	0x3f26a6f9	0.6509853
24	0xbe098665	-0.13430174
25	0x3f2fab9e	0.6862124
26	0x3edd594b	0.43232188
27	0xbdd99d11	-0.10625661
28	0x3f8e58d8	1.1120863
29	0xbef93ed9	-0.4868076
30	0xbdad6fee	-0.084686145
31	0x3ee3737d	0.44424048
32	0xbf780027	-0.9687523
33	0xbf13408e	-0.5752038
34	0xbd1d7796	-0.038444124
35	0xbe3ca7eb	-0.1842343
36	0xbe895fa8	-0.26830792
37	0xbe890644	-0.26762593
38	0x3d4e6982	0.05039359
39	0xbdd2d031	-0.102936156
40	0xbee5d520	-0.44889164
41	0x3e661bbd	0.22471519
42	0x3f16ba4c	0.58878016
43	0x3f613c56	0.8798269
44	0xbf2d7aec	-0.6776569
45	0x3eed5b0e	0.46358532
46	0x3d900807	0.07032781
47	0x3f27e445	0.65582687
48	0xbf102592	-0.5630733
49	0xbe357107	-0.17718898
50	0xbd50a441	-0.050937895
51	0xbe638700	-0.22219467
52	0x3e560324	0.20899636
53	0xbf57577e	-0.8411788
54	0xbf1ee2a1	-0.6206456
55	0x3d383e57	0.044981327
56	0x3f55e361	0.8355008
57	0x3f009fe0	0.5024395
58	0x3f55dcf9	0.835403
59	0xbeeb002d	-0.45898572
60	0x3ee852db	0.45375714
61	0xbde5985a	-0.112106994
62	0x3e92aeab	0.28648886
63	0x3f374f8b	0.7160575
64	0xbe685f21	-0.22692539
65	0xbcb7451d	-0.022371823
66	0xbe8287ad	-0.25494137
67	0xbb89247b	-0.004185257
68	0x3e1d73bd	0.15376182
69	0xbe2b0fad	-0.16705199
70	0xbd120d85	-0.035657424
71	0xbd51a733	-0.051184844
72	0xbe97468e	-0.29546016
73	0x3e2e78b5	0.17038234
74	0xbe487dac	-0.1957919
75	0xbda3ba48	-0.07994515
76	0x3eaaceda	0.3336094
77	0xbf6a5aad	-0.9154461
78	0xbe50b570	-0.20381713
79	0x3f1a1c06	0.6019901
80	0xbb1f9eda	-0.0024356158
81	0xbee5b029	-0.44860962
82	0x3d96d242	0.07364322
83	0x3ea42585	0.32059875
84	0xbe0c2f56	-0.13689932
85	0xbf17da96	-0.5931791
86	0xbdd67cb2	-0.104730025
87	0xbedbea8f	-0.42952392
88	0xbf64c0ac	-0.89356494
89	0x3e7592e6	0.23981819
90	0x3fc3e23c	1.5303416
91	0x3e1115bf	0.14168452
92	0x3eddcc15	0.43319765
93	0x3eebeb60	0.46078014
94	0x3d113b4f	0.03545695
95	0x3f0a88ee	0.5411519
96	0xbe5c1f86	-0.214964
97	0x3e7ed6e6	0.24886665
98	0x3e5f45bd	0.21803947
99	0x3abeb277	0.0014549036
100	0xbf023b33	-0.5087158
101	0x3ee9401d	0.45556727
102	0x3c22a19b	0.009926225
103	0xbea98b41	-0.33114055
104	0xbf14373d	-0.57896787
105	0xbc647263	-0.013943288
106	0x3f13db48	0.5775647
107	0xbe903483	-0.28165063
108	0xbe2929ee	-0.16519901
109	0xbe3d6ada	-0.18497792
110	0x3dd5dedc	0.10442898
111	0xbd780c1c	-0.060558423
112	0xbe650d07	-0.22368251
113	0xbfa2e7c4	-1.2726979
114	0xbe81af21	-0.25328925
115	0x3e321d28	0.17393935
116	0x3db84163	0.089968465
117	0xbe24ebe9	-0.16105618
118	0xbf553752	-0.8328754
119	0xbf31ee45	-0.69504195
120	0x3ef49bf2	0.47775227
121	0xbd548e00	-0.051893234
122	0xbf67a549	-0.9048658
123	0x3e313b93	0.17307882
124	0x3ead0b1c	0.33797538
125	0x3e553d30	0.20824122
126	0x3ecb7808	0.39740014
127	0xbe5ca825	-0.21548517
128	0x3dd39feb	0.10333236
129	0xbf8afb79	-1.0857993
130	0x3ea401ed	0.3203272
131	0x3f135f0f	0.5756692
132	0xbed6ad99	-0.4192932
133	0x3e6c69d6	0.23087248
134	0x3dfa6a9b	0.12227365
135	0xbe9b38ad	-0.30316678
136	0x3e200436	0.15626606
137	0x3e2375c4	0.15962893
138	0x3c99393d	0.018704051
139	0xbe920072	-0.28515965
140	0xbdb7663f	-0.08955049
141	0xbf3743e3	-0.7158796
142	0x3de8a585	0.11359695
143	0xbee86180	-0.45386887
144	0x3f34867d	0.7051771
145	0xbf2ba3f0	-0.67047024
146	0xbd796a1e	-0.060892217
147	0xbf6ba809	-0.92053276
148	0x3f9414d6	1.1568859
149	0xbed039ae	-0.40669006
150	0x3ceece6e	0.029151168
151	0xbe607dc9	-0.21922983
152	0x3de8d2fb	0.11368366
153	0xbf64adb1	-0.8932753
154	0x3dbb76c3	0.091535114
155	0x3d825732	0.063642874
156	0x3e2dd632	0.1697624
157	0xbf55f184	-0.8357165
158	0xbd8582f7	-0.0651912
159	0xbd2587f9	-0.040412877
160	0x3d56dcf8	0.052456826
161	0x3df27df8	0.11840433
162	0x3f14436d	0.57915384
163	0x3eb03d65	0.3442184
164	0xbf3bc680	-0.7334976
165	0xbe9996fd	-0.29998007
166	0x3db5c87e	0.088761315
167	0x3e16fcbd	0.1474485
168	0xbe89603a	-0.26831228
169	0xbe8f1881	-0.27948382
170	0x3f29e457	0.66364044
171	0x3e8cc374	0.2749287
172	0xbd4ae83a	-0.049537875
173	0x3ee1552c	0.44010293
174	0x3fdeab32	1.7395995
175	0x3e7a7a7f	0.24460791
176	0xbf268a77	-0.6505503
177	0x3ed06551	0.40702298
178	0xbd1c808a	-0.038208522
179	0x3df915e4	0.121623784
180	0xbee3cff7	-0.44494602
181	0xbeefe6a9	-0.46855667
182	0xbe137fe9	-0.14404263
183	0xbceae260	-0.028672397
184	0xbe24d8cd	-0.16098328
185	0x3e870906	0.26374072
186	0xbf633f0e	-0.8876809
187	0x3eb07aa0	0.34468555
188	0x3e8cbe56	0.27488965
189	0xbe3889d8	-0.18021333
190	0xbf2bef3e	-0.6716193
191	0x3d87742d	0.06613956
192	0xbe37e3e4	-0.17958027
193	0xbe04898a	-0.12943092
194	0x3e3e2ed5	0.18572553
195	0xbf8450bc	-1.0337138
196	0xbd1031cf	-0.03520375
197	0xbf13d85b	-0.5775201
198	0x3d034bbb	0.032054644
199	0xbeae0d8e	-0.33994716
200	0xbea2604c	-0.31714094
201	0xbf96047a	-1.1720116
202	0xbe8783d4	-0.26467764
203	0xbdc4f796	-0.09617536
204	0x3ef9a832	0.48761135
205	0xbe32cb66	-0.17460403
206	0x3f03670e	0.51329124
207	0xbeb64fa8	-0.35607648
208	0xbe12c826	-0.14334163
209	0x3f04c8af	0.5186872
210	0x3ec8e90f	0.3924031
211	0xbe25dcd0	-0.16197515
212	0xbe7373ca	-0.23774639
213	0xbeef370b	-0.46721682
214	0xbda1db00	-0.07903099
215	0xbf15c9bb	-0.5851094
216	0xbe4f742f	-0.20259164
217	0x3e99afad	0.30016842
218	0x3d927266	0.07150726
219	0xbefa31bd	-0.48866072
220	0x3f0080a3	0.50196284
221	0xbe97cdbe	-0.29649156
222	0xbf08bfdd	-0.5341776
223	0x3d518a0d	0.051157046
224	0x3e648c99	0.22319259
225	0x3ee0ac48	0.4388144
226	0xbf562816	-0.83654916
227	0x3e9f2004	0.31079113
228	0x3f13b667	0.577002
229	0xbfb07336	-1.378516
230	0x3e3c3893	0.18380956
231	0xbf3e2b56	-0.74284875
232	0xbd8cefc0	-0.06881666
233	0xbe9449fc	-0.28962696
234	0x3daad659	0.08341665
235	0x3f3e76b1	0.7439986
236	0x3efb6eed	0.49108067
237	0x3f44b407	0.768372
238	0xbe1c7c49	-0.15281786
239	0x3e28867b	0.1645755
240	0x3cd06947	0.025440825
241	0xbbce0239	-0.006286886
242	0xbe4a6bc8	-0.19767678
243	0x3efa5445	0.48892418
244	0x3faf270e	1.3683794
245	0x3ea8985d	0.32928744
246	0x3f57a813	0.84240836
247	0x3ef4bad1	0.4779878
248	0xbf89d312	-1.0767539
249	0x3eafbd61	0.34324172
250	0x3eb780a5	0.35840335
251	0xbe03998c	-0.12851542
252	0xbe05f668	-0.13082278
253	0x3ee2d46d	0.44302693
254	0xbf081b55	-0.53166705
255	0x3f450042	0.7695352

FC3.bias f4 [2]
0	0xbdf13793	-0.11778178
1	0x3d16ab5d	0.03678452
