results/run003/actor_0_net.pt (torch_old, 580506 bytes, 10 tensors)

BN1.weight f4 [24]
00000000: 9749 0e3f e8d5 d33e b086 fc3e c8b8 983e
00000010: da26 a73f 0885 8a3f 29a2 263e d362 003f
00000020: 1cfd 843e 4266 583e c6d1 df3e ed47 833e
00000030: 074b 0c3f 56a3 8a3e 368f 3d3e 683b d73e
00000040: 372d 243f f986 183f 121a a03e b2f3 343f
00000050: b483 693f 265b 9b3f b5b5 ad3e fc12 853e
0.5558104 0.41374135 0.49321508 0.29828477 1.3058732 1.0821848 0.16272797 0.50150794
0.25974357 0.21132758 0.43714732 0.25640813 0.5480198 0.2707774 0.18511662 0.4203751
0.6413149 0.5958095 0.3126989 0.7068435 0.9121659 1.2137191 0.33927694 0.25991046

BN1.bias f4 [24]
00000000: 13ab b4bd c99b 8abe 1b34 b23d 62d1 77be
00000010: f7a3 3f3e 6d4c 1a3d 009e 25be 5c41 84bd
00000020: 20e4 1e3e a699 28be 7394 f8bc 125a cabe
00000030: 66ea 493e f11c e43d 619d 8e3e 00a4 a0bd
00000040: dcb0 8d3e 5372 a4bd 7157 a53d 6077 1cbe
00000050: efff 443e a597 893e e5f9 5ebd 48ed c3bb
-0.08821692 -0.2707198 0.087013446 -0.24200967 0.18714891 0.03767054 -0.16173553 -0.06457779
0.1551671 -0.16464862 -0.030344224 -0.39521843 0.19718322 0.11138333 0.27854446 -0.078437805
0.27673995 -0.08029618 0.08073319 -0.15279913 0.19238256 0.26873508 -0.054437537 -0.005979214

BN1.running_mean f4 [24]
00000000: 90fa 0fc1 7c45 33bf 1c03 2d3f c29a d7bd
00000010: 6484 293f f75b 7540 1c03 2d3f c29a d7bd
00000020: eb9f 11c1 ffa0 35bf d67b 5d3f b665 02be
00000030: 45f3 293f 8758 7540 d67b 5d3f b665 02be
00000040: 680c 13c1 4f3f 37bf 79b5 7d3f 37a0 e2bd
00000050: d455 243f 21dd 7340 79b5 7d3f 37a0 e2bd
-8.9986725 -0.700279 0.6758287 -0.105275646 0.6621764 3.833738 0.6758287 -0.105275646
-9.101542 -0.70948786 0.86517084 -0.12734112 0.66386825 3.8335283 0.86517084 -0.12734112
-9.190529 -0.71580976 0.9910503 -0.11065715 0.64193463 3.8103716 0.9910503 -0.11065715

BN1.running_var f4 [24]
00000000: d39f 2541 74f2 8e3f 0973 3843 3022 6541
00000010: d6b8 eb41 5a66 2140 0973 3843 3022 6541
00000020: a10c 1741 f470 903f 6453 3a43 a9ca 6741
00000030: c5a5 f241 928e 2140 6453 3a43 a9ca 6741
00000040: 6fe8 0a41 214c 923f 5869 4143 54ad 6041
00000050: 05f8 f941 f05f 2b40 5869 4143 54ad 6041
10.35152 1.1167741 184.44936 14.320847 29.465252 2.521872 184.44936 14.320847
9.440583 1.128447 186.32574 14.486978 30.330942 2.5243268 186.32574 14.486978
8.6817465 1.1429483 193.4115 14.042316 31.246103 2.6777306 193.4115 14.042316

FC1.weight f4 [512, 24]
00000000: abee 3f3e 5ad3 da3e dd2e 12bd e4c2 253c
00000010: 6e1d 0a3d 4e29 c33e 9a64 ef3d fc6e b5bc
00000020: 8e06 bdbe 35fa 633e 2218 bebd 5f26 80bc
00000030: 4da0 d93d cc40 7f3e 7b48 5cbe 27c4 81be
00000040: d4d5 58bf 9cf9 953d e2c2 9bbe 9bc9 a3bd
00000050: 84d9 3b3e fe89 153d 194a e2bd e83b 63bd
00000060: 631e 993e a01f c3bd d104 c2be dd90 473e
00000070: e29f 3abe e53c 9cbe 30bc cc3d 6dc7 1ebe
00000080: e7e8 97bd 3507 883d acd4 c23d 272e 4e3e
00000090: 6438 5dbe a565 01be f5a7 babd 92d9 a4be
000000a0: 5c80 be3b caa5 20be 9226 8abd 723c 893e
000000b0: 431c fabe 2537 423d e30f 343e 8701 6e3e
000000c0: b07b d7bd 2509 c23e ceaf 4cbd ebdd 923d
000000d0: 5a1b 053d d034 01be fa0c f53d b849 03be
000000e0: bb56 01bf 7dc6 493e e299 91be 5ed8 823e
000000f0: 5cd9 1bbc e731 91be 7453 7dbe 1e55 953e
00000100: c03b e5be ae39 933e dfef 2abe 5ce8 433e
00000110: f343 803d 546c d4be f942 91bd ce94 2a3e
00000120: b128 5d3d fba5 bfbc ba77 dcbd 53f8 233e
00000130: 3ed1 48be c498 82bd afce a83d 284f 21bd
00000140: 40c1 6cbe a935 e33d 1d54 4ebe 0b48 e23d
00000150: dac6 a23d bc66 013e a395 b7be 3517 9dbd
00000160: d1cd 19bf fcc2 2abd 03ee dbbe 0f18 453e
00000170: 39d5 fb3d 87f7 f83e 02dc 96be 4756 bf3d
00000180: 68d5 763d 06ed 423e c382 b03c 70c1 1f3c
00000190: d40d 293d 0503 b23d 01f4 b13d c8e3 a2be
000001a0: 06b3 9cbe 14a2 96bd a48c c4be 9b54 84be
000001b0: 249e 123e c6c7 ec3d b0a8 09bf aa4b fdbe
000001c0: 1fbc a4bd b03d 97be 9616 74bd 0eb9 0b3e
000001d0: 0b81 a83e c270 2bbe f343 abbd 6e23 e83d
000001e0: 7752 ad3e 9852 9cbe 0eb8 96bd 99e9 583e
000001f0: 775c 913e 8c85 b33e 011b 7ebd 7d39 093e
00000200: 1ca6 d23e 2365 c2be 7fde 13be 5bbc b9bd
00000210: da9a 51be 7c18 0c3f 963e 35be 7b8c 943c
00000220: 09d2 273e a114 37be 4783 c83b 7fdc 8c3e
00000230: 0186 23bf 7e64 4a3e 9322 16be 79d2 4c3e
00000240: 6289 9cbe 2f1a 48be 80de f43d e674 7a3d
00000250: 8ebc 76be 311a 1a3d ea66 5c3e 17dd 4c3d
00000260: e5ca e2be c689 e6bd 9cb8 953d ba3a 223f
00000270: 408e bdbd 1bb1 17be 55e8 fbbd 6eb0 253f
00000280: 32ef b9be 7605 38bd 1e89 783c 52fe 1b3e
00000290: 9eeb 183e 913a 9abe 95aa a9bd 722f 6abb
000002a0: a63d cc3d 2f16 31bd 7f8e 90be c9a5 0d3e
000002b0: 7934 11be e8a9 c43c da98 823d ccd9 0fbd
000002c0: d6d5 30be ba04 703d acf9 c9be 4878 2e3f
000002d0: cefa 333e f113 a6bd cabd 11bf c5d2 ab3e
000002e0: 066e 7aba 9ab5 dbbd 30a3 2c3e c0ed 51bd
000002f0: 1463 2f3f 1637 2abd 6ded 4e3e 4e39 79bd
00000300: 51a4 1f3e 555f d3bd 9e3f f1bd d3a3 b5be
00000310: 9821 ab3d 06b3 e13c 6e7e a33d d92b e2be
00000320: 6c6f 12be b42d d9bd 2010 bcbe aff5 dd3e
00000330: 770b 533e f616 12be 9034 e4be cee8 ea3d
00000340: 9c77 e93c 96ff b6bd 38a9 7e3e 0479 3a3e
00000350: b960 fc3d 9322 4dbe f2e3 cb3e 2988 3a3e
00000360: 0ad0 b9bd 05d3 b23e 8298 043e 4feb a0bd
00000370: 6282 4c3e de66 80be 5a0b ac3e 9e15 73be
00000380: 7cc0 e5be 46b9 143e 19c9 7ebe 23dd 5c3d
00000390: 4a48 073e 3240 b03d 41d8 b4be 9d66 9abe
000003a0: 960b 5bbf 9f71 3d3e e4d5 01bf 39b3 c0bd
000003b0: 41b3 58bc 5e7f 96bd afa5 b4be 97f3 31bd
000003c0: ef8c 90be 3697 f73e b6b6 15be 30a0 a9bd
000003d0: 6012 41bd b561 e93d c3aa 0dbe b305 abbb
000003e0: 1d2d 89bc bb44 ca3e 06b0 e93d 6b68 4cbe
000003f0: 837d f33e 31d8 d13d 780c 3b3e 32a4 00be
0.18743388 0.42739373 -0.035689224 0.010117266 0.033719473 0.3811745 0.1168911 -0.022147648
-0.36919063 0.22263415 -0.09281947 -0.015643297 0.10626278 0.24927062 -0.21512024 -0.25344965
-0.84701276 0.07323 -0.3042212 -0.079974376 0.18344694 0.036508553 -0.11049289 -0.055477053
0.29905996 -0.09527516 -0.378943 0.19488855 -0.18225053 -0.3051521 0.099968314 -0.15505762
-0.074174695 0.06642 0.0951322 0.20134793 -0.21603543 -0.1263643 -0.091140665 -0.32197243
0.0058136415 -0.15688244 -0.06745638 0.2680393 -0.48849687 0.04741587 0.17584185 0.2324277
-0.105216384 0.37897602 -0.049972348 0.07171234 0.032496788 -0.12617803 0.11965366 -0.1282109
-0.50522965 0.19704624 -0.28437716 0.255557 -0.009512272 -0.28358385 -0.24738866 0.29166502
-0.44772148 0.28754944 -0.16693066 0.19131607 0.0626296 -0.41488898 -0.07092852 0.16658327
0.053993884 -0.023394575 -0.107650235 0.16012697 -0.1961107 -0.06376794 0.08242547 -0.03938213
-0.23120594 0.11094219 -0.20149274 0.11048897 0.07948084 0.12636846 -0.3585635 -0.07670442
-0.60079676 -0.041689858 -0.42955026 0.19247459 0.12296528 0.48626348 -0.29464728 0.09342628
0.060262114 0.1903573 0.021546727 0.009750709 0.041272953 0.08691982 0.08689118 -0.31814408
-0.30605334 -0.07355133 -0.3838855 -0.258458 0.14318138 0.11561541 -0.5377302 -0.4947179
-0.08043694 -0.2953925 -0.059591852 0.13644812 0.32910952 -0.16742232 -0.0836257 0.11334883
0.33851978 -0.30531764 -0.073593244 0.2118286 0.28390858 0.35062826 -0.06203747 0.13400836
0.41142356 -0.37967786 -0.14440344 -0.09069129 -0.20469227 0.5472486 -0.17699656 0.018133393
0.16388716 -0.17878963 0.006119165 0.27511975 -0.6387635 0.19764897 -0.14661627 0.20002164
-0.30573565 -0.19541238 0.11956501 0.06114664 -0.24095365 0.037622634 0.21523634 0.050015535
-0.4429542 -0.11256747 0.07310602 0.6337086 -0.09255648 -0.14813654 -0.12300173 0.64722335
-0.36315304 -0.044927083 0.01516941 0.15233734 0.14933631 -0.30122808 -0.08284489 -0.0035733846
0.09972696 -0.043234047 -0.28233716 0.13832773 -0.14180173 0.024006799 0.0637681 -0.035119817
-0.17269072 0.058598258 -0.39448297 0.68152285 0.17576143 -0.08109272 -0.5693022 0.33559242
-0.0009553138 -0.10727997 0.16859126 -0.051252127 0.68510556 -0.04155644 0.20207758 -0.060845666
0.15590025 -0.103209175 -0.11779712 -0.3547655 0.08356017 0.027551185 0.07983099 -0.44174078
-0.14300317 -0.1060442 -0.36731052 0.43351504 0.20609842 -0.14266571 -0.44571352 0.11470185
0.028499417 -0.08935468 0.2486924 0.18210226 0.12323136 -0.2003272 0.39822346 0.18216003
-0.090728834 0.3492662 0.12948802 -0.078573816 0.19971612 -0.2507848 0.3360241 -0.23738715
-0.44873416 0.14523801 -0.248814 0.05392183 0.1321117 0.08605994 -0.3532124 -0.30156413
-0.85564554 0.18500374 -0.50716996 -0.09409184 -0.013226331 -0.07348512 -0.35282657 -0.043445196
-0.28232524 0.48357552 -0.1462048 -0.082825065 -0.047136664 0.11395589 -0.13834672 -0.0052191853
-0.016745145 0.39505562 0.11410527 -0.19961707 0.47556695 0.10246313 0.18266475 -0.12562636

FC1.bias f4 [512]
00000000: 9787 96be 8f9d 28bf 81d1 9fbe 302a ccbe
00000010: c000 e4be 99ec 483e 8fc9 083d 0d14 acbe
00000020: e2c6 a9be 2631 b2bd 6d99 dc3d edd8 d5be
00000030: 4d49 a2be 452e 9ebe b405 5cbe 1284 34be
00000040: bae7 02bf 5802 023e 834c 17bf 247e 37be
00000050: d67b adbe 0d6a 1fbe 49ea 0fbf c629 4bbe
00000060: ac89 8fbe 0cf5 cabe a7d6 733e 081e 89be
00000070: 7483 b8be f594 523e 4c96 babe d2f6 dcbe
00000080: 03ba c8bd bd7b a5be ec8a b6be d2e5 6ebe
00000090: 9c6a 16bf 833b dcbe 55d6 ec3d 8ea0 c5be
000000a0: d355 e2be b2ad a33c 3ab3 35be a7c3 19be
000000b0: f518 cebe ba7f d93d 3717 8abe 0e8d 0cbf
000000c0: aa0d b5be 8047 b4bd 3242 43be 5bbc adbe
000000d0: 5b47 1abf c985 87be 56b2 75bd f8d4 edbe
000000e0: 52a6 023e d8d1 65be 9050 00bd b610 34be
000000f0: 0b20 ccbd 9887 03bf bd5e 2fbb 456b 26be
00000100: 17d2 46be 6666 acbe b156 dbbe 8b82 c5be
00000110: 1603 a7be 54e9 5dbe 4dc3 eabc 5f27 09bf
00000120: 9007 f7bd 6d63 c9be 58a3 07bf 9fb1 94be
00000130: 61e4 e8bd f255 53be f16e 8dbe a2b9 e5be
00000140: 3920 0cbf 1cf2 09bf 139c 03bf 7fc7 c8bd
00000150: 4e38 f43d 2ad6 ca3d afa5 8a3d c7c3 11bf
00000160: 5be6 b7bd e83a 72bd 2988 39be 0bb6 16bf
00000170: 5087 f23b 3e27 b3be ec60 27bf 96b6 11bf
00000180: ff08 dcbe 0a31 9abe 221b 88be fb09 4fbe
00000190: 0980 4ebd 2e40 8ebd 445a afbd ff21 a1be
000001a0: 77fe 2a3d 5a25 84bd ba4e 93be 0f5b acbe
000001b0: de2b 0cbf 69f2 56be 94d3 103c 3a14 97be
000001c0: 3eb2 19bf 0576 673d dbcc a1be 805e 9abe
000001d0: 39dc 21be b067 f2be 5ecd 8abe bb28 8fbe
000001e0: 4334 bdbe bb05 20bf 3342 71be 1d76 b2bd
000001f0: 18f8 b5be 3496 6fbe 90be f9b9 26f1 d43c
00000200: b3ff 26bf 3f67 86be ff16 5a3d 5204 09bd
00000210: aa2f d0bd 4ea0 59be dc7a abbe 927f 84bd
00000220: 0e81 e7be 1324 89be 8a5e 2dbe 5138 f7bd
00000230: 3860 10bf b157 1abe dd00 00bf 2bd4 87be
00000240: 3d2f a3be bb32 c8be 7af4 45be 0d00 f7be
00000250: ef90 03bf 9239 00bf e9ff 82be 95ae 49be
00000260: fe71 8dbe a48b 9339 eedd 65bd 982a b6bd
00000270: 8c8e dfbd 1eed 58be d4cf e1be 9836 74be
00000280: 4e6c cdbe f5a6 4abe cfc1 09be a7d7 11bf
00000290: 0219 8bbe 2934 633d 80ce 6f3e 44a0 a6be
000002a0: c916 f4be 090f 14bc b1cb 13be daa3 8ebe
000002b0: ca87 bebd 1d10 94bd 1519 d4be 7f01 12be
000002c0: 0e6e 6cbe 9eba 07be affc a3be d46a 2fbe
000002d0: 86cc 08bf b02c 1a3d 23a0 06bf abe3 bbbe
000002e0: 37ee 08bf cffa 9fbe 4e6b edbe 61d3 92be
000002f0: 87b0 0ebf 75fb 43be bcb0 5d3e 81c6 a0bb
00000300: 42bf 8dbe c6e4 e1be 6ed8 ec3c 4777 2abe
00000310: fdef a2bc fb11 e0be 0b3a e4be 9ba5 4cbe
00000320: cc7c 1dbe 6072 a73d d1ac 00be 39cf 2e3e
00000330: 29f7 fb3d 57bd 983b bdfc fcbd 0801 c2be
00000340: f540 12bf e928 e5be fb2d f6bd 4445 dbbe
00000350: 0469 d8be 698d 443e cecf 07bf 31cc 14bf
00000360: 75a4 07be 148c f1be 41e0 0bbf ffb9 03bf
00000370: 61d1 953d 5de8 1fbe e8c2 dfbd f69e afbe
00000380: f521 30be d241 fdbd 5821 03bf 08cf 03bf
00000390: e0be c8be ff80 edbd 7d4a 02bf a5da 77be
000003a0: 959a 0bbf 538b e0be 8364 77be b091 1fbe
000003b0: adb3 56bd 1e69 e2bb 7a4d 6bbd 1db5 28be
000003c0: e3a5 03bf f6ad 6e3d 9fe8 bb3d a94c 07bf
000003d0: 2faf 33be 3b0d 233b 3649 8abe b8c1 b4be
000003e0: b220 fc3d be2f 883e f240 653e 3e50 473d
000003f0: 819f a9be 263f d03b 7257 b2bd 0216 a1be
-0.29400322 -0.65865415 -0.31214526 -0.39875937 -0.44531822 0.19621505 0.033395346 -0.33609048
-0.33159548 -0.087007806 0.10771451 -0.41767064 -0.3169655 -0.30894676 -0.2148655 -0.17628506
-0.51134837 0.12696207 -0.5910112 -0.17919213 -0.33883542 -0.15567799 -0.56216866 -0.19840154
-0.28034723 -0.3964008 0.23812352 -0.26780725 -0.3603779 0.20564635 -0.36442792 -0.4315706
-0.09801104 -0.32320967 -0.35652864 -0.23329857 -0.58756423 -0.43014154 0.11564318 -0.38599056
-0.44206104 0.019980285 -0.17744151 -0.15016042 -0.40253416 0.10620065 -0.26970837 -0.5490273
-0.35361987 -0.088027 -0.1906822 -0.33932766 -0.6026513 -0.26469257 -0.059984528 -0.46451545
0.12758759 -0.2244333 -0.03132683 -0.175845 -0.09967049 -0.51378775 -0.002675935 -0.16251858
-0.1941608 -0.33671874 -0.42839578 -0.3857616 -0.32619542 -0.21671039 -0.02865758 -0.535757
-0.12061989 -0.39333668 -0.5298362 -0.29041764 -0.11371685 -0.20638254 -0.27623704 -0.4486819
-0.5473667 -0.53885055 -0.51410025 -0.09803676 0.11924802 0.0990413 0.06769883 -0.5693936
-0.08979484 -0.05913821 -0.18118347 -0.58871526 0.0074013844 -0.34990877 -0.65382266 -0.5691923
-0.42975613 -0.3011554 -0.265832 -0.20218651 -0.050415073 -0.06945835 -0.08562139 -0.3147125
0.041746583 -0.06452437 -0.28771 -0.33663222 -0.54754436 -0.2099091 0.008839507 -0.2950762
-0.600376 0.056509037 -0.31601605 -0.30150223 -0.15806665 -0.47344732 -0.27109808 -0.27960762
-0.36953935 -0.62508744 -0.23560409 -0.087139346 -0.35540843 -0.23397142 -0.0004763496 0.025993895
-0.65233916 -0.26250646 0.053244587 -0.033451386 -0.10165341 -0.21252558 -0.33492172 -0.064696446
-0.45215648 -0.26785335 -0.16930595 -0.120712884 -0.5639682 -0.15072514 -0.5000132 -0.2652906
-0.31871977 -0.39101204 -0.19331542 -0.48242226 -0.51393026 -0.50087845 -0.2558587 -0.19695504
-0.27626032 0.00028142065 -0.05611985 -0.08894843 -0.109158605 -0.21184203 -0.44103873 -0.23848951
-0.40121692 -0.19790252 -0.13452838 -0.56969684 -0.27167517 0.055469666 0.23418617 -0.32544148
-0.47673634 -0.009036788 -0.14433171 -0.27859384 -0.093032435 -0.07229636 -0.41425386 -0.14258383
-0.23088858 -0.13254783 -0.3202872 -0.17130595 -0.5343708 0.037640274 -0.525881 -0.36697134
-0.53488487 -0.3124604 -0.4637093 -0.28676894 -0.5573811 -0.19138892 0.2164945 -0.004906476
-0.2768498 -0.44119853 0.028911795 -0.16647063 -0.019889826 -0.43763718 -0.44575533 -0.19985048
-0.15379637 0.08176112 -0.12565924 0.17071237 0.123030014 0.004661243 -0.123528935 -0.37891412
-0.57130367 -0.44757774 -0.12020489 -0.42826283 -0.4226762 0.19194569 -0.5305146 -0.5812407
-0.13246329 -0.47177184 -0.5463906 -0.5145568 0.073153265 -0.15615983 -0.10925847 -0.34300965
-0.17200454 -0.1236607 -0.51222754 -0.5148778 -0.39208126 -0.1159687 -0.5089491 -0.242045
-0.5453275 -0.43856296 -0.24159436 -0.15582919 -0.052417446 -0.0069095036 -0.057446934 -0.16475339
-0.51425 0.05827137 0.09175228 -0.5285135 -0.17547296 0.0024879712 -0.2700898 -0.35304046
0.12310924 0.26598924 0.22388056 0.04866051 -0.33129504 0.006355184 -0.08708085 -0.31462103

FC2.weight f4 [256, 512]
00000000: fcee aa3e 3540 853e c256 54be 1b65 9a3e
00000010: 103e 653e 3a01 20be f8f4 24bd 3cc5 d3be
00000020: 4e14 bfbd cc7f c2be 8ad0 423d 7d0a 17bf
00000030: 6168 75be 8789 8a3d b9b8 83bf bc51 12bf
00000040: 356e ecbe 2f09 173e 6d9e 12bd 8fcb f8bd
00000050: ede0 02bf 3b2b adbe c136 90be 164e 0e3f
00000060: 0d08 4a3c ede3 3abf cc79 12bd 915f 133b
00000070: 0e50 dabe a3b0 2d3d 22ee 8bbd 13af 0ebd
00000080: 20d6 1bbe 27eb 86be 444a b0be 03d0 8fbe
00000090: e6bc 2c3e f988 9abe 5584 1cbe 2d21 1dbf
000000a0: 93b2 dd3c 15b6 aa3e 3581 98bd f79c 523e
000000b0: 7414 f53e 4368 e2bc ff8d 273d a9f6 17be
000000c0: d02f 49be 3d43 c2be 5f56 dcbe 9ec0 e1bd
000000d0: bcbb 223e 41c5 5a3e d90c 80bd 4da3 bdbe
000000e0: 74fe f33d b64b 36be e313 47be 848c 7f3a
000000f0: 4019 76bd fc2a f7be 5bd9 1e3e c8f2 8f3d
00000100: c529 72be b537 843d b4a0 b33e 5ea5 823e
00000110: e1cc 33bf 0cbc a63d 03f5 0a3f 0d37 f33e
00000120: d28b 4abd c63a d03d adee 233e c477 be3e
00000130: 0832 f7be 47aa 493e 7da0 553e 3794 1ebe
00000140: 58f3 5fbe 40a3 d63e 74b9 35bf b3fd 883e
00000150: aa5d 2f3e 2925 b3be db52 f2bd d819 89bd
00000160: cba9 19bf 2c67 d33d a57a 973c bb96 92bf
00000170: 101a bfbd 622a 1c3e 8f3e 873d 046b 023e
00000180: 6be7 22be 9c9d 973b 1e3e 10bf bfd6 d63d
00000190: 34ed ea3c 4e4d 0cbe 263b 26be 1b08 9bbe
000001a0: 7a0a 0c3e 5aaf 083d 0284 26be 29e7 203d
000001b0: b065 dabd 18f3 eb3c e390 923e 16bd b13d
000001c0: 7ac5 68be 93c7 58be 46f9 703e 0c79 92be
000001d0: 035a 053e 236d e4be cea5 17bf f775 2b3e
000001e0: 0595 0f3e 5b1b 09be 3f57 7d3d 9352 e3be
000001f0: ef2e 8c3e b30c d23c 9750 bd3d 7ab2 4ebf
00000200: 02d1 813e 8a52 9bbe 5196 923c 8cfa be3e
00000210: 6d87 e53e 2917 d5be 0776 08be df99 25bf
00000220: 274f b4bc acd2 2ebe 59af 08bc fcb3 4ebf
00000230: e1ab 07be 7b27 2fbe 32ef 1cbf 36b6 7a3d
00000240: 52df b6be 77f7 c3be 00d0 0ebf b6c4 a0be
00000250: 1be0 54be 8d20 b8be e224 5fbf 68d8 a6bd
00000260: 57e0 163e 34d0 70be 8fac 833d d557 613d
00000270: 40ec ccbd 7b6e 37bf 9b7f 4ebc 011b 943d
00000280: 267c 0bbe 6c78 4bbe abf4 39be 8385 243e
00000290: 9141 dbbe 2fa2 f43d d355 653d 909d 50be
000002a0: 5dea a1be ae04 88bd ff3f 8fbd b22c bb3e
000002b0: 734a be3e 1df8 2cbd c173 09bf efc2 883d
000002c0: f767 4c3e 4e4c 59be 6b21 58bf 5e86 b0bd
000002d0: b78c 863b 6083 13be 10a1 39be a752 8bbe
000002e0: 2ed1 5e3e 6b8e ac3e ab3d 87bd 6e22 d2bd
000002f0: c818 efbe 2548 4cbe 6112 eabd d7c2 4fbe
00000300: 6c55 cbbe 567a 8cbe 3940 a5bd 4146 0cbd
00000310: 477a 6a3c 7a29 81be bd5f 80be 47fb e9be
00000320: 7a09 d63d 92d0 093d e97b 8c3e 2f2f 293e
00000330: cef5 88bd 375c ddbd 1b78 253e e5d5 c7bd
00000340: 7326 03be a325 db3e aeb5 ad3e 1481 e43c
00000350: fd47 f6bd 8fc8 ffbe d463 adbe 9072 e5be
00000360: 5cc7 043e e9bb 1c3e 7d94 d3bd b68d c4be
00000370: 1717 0fbf b832 9f3e 9111 d6be d2c1 84be
00000380: d3c8 12be 9da0 fdbc ad9e 66be 3b71 dd3e
00000390: a38c 873e 17a5 fdbe dab2 97be 38ec 73be
000003a0: bc70 27be 2168 80be 59a7 81bd f4f4 85be
000003b0: b0dd a7be dc62 3dbe 53b2 193e 5a6f 143e
000003c0: c67d 51be aaa8 2ebe e308 0abf 3834 15bf
000003d0: 8420 11be 98f8 9b3e 1c00 b8bc eccc d03e
000003e0: e35c 983d f0c7 c5be 5711 45be 6b3a b3be
000003f0: acdc 56be 844e b43e 8d13 933c e4c1 773e
0.33385456 0.2602555 -0.2073622 0.30155262 0.22386956 -0.15625468 -0.040272683 -0.41361415
-0.09330045 -0.37988126 0.04756216 -0.5900038 -0.23965599 0.067645125 -1.0290748 -0.57155967
-0.4617783 0.14749597 -0.035795618 -0.12148201 -0.5112446 -0.33822045 -0.28166774 0.555879
0.012331021 -0.7300404 -0.035760686 0.0022487382 -0.42639202 0.042404782 -0.068325296 -0.034834933
-0.15218401 -0.26351282 -0.3443166 -0.28088388 0.16868934 -0.30182627 -0.15284856 -0.6137875
0.02706269 0.33342043 -0.07446519 0.2056769 0.47867167 -0.027637606 0.040906902 -0.14840187
-0.19647145 -0.37941924 -0.43034646 -0.11023067 0.15891927 0.21364309 -0.062524505 -0.3703865
0.119137675 -0.17802319 -0.1944118 0.00097484165 -0.060082674 -0.48274982 0.15512602 0.07028729
-0.23648746 0.06455938 0.35083544 0.2551679 -0.70234495 0.08141336 0.5428011 0.47502938
-0.04944975 0.1016746 0.16009016 0.3720075 -0.48280358 0.19693862 0.20862003 -0.15486227
-0.21870172 0.41921425 -0.70986104 0.26756057 0.17125574 -0.34989288 -0.1183221 -0.066943824
-0.6002471 0.10322413 0.018491099 -1.1452249 -0.09331143 0.15250543 0.06603729 0.12736136
-0.15908591 0.004626943 -0.56344783 0.10490178 0.02867756 -0.13701364 -0.16233501 -0.3027962
0.13675871 0.033370353 -0.16261294 0.03928295 -0.106639266 0.02880244 0.28626165 0.086786434
-0.22731581 -0.21169882 0.2353259 -0.28607976 0.13022618 -0.44614515 -0.5923737 0.16744219
0.1402169 -0.13389342 0.061850782 -0.44398937 0.27379557 0.025640821 0.09243887 -0.80741084
0.25354773 -0.3033641 0.017893942 0.37300527 0.44829884 -0.41619232 -0.13326274 -0.64687914
-0.022010399 -0.17072552 -0.008342587 -0.80743384 -0.1324916 -0.17104904 -0.61302483 0.061208926
-0.35717255 -0.38274738 -0.5578613 -0.3140008 -0.20788614 -0.35962334 -0.87165654 -0.08146745
0.14734016 -0.23516923 0.06429397 0.055015404 -0.100059986 -0.71652955 -0.012603666 0.07231713
-0.13621578 -0.19870156 -0.1815974 0.16066556 -0.4282346 0.119449966 0.05599005 -0.20372605
-0.31624117 -0.066415176 -0.06994628 0.36557537 0.37166175 -0.042228807 -0.5369225 0.06677806
0.19961534 -0.21220514 -0.8442599 -0.086193785 0.00410613 -0.14405584 -0.18127847 -0.27211496
0.21759483 0.33702406 -0.06603559 -0.10260473 -0.46698594 -0.19949396 -0.11429287 -0.20289169
-0.3971361 -0.27437085 -0.0806889 -0.034246687 0.01431138 -0.25226957 -0.25073043 -0.45699522
0.10451026 0.033646174 0.27438286 0.16521905 -0.066875085 -0.10808604 0.16159098 -0.09757594
-0.12807636 0.42802152 0.33927673 0.02789358 -0.120254494 -0.49957702 -0.33865225 -0.44813967
0.12966675 0.15306057 -0.10331056 -0.38389367 -0.5589461 0.31093383 -0.41810277 -0.25929123
-0.14334421 -0.030960375 -0.22521468 0.4325045 0.26474485 -0.49540016 -0.2962864 -0.23820579
-0.16351599 -0.25079444 -0.06330747 -0.26163447 -0.32786322 -0.18494743 0.15009432 0.14495602
-0.20458135 -0.17056528 -0.5391981 -0.58282804 -0.1417256 0.304631 -0.02246099 0.40781343
0.07439592 -0.38629103 -0.19244896 -0.35005507 -0.20982617 0.35216153 0.017953658 0.24195057

FC2.bias f4 [256]
00000000: f10b 21be b102 7fbe 4add 8fbe 2271 843b
00000010: 785d 26be f2e7 97bc 70fc 7bbe e514 543e
00000020: df24 39bd 59f6 6ebe 9f7f a1be 4687 41be
00000030: 844c 53be bba4 353d 1f8e 58be d4b5 f0bd
00000040: c368 553d 38bf 5fbd bf1b 18be e4ea 043e
00000050: 4294 38be d9d8 ddbd 775f 2dbe 53ef 13bd
00000060: acd5 ba3d 23ad eebd 23c7 26be c83d 79bd
00000070: aab2 0d3e e534 f6be 5725 dabe a502 f0bc
00000080: 75ec 6cbd be1a 02bd 848c 9cbe 8d48 8cbe
00000090: c2cc cebd f300 95be 7216 e83c 7d65 00be
000000a0: 7e77 bcbd f84c e5bd f10b 793d 440b 16be
000000b0: 06e5 83be f031 863d 733b 3e3d 0d49 10be
000000c0: a1c5 18be c133 493e 4f9a 73bd 1df5 38be
000000d0: f3aa 11be 0c01 89bd 1f1a bb3d b254 033e
000000e0: 2270 cbbd a2e0 40be e834 11be 8808 40be
000000f0: 4171 e4bc c55d 4bbe a519 4a3d 6354 aabd
00000100: b88b 03bd 4511 f6bd 0ff6 92be 88ee f63c
00000110: 63e3 073e ee46 a6bd c078 2fbe fe23 10be
00000120: 6b0e 813d a8eb 8a3b 0e77 35be 4841 3bbd
00000130: 6be3 9ebe 4258 733d d517 a3be d6d6 a5bd
00000140: 1aa3 87bd 5cdf aebd 745c 5a3e 395c 5ebe
00000150: 9a40 04be 39dc c3bd 1a43 7fbd a4d1 ebbd
00000160: 210e 273c 5525 a3be f751 38be d98b bbbd
00000170: 3478 583e 380d 8cbe 3c18 cabe d2ce 4f3d
00000180: eafc 6bbe 7858 1abe 2d69 2abd e9f2 9d3d
00000190: 6d22 87bd bada c1bd a3b0 28be 43f5 57be
000001a0: 036a 35be 6066 aa3a 5d98 3ebd 93a4 9cbd
000001b0: 1ded 893b e817 7abe 13bd ddbd b691 533c
000001c0: 0064 90be c09c 59be 6e36 49be ab5e 8fbe
000001d0: 43bf b9be ec5f 333d c8cb 6bbe 4285 65be
000001e0: a19d 5bbe e4a2 75be 8258 2ebe 6c86 96be
000001f0: 0f3e f03c 3130 3dbe 1f12 aebe 08cd 883d
00000200: 09f9 3f3e 54cb 8dbe 5e93 18be 0c26 10be
00000210: 3dc8 1bbe c6d4 d8bd c6f7 03be 94f8 4e3c
00000220: 94eb af3c ff00 18bd 8b1e 0f3e 1b3a 223e
00000230: 77a6 8cbe 7817 4cbe 2b5a 14be 5b11 aa3d
00000240: 86bd 26be 39a4 06bd e916 d8be adcb bfbe
00000250: 8b38 17be 2680 62be 1505 ef3d 0c49 aebe
00000260: 1a22 1dbe 317e 2fbd 0b63 15bf 3a42 e5bd
00000270: 1d91 b0bd c76b a43d 3f47 e7bd 39cc 0dbf
00000280: cad2 e4bd a1f3 103e 1676 ca3c cb08 8ebe
00000290: e67d 1bbe fba7 1abe 41a9 85be 1032 84be
000002a0: ec99 01be b11d a1bc e010 2abe cc2a d4bd
000002b0: b947 8cbe 598c fabd aaa2 583c acd6 8b3c
000002c0: 0143 6abe 046c febc 313d 68be 67e3 a4be
000002d0: 3c54 18be 23af 6cbd 5232 95be 1a04 a1be
000002e0: c92c 3abe 5426 7bbe f024 13bc 8333 863d
000002f0: a863 15bd d844 50be 4397 02be 219c a2bd
00000300: a325 10bd 6313 1cbe 01c4 99be 2837 97be
00000310: b898 793d 91e5 a1bd af20 1fbe 1e6a 09bd
00000320: 01d4 53be 2e06 c9be f298 f0bd 56c1 fabd
00000330: e118 3cbe 22ea 8c3d a1a4 693c 8efa 65be
00000340: 5b91 24be b679 473e 45f1 b53d 66b8 3bbc
00000350: 53e9 9abe a3a4 53bd 7d7f 823c d014 c13d
00000360: e2cf 45be a3a0 5abe 5fb2 74bd 4ffc 7fbe
00000370: ef80 543c 49fa 95be df49 a43d 2a75 5dbd
00000380: 2c12 9abd 733b 2dbe f2fe c8bc 9202 82bd
00000390: 7435 453c a916 4ebe 878c 1e3e 23a7 f9bd
000003a0: f8fa bebe fb56 1bbe f415 4abd 4f22 16bd
000003b0: 1f3a abbe aa98 113e 2c86 68bd 6c45 5cbc
000003c0: 18d7 f8bc 4e50 b1bd b3bb d8bd 4a2b f73c
000003d0: 14aa 5f3e 06cf ca3d ba3e ed3c 0ff4 d3bd
000003e0: fb3f 8abe 6688 71bc 9401 c1bd cd82 51be
000003f0: 54f6 2cbe 93d3 10ba 4f04 c63d 5b50 17be
-0.15727212 -0.2490337 -0.28098518 0.004041807 -0.16246593 -0.018543217 -0.24608016 0.20711096
-0.04520118 -0.23336162 -0.3154268 -0.18899259 -0.20634657 0.044346552 -0.21147965 -0.11753431
0.05210186 -0.05462572 -0.14854334 0.12980229 -0.18025306 -0.10832376 -0.16930948 -0.03611691
0.09122786 -0.11654117 -0.16286902 -0.060849935 0.13837686 -0.4808723 -0.42606613 -0.029298136
-0.05784269 -0.031763785 -0.30575955 -0.27399102 -0.10097648 -0.29102287 0.028331015 -0.12538715
-0.09202479 -0.11196321 0.060802404 -0.14652735 -0.2576067 0.065524936 0.046443414 -0.14090367
-0.1491914 0.19648649 -0.059473332 -0.18062253 -0.14225368 -0.06689653 0.091358416 0.12825277
-0.09933497 -0.1883569 -0.14180338 -0.18753254 -0.027886035 -0.19859989 0.049340863 -0.08316877
-0.032115668 -0.12015013 -0.28703353 0.030143037 0.13270335 -0.081189975 -0.17135906 -0.1407623
0.06301578 0.004239518 -0.17721197 -0.045716554 -0.3103288 0.05941034 -0.3185412 -0.08097617
-0.06622906 -0.08538696 0.2132433 -0.21714868 -0.12915269 -0.095634885 -0.062319852 -0.11514595
0.01019624 -0.3186442 -0.18000017 -0.09157533 0.21139604 -0.27353835 -0.39471614 0.05073435
-0.23045698 -0.1507281 -0.04160421 0.07712347 -0.06598363 -0.09465547 -0.16473632 -0.21089654
-0.17716222 0.0013000481 -0.046532024 -0.076485775 0.0042091743 -0.24423182 -0.10827079 0.012913158
-0.28201294 -0.21251202 -0.1964967 -0.28001913 -0.36278734 0.04379265 -0.23026955 -0.22414115
-0.2144685 -0.23987919 -0.1702595 -0.2939943 0.029326467 -0.18475415 -0.339982 0.066797316
0.18747343 -0.2769419 -0.14899966 -0.14077014 -0.15213104 -0.10587458 -0.12887487 0.012632508
0.021474637 -0.037110325 0.13976495 0.15842478 -0.27470753 -0.19930828 -0.14487521 0.083040915
-0.16283235 -0.03287146 -0.4220498 -0.3746008 -0.14767663 -0.22119197 0.11670891 -0.34040105
-0.1534504 -0.042844955 -0.5835425 -0.11194272 -0.08621428 0.080283694 -0.11292886 -0.55389744
-0.11173017 0.14155437 0.02471451 -0.27741084 -0.15184745 -0.15103142 -0.26105693 -0.25819445
-0.12656373 -0.019667478 -0.16608 -0.10359725 -0.2739847 -0.122338004 0.013222376 0.017070137
-0.22877122 -0.031057365 -0.22679593 -0.32204744 -0.14875883 -0.05778421 -0.29139954 -0.31448442
-0.18181147 -0.2452634 -0.008980975 0.06552794 -0.036471993 -0.20338762 -0.12753014 -0.079399355
-0.035192143 -0.1524177 -0.30032352 -0.29534268 0.06093666 -0.079051144 -0.15539812 -0.033548467
-0.20686342 -0.39262527 -0.11747922 -0.12243907 -0.18368866 0.06880595 0.014260442 -0.2245886
-0.16071074 0.19480023 0.08883909 -0.011457538 -0.30256137 -0.05167068 0.015929932 0.09427798
-0.19317582 -0.2135034 -0.05974042 -0.24998592 0.012970193 -0.29292515 0.08021902 -0.054066814
-0.07522997 -0.1691721 -0.02453563 -0.063481465 0.01203667 -0.20125832 0.15483294 -0.12190082
-0.3730085 -0.15169899 -0.049337342 -0.036653813 -0.3344278 0.14218393 -0.05676858 -0.013444286
-0.030376002 -0.08657895 -0.10582676 0.030172009 0.21842223 0.09902768 0.028960574 -0.10349285
-0.27001938 -0.014741993 -0.09424129 -0.20460053 -0.16890842 -0.0005524691 0.096687905 -0.14776747

FC3.weight f4 [2, 256]
00000000: e95a f1bd cd65 1fbf 484f 783e a333 9bbe
00000010: e246 a03e 9f61 ddbd 201a 02bf 545f a33e
00000020: 305a 1b3f ec1c b13e 61e2 4a3e 21b1 5a3f
00000030: 121f 463e 09e2 edbd 6045 5f3e 5550 bd3d
00000040: 825d 273e 161f 28bd 25d1 843c c879 3cbf
00000050: 94c7 193f 9b67 cfbe 9a22 44bd 8e63 90be
00000060: f835 503f 7b64 d43d 18aa 103f 5567 093f
00000070: 7fdd 943d 5ecf 2dbf cf0c 433f b5a7 d73e
00000080: b2e2 473d 2b59 87bd 4b70 9dbe 53eb 673e
00000090: 7109 85be 73d6 c93c 5b05 2fbc 8bbf 753d
000000a0: 320f 9fbe 9d55 123e e56f d53d b75a 213e
000000b0: 2fe1 f2be eb82 213e 11c8 3dbe 2ea5 773c
000000c0: 1e79 ba3d ea79 073f 663c 1b3f e3fb 53be
000000d0: deaf 123f 7136 6b3c e782 73be 09fd b6be
000000e0: 3eb3 563c 20df f73e 482d 61bd 3a8d babb
000000f0: dac7 d5ba b27a 973e c0a8 843d 5d73 853f
00000100: 9d11 24be 4484 f3bc 1f88 343c dae8 2cbe
00000110: c05b 4a3f 681c 263d a371 873e 2b41 5b3e
00000120: ef58 4ebd 8549 8bbd 0e54 ac3e 1fb6 043e
00000130: c45a 85be b42c 11be dd1d 0b3f 0a29 fd3d
00000140: 737d 2abd 6226 433e d8e3 cd3e 4cd1 d5bc
00000150: d516 64bd b2b1 8bbe 9eba 26bf 4ae6 90be
00000160: b20f ec3d 69eb 363f 31d5 a4be 7360 96be
00000170: f466 b03f 8f92 823e 6841 083e 6488 f8be
00000180: 492d 043f d005 343e 616c ad3e 23e9 b5bc
00000190: 9008 a3be ddda 663d 1eb2 c4b9 37f1 e73e
000001a0: f64d 20bf 7c64 adbc 0b67 f43c 66ec ddbd
000001b0: f6f5 293e 3889 efbe 9571 1b3f 00d4 8a3d
000001c0: c298 b13e c19c d23e 36d4 063e 2489 8a3f
000001d0: 3f8a a0be b07b d33d e9b8 b53e a177 543e
000001e0: 3a02 08bf 6f13 3b3e 79a5 51bf cdf7 f5bc
000001f0: cafa 133e 68e0 3ebf ba92 09be 31d7 4f3e
00000200: e6ef 243e b004 c13e a96d 54be dd8d 9a3e
00000210: 2a00 cbbd 1fde 84bd 4e37 753e 4fbb 5e3d
00000220: 4c12 73bc 7ac0 59bf 8ad1 20bf 8a6d 2f3f
00000230: 68d1 2b3f 6423 d93d d81a 573e d4f2 a0be
00000240: f88e ed3c 05f5 2fbe a1da 2f3d 3d6d dfbd
00000250: b036 1f3f de5e 0bbe 4de0 04be d6ba 343f
00000260: 7233 d5bc 5540 903d 315d 40be bea8 843e
00000270: a611 c33d d7e2 ec3d 593c 3f3e 4763 0dbf
00000280: 0498 8cbe b370 8f3e 8a35 afbd e52b 1bbf
00000290: 6acc c43e a607 24bd 0f36 abbe 288f c93d
000002a0: 8c55 8f3e aada ec3d 32e4 4fbe 659c ca3e
000002b0: c361 3f3e 6c76 3cbe db90 dbbb 9408 853d
000002c0: b8b1 e8bc bce8 c1bc 3db3 68be 95cb 48bf
000002d0: 35aa 1ebe 9d7a 06bd 408c e03e 68b3 bc3c
000002e0: 0f4c 6f3e 729f 6f3f a478 5d3f e6f5 a4be
000002f0: dce1 b83e 7b48 a6be 368d b83e 8751 22bd
00000300: 243c 10be 9d27 053e 3241 9fbd 33aa 1abf
00000310: a3c3 57be f782 9e3e bccf debc a95c cd3e
00000320: 35a7 3ebc 720d da3d aadc 44bf 23f1 9a3e
00000330: 6ce4 023f 9b2d 94bd be12 913e f23c 693d
00000340: 1820 ecbd 9f94 64bd 2a24 fc3e 0c86 b5be
00000350: dc93 3fbd be9b 8fbe b807 bebc 96a6 193f
00000360: 639b 983e 60d5 a23e 074f 42bf 6b3c fbbe
00000370: fe5f a03e 7928 0ebf c7d3 ef3e 06e4 50be
00000380: 2a34 5abe 58f3 64bd ea1b 393f 4576 573c
00000390: fb3e ab3e 6454 9abe 066d 5d3f 0cbb d5be
000003a0: b99f 4f3d 91dc 433f 261e c13e a607 6bbd
000003b0: 074b 44bd 52a0 37be 6d8d 8cbd 46d7 8bbd
000003c0: cb70 ecbe 8b3b 5ebe 2364 103e 3389 8c3c
000003d0: e35a f13c 89b1 0bbf 488c 493f 558c bc3d
000003e0: 8690 553f 8cb5 483d 20e5 7c3e 97d5 e33e
000003f0: 6b0f f0bd 6011 01bf 7b6e bfbe 47b9 8cbc
-0.11784918 -0.6226471 0.24248993 -0.30312833 0.3130408 -0.10809635 -0.50821114 0.31908667
0.6068449 0.34592378 0.19812919 0.8542653 0.1934779 -0.116153784 0.21803808 0.09243838
0.16344264 -0.04104527 0.01621301 -0.73623323 0.6007016 -0.40508732 -0.04788456 -0.28200954
0.8133235 0.10370728 0.5650954 0.536733 0.072688095 -0.6789454 0.7619142 0.42120138
0.048800178 -0.06608804 -0.30749735 0.22648363 -0.25983766 0.02463839 -0.010682429 0.059997123
-0.3106628 0.14290471 0.10421733 0.15757261 -0.47437426 0.15772597 -0.1853335 0.0151150655
0.091051325 0.529204 0.60639036 -0.20701556 0.572996 0.014356242 -0.23780404 -0.35739926
0.013104258 0.48412418 -0.054974824 -0.005693105 -0.0016310171 0.29585797 0.06477499 1.0425831
-0.16022344 -0.029726155 0.011018782 -0.16885701 0.7904625 0.040554434 0.26453885 0.21411578
-0.050377782 -0.06801132 0.3365788 0.12960099 -0.2604581 -0.14177209 0.5434244 0.12361343
-0.041623544 0.1905761 0.40212893 -0.026100777 -0.055685837 -0.27284008 -0.65128505 -0.28300697
0.11526431 0.7145296 -0.32193902 -0.2937046 1.3781419 0.2550244 0.133062 -0.48541558
0.516316 0.17580342 0.3387175 -0.022205895 -0.3184247 0.056361068 -0.0003751674 0.4530122
-0.6261896 -0.021166079 0.029834291 -0.10836105 0.16597733 -0.46784377 0.6072019 0.06778717
0.34686857 0.4113522 0.1316689 1.0823102 -0.31355473 0.10326326 0.35492638 0.2074876
-0.531284 0.18269132 -0.81893116 -0.030025387 0.14451137 -0.74561167 -0.13434878 0.20296933
0.16107139 0.3769889 -0.20744957 0.30186358 -0.09912141 -0.06487679 0.23946878 0.05437785
-0.014835905 -0.8505932 -0.6281973 0.6852652 0.67116404 0.10602453 0.21006334 -0.31435263
0.028998837 -0.17183311 0.04293311 -0.109095074 0.6219282 -0.13610408 -0.12976189 0.7059759
-0.026025508 0.0704352 -0.1878555 0.2590999 0.095248505 0.11566704 0.18675365 -0.5522961
-0.2745973 0.2801567 -0.08555134 -0.6061385 0.38437206 -0.040046357 -0.3343968 0.09841758
0.27994955 0.11565144 -0.20301893 0.39572445 0.18689637 -0.1840455 -0.0067006177 0.06495777
-0.028405055 -0.023670547 -0.22724624 -0.7843564 -0.15494616 -0.032831777 0.43857002 0.023034766
0.23368858 0.9360267 0.8651221 -0.32218856 0.36109817 -0.32477173 0.36045235 -0.03962853
-0.14085442 0.13003393 -0.07776107 -0.60415953 -0.21070723 0.30959293 -0.027198665 0.40109757
-0.011636545 0.10647096 -0.76899207 0.30262098 0.51129794 -0.07235261 0.28334612 0.056942888
-0.11529559 -0.0558058 0.4924634 -0.35453832 -0.04677187 -0.2804851 -0.02319704 0.60019815
0.2980605 0.31803417 -0.75901836 -0.49069533 0.31323236 -0.55530506 0.4684126 -0.20399484
-0.21308962 -0.055896133 0.7230822 0.013150756 0.33446488 -0.3014251 0.8649448 -0.41744268
0.050689433 0.7650843 0.37718314 -0.05738034 -0.047923114 -0.17932251 -0.06862912 -0.068281695
-0.46179804 -0.21702401 0.14100699 0.017155265 0.029462283 -0.5456777 0.7872968 0.09206454
0.8342365 0.04900126 0.24696779 0.44498894 -0.11721691 -0.5041714 -0.37388977 -0.01717819

FC3.bias f4 [2]
00000000: 8e44 523d 5692 ea3d
0.05133491 0.114536926
