results/run000/actor_0_net.pt (torch_old, 525546 bytes, 10 tensors)

BN1.weight f4 [24]
000000 00 af df 3e 7d ce b0 3e c1 8d 43 3e d1 8b 56 3f
       0.43688202 0.34532538 0.19097044 0.8380709
000010 e2 4e 8e 3f c3 bf 9d 3f c4 dc 18 3f 8b 71 40 3e
       1.1117823 1.2324146 0.5971186 0.18793313
000020 0c 8c 21 3f aa 1d e4 3e 8d 23 78 ba 5d 27 ba 3e
       0.6310432 0.44553882 -0.00094657467 0.36358157
000030 c5 35 dd 3e 59 7d 12 3f d8 93 53 3f 8a 6c b6 3e
       0.43205085 0.57222515 0.82647467 0.35629684
000040 bc 21 e3 3e f1 94 9d 3e 9a bb a5 3e a6 92 2d 3f
       0.44361675 0.30777696 0.3236969 0.6780189
000050 5d 8d 92 3f be 9f 66 3f 11 96 29 3f 4c 19 c5 3e
       1.1449391 0.900875 0.6624461 0.38495862

BN1.bias f4 [24]
000000 a3 f2 8e 3d c8 50 0d be 9e b2 dc bc 3f 9b c5 bd
       0.06979873 -0.13800347 -0.02694064 -0.096487515
000010 b0 ad 77 3e 4f 58 d5 bd 0e 6f bc 3d 5d 8d 4f be
       0.2418735 -0.10417234 0.092008695 -0.2026877
000020 2b 3d 5b 3e 3f de 30 3e aa ac 89 bc 23 12 22 be
       0.21410052 0.1727228 -0.016805965 -0.15827231
000030 06 6f 2f 3e 1b d0 8f bd 5c ed 18 3e aa 52 95 be
       0.17132196 -0.07022115 0.14934295 -0.2916463
000040 b2 2f a5 3c 25 b7 5c be 11 0a cf 3d 5c 00 86 bd
       0.020164344 -0.21554239 0.10109342 -0.06543037
000050 88 9e de 3d c6 d2 d2 3d c0 8f 58 3e e8 54 2a be
       0.10870081 0.10294108 0.21148586 -0.16633952

BN1.running_mean f4 [24]
000000 f2 eb 93 c0 a0 93 2d be 6b b8 2b 41 17 14 35 3e
       -4.622552 -0.16950846 10.732524 0.17683445
000010 cd e3 4f 3f ef a7 69 40 6b b8 2b 41 17 14 35 3e
       0.8120697 3.6508749 10.732524 0.17683445
000020 96 82 94 c0 31 c3 30 be e4 c7 3a 41 d8 57 25 3d
       -4.6409407 -0.1726196 11.673801 0.040366977
000030 a1 dd 55 3f 8a ff 68 40 e4 c7 3a 41 d8 57 25 3d
       0.83541304 3.6405969 11.673801 0.040366977
000040 5c 7a 94 c0 b5 f5 3d be 52 b0 40 41 c9 8b 04 3b
       -4.6399364 -0.18550761 12.043047 0.002022492
000050 38 ed 68 3f 53 bc 68 40 52 b0 40 41 c9 8b 04 3b
       0.9098697 3.6364944 12.043047 0.002022492

BN1.running_var f4 [24]
000000 89 05 95 41 d9 c6 47 3f 18 62 c0 43 b5 f1 85 41
       18.627703 0.7803779 384.76636 16.743021
000010 67 55 f2 41 c6 7d 33 40 18 62 c0 43 b5 f1 85 41
       30.2917 2.8045516 384.76636 16.743021
000020 00 98 94 41 45 92 49 3f f4 9b bd 43 6f e5 88 41
       18.574219 0.78738815 379.21838 17.112028
000030 db 59 fa 41 02 03 3c 40 f4 9b bd 43 6f e5 88 41
       31.293875 2.9376836 379.21838 17.112028
000040 7d 79 92 41 6a 6f 4d 3f 78 f3 bd 43 50 a5 8a 41
       18.30932 0.8024813 379.9021 17.330719
000050 a3 a3 01 42 03 0c 4b 40 78 f3 bd 43 50 a5 8a 41
       32.4098 3.1726081 379.9021 17.330719

FC1.weight f4 [400, 24]
000000 fc d1 09 3f 52 05 0e bd 39 5c 2a be 87 c7 4c be
       0.53836036 -0.034673043 -0.16636743 -0.19997989
000010 d1 13 59 3e 63 2c cf 3d 53 9f 01 be 56 d3 7c 3d
       0.21198966 0.10115888 -0.12658434 0.061724983
000020 77 99 21 3e ac b0 b6 be df 2b 09 3b 48 59 03 bf
       0.15781198 -0.35681665 0.002093069 -0.5130811
000030 33 f0 92 3e 73 83 96 3e 9b 2b f1 3d 4e eb c5 be
       0.28698882 0.29397163 0.11775895 -0.38656086
000040 18 6f 9d bc 60 7d a0 be 7e 41 a5 3e 4d 24 e5 be
       -0.019218013 -0.31345654 0.3227653 -0.44754258
000050 d0 22 bf 3c fe 2f 7a 3e 62 05 a0 3e a1 6d 8c be
       0.02333203 0.2443237 0.31254107 -0.2742739
000060 50 85 e6 bd be 8a d0 3d 53 37 f1 3d 62 1f 49 be
       -0.11255896 0.10182713 0.117781304 -0.19640878
000070 55 b0 14 be 3f f5 17 bd fe 40 9c 39 5a 8b 34 be
       -0.1452039 -0.03709912 0.00029803062 -0.17631283
000080 7e 4a 04 be 45 74 2f bd c7 39 a7 3d 13 7c 2e 3e
       -0.12919042 -0.042835493 0.08165317 0.17039518
000090 06 05 11 be 3b 4a be bb 60 96 a6 3d cb 04 aa 3d
       -0.14162073 -0.005807189 0.081341505 0.083016954
0000a0 3a ae 4c 3e 2e 94 a8 3e 20 02 1d 3f 01 be d2 3e
       0.19988337 0.32925552 0.6133137 0.41160586
0000b0 c1 cd 0c 3d 03 ba bc 3d cb 92 0d 3f 38 10 88 3e
       0.03437591 0.092151664 0.55302113 0.26574874
0000c0 9b 8a 33 3d 76 25 b4 3d 53 1d 88 be 6c 8e 1e 3e
       0.043833356 0.087962076 -0.26584873 0.15484017
0000d0 78 3a d5 3e ef 7f 7a be 15 db e0 be a7 39 d1 3e
       0.4164617 -0.24462865 -0.43917146 0.40864298
0000e0 74 ea 9b bd 57 19 12 be 16 50 1f bd 09 00 24 bd
       -0.07613078 -0.14267479 -0.038894735 -0.040039096
0000f0 f8 e1 66 3e eb 90 4f 3c 11 b8 0e be 66 86 2c 3d
       0.22547138 0.0126688285 -0.13937403 0.04212036
000100 c3 a7 1b 3e aa b7 ea 3c 72 7e d2 3e 4a e3 14 3e
       0.15200715 0.028652031 0.41112095 0.14539829
000110 96 38 b7 3d 29 05 29 3e 7f 6d b4 3e 98 6c c1 3e
       0.0894634 0.16505875 0.3523979 0.37778163
000120 a5 98 97 be 7d 90 8a 3d 8b 91 f0 3e cf 90 83 3e
       -0.29608646 0.0676584 0.4698604 0.25696418
000130 20 27 93 3e f4 0f 9c 3d 9b d3 d5 3e 80 88 f7 3e
       0.28740788 0.0762023 0.41763005 0.4834633
000140 e8 95 28 bc 00 7f e0 bd 40 6b 2c bd 21 93 dc 3d
       -0.010289647 -0.10961723 -0.04209447 0.1077025
000150 2c 73 fa 3d 31 1a f4 3b 7d f3 98 bd be 2b d6 3e
       0.122289985 0.0074494113 -0.07468317 0.41830248
000160 93 f7 bd bc b6 e7 93 3e a8 56 a5 be 4a 6e 29 3d
       -0.023189342 0.2888772 -0.32292676 0.041364945
000170 c5 27 bd 3b a2 d8 8d be d7 64 a3 be d6 69 d4 3d
       0.005772563 -0.2770434 -0.31912872 0.10371749
000180 dc 4b ee 3c 52 80 7e be 05 32 8c be 71 3f 72 3c
       0.029088907 -0.24853638 -0.27381912 0.014785633
000190 93 37 0e be 8a 3a f6 3e d9 3a b8 be 63 27 7f bb
       -0.13888387 0.48091537 -0.35982397 -0.0038933388
0001a0 a2 87 9f 3e 66 15 13 be 0b c6 fb bd d7 4f 5d 3e
       0.31158167 -0.14363632 -0.12293633 0.21612488
0001b0 00 d7 33 3e dc 90 ea 3c 7e 74 18 3e 77 14 57 3e
       0.17562485 0.028633527 0.14888188 0.210039
0001c0 f3 9b 07 3f 0c ed 0c bd a5 d7 63 3e 23 b7 09 3e
       0.52972335 -0.034405753 0.2225023 0.13448767
0001d0 f5 3a 1f 3e 69 bb d6 be a0 22 28 3e a9 e0 53 bd
       0.15549834 -0.41939858 0.16419458 -0.051727924
0001e0 f8 c6 59 be 08 57 04 bd 47 ce 08 3e fb 76 8d be
       -0.21267307 -0.032309562 0.13359939 -0.27629837
0001f0 5f d0 83 3d 58 48 c0 3d 25 73 2a 3e 70 b3 4a bc
       0.06436228 0.093887985 0.16645487 -0.012371883
000200 52 04 a7 be 5b fd ac bd de bb 81 be 0c a5 2a be
       -0.32620484 -0.08446761 -0.25338644 -0.16664523
000210 b2 41 0b 3e 8f 47 12 be e5 d1 94 be 60 33 58 3c
       0.1359928 -0.1428511 -0.29066387 0.0131958425
000220 4c 4f 67 be 4c a4 ab bd 11 38 2b 3e e3 a1 ba be
       -0.22588843 -0.083809465 0.16720606 -0.36451635
000230 93 e2 90 3e c6 77 d0 bd 23 d1 a3 3e 5a 6b ce be
       0.28297862 -0.10179095 0.31995496 -0.40316278
000240 08 90 81 be 17 49 d2 bd 08 09 a1 bd 50 c1 d5 3d
       -0.253052 -0.10267847 -0.07863051 0.10437262
000250 8e b6 ff be 3b 48 5d 3e c1 7f 80 be 65 50 b0 3e
       -0.49943966 0.21609585 -0.25097468 0.34436336
000260 cc 56 fd 3c 90 d6 c1 be cf d6 98 3e db 28 ed be
       0.030925177 -0.3785901 0.29851386 -0.46320233
000270 97 5c 18 be d1 8f a1 3d 47 ff a6 3e f3 18 bb be
       -0.1487907 0.07888759 0.32616636 -0.36542472
000280 db fd 0a be c9 5c 63 bd da 78 6d bb 67 b1 a4 3e
       -0.135734 -0.05550841 -0.0036235363 0.32166597
000290 82 8d f7 3e 18 76 1c 3e 22 21 be 3d 28 b2 e9 3e
       0.4835015 0.15279424 0.09283663 0.45643735
0002a0 bb 17 ea 3d 31 ed 9b 3e 6c 91 da 3c c2 55 cb 3e
       0.114303075 0.304544 0.02668067 0.39713866
0002b0 03 bc aa 3c fa 26 73 3d df e1 09 be 02 b9 8b 3e
       0.020841604 0.059363343 -0.13465069 0.27289587
0002c0 5d 3b 47 be c2 4a 90 3e 03 a6 0b bd 40 25 29 3e
       -0.19456239 0.28182036 -0.034093868 0.16518116
0002d0 e3 69 44 be 1e dc bc bd 3c a8 ff bd 3c 2f 82 3d
       -0.19181018 -0.092216715 -0.1248326 0.063566655
0002e0 57 0d c9 3d 5d 07 b5 3e d7 07 e6 3e 9f 01 95 bd
       0.098169975 0.3535718 0.44927856 -0.072757
0002f0 6c f9 01 bd 52 ff fb be ce 32 f1 3e 4c 6e 75 bd
       -0.031732008 -0.4921823 0.47109073 -0.05991964
000300 03 b7 92 be 2e 6a 38 3e c0 72 12 be e2 8f 45 3e
       -0.28655252 0.18009254 -0.14301586 0.19293168
000310 2e 3a 00 3f b5 3e de bd 4f eb 18 be 88 ff 0d 3e
       0.50088775 -0.10851804 -0.14933513 0.13867009
000320 56 28 bf be 32 bd 1a 3d 3d 5e 22 be 83 b9 70 bd
       -0.3733546 0.037778087 -0.15856262 -0.058770668
000330 fb 17 e3 3d 55 b4 c0 bc 4d f3 94 3d ee 9b 42 3d
       0.11088558 -0.023523489 0.072729684 0.047511987
000340 0a 9a 82 be 16 b2 f3 3d 9e 4a 9c bc 3b d5 2b bf
       -0.25508147 0.118992016 -0.019078549 -0.6712224
000350 58 f2 50 3e c1 b6 dc 3d c8 84 bf 3d 90 53 e0 be
       0.20404947 0.10777045 0.09351498 -0.43813753
000360 a9 a3 19 3e 66 44 b2 3e 9a 78 c8 3e 84 7f b8 bc
       0.15003838 0.3481781 0.39154512 -0.022521742
000370 41 cc f6 3c 5d 77 59 3e 5d 2d ba 3e d2 74 1f 3e
       0.030126693 0.2123694 0.36362734 0.15571907
000380 34 32 d8 bd a4 06 e2 bd 49 dc 17 3e fe 5a 0b be
       -0.105564505 -0.11036423 0.14830126 -0.1360893
000390 a4 5c 97 3e 6c f9 87 bd c6 d2 90 bd fc 9a 66 3b
       0.29562867 -0.0663937 -0.07071452 0.0035187593
0003a0 44 3e 53 3e c2 94 2d 3e de fe ed 3c f8 56 bc 3e
       0.20629221 0.16951278 0.029052194 0.36785102
0003b0 70 a1 d9 3e 6b 6f 85 be 6d b2 8c bd 4d 74 18 3f
       0.4250598 -0.26061568 -0.068699695 0.5955246
0003c0 86 7e 98 bb d4 56 02 3e 6e 23 7e 3e 7a dd ab 3d
       -0.0046537546 0.12728435 0.24818203 0.08391853
0003d0 4b 8f bf be 12 18 26 bf eb a8 95 3e 0e 0b cd bd
       -0.3741401 -0.6488048 0.29230437 -0.10011874
0003e0 a1 76 dc bc d5 3f 80 bd be 17 9e bb 27 1e c2 3d
       -0.026912035 -0.06262175 -0.0048246076 0.09478407
0003f0 b6 aa 15 3e ee 4a 76 3e 08 cb c1 bd cc 5a 7c 3d
       0.14615902 0.24052021 -0.09462553 0.06161003

FC1.bias f4 [400]
000000 aa 5a d3 be 95 b9 8a be 85 e9 1b bf 72 8d d8 be
       -0.4128011 -0.27094713 -0.609032 -0.42295414
000010 45 1e 76 3d d6 ab ad be 8a 63 b9 be ac bc 50 3d
       0.06008746 -0.33920163 -0.36208755 0.05096118
000020 36 08 3d bd 30 f0 32 bf 5f 68 db 3d 6c 83 ad be
       -0.04615041 -0.6989775 0.107132666 -0.3388933
000030 fe 7d 1d bf 53 f1 ac 3d a2 8d 99 be ef dc 6b be
       -0.61520374 0.084444664 -0.2999087 -0.23033498
000040 82 de 93 be 59 fb 05 bf 62 9b c7 be 68 f6 cd be
       -0.28880697 -0.5233665 -0.38985735 -0.40227056
000050 d3 eb 7a 3d 92 cf 09 bf a5 13 82 be ec 6a 42 bd
       0.061260056 -0.5383235 -0.25405613 -0.04746525
000060 6d 11 0f bd 1e cf c3 be 74 58 9b 3d 5a 70 f4 3d
       -0.034928728 -0.38243955 0.075852305 0.11935492
000070 5d d6 ec bd c5 e1 ff be ff 1c d9 be 55 23 5d bd
       -0.11564324 -0.49976936 -0.42404935 -0.053988773
000080 67 71 97 be f7 22 b7 be 80 e4 ae be 0d 44 b2 be
       -0.29578707 -0.35768864 -0.34158707 -0.34817544
000090 a2 7c 8d be 7f 16 de be 35 41 a2 3d 17 81 8b be
       -0.2763415 -0.43376538 0.079225935 -0.27246925
0000a0 bb dd a4 be c1 53 bc be 3f 31 a9 be 7b f1 af 3c
       -0.32200417 -0.3678265 -0.33045384 0.021477452
0000b0 7f 31 d1 be 2f 8a e0 be d2 4e dc bd 7a 97 43 3b
       -0.40858075 -0.43855426 -0.10757221 0.0029844926
0000c0 2a f3 9e be ad 9a 85 be 9a 87 16 bd cf b5 b2 bd
       -0.31044894 -0.2609457 -0.036750413 -0.087260835
0000d0 36 b5 13 bd 36 03 60 be 27 eb 02 be fb 6e 87 be
       -0.036061488 -0.21876225 -0.12785016 -0.2645186
0000e0 43 fa 11 bf ba 4a ae be d6 57 b4 3c 12 bc 04 be
       -0.57022494 -0.34041387 0.02201454 -0.12962368
0000f0 e4 bc 8c be 5e 1a 8d be ac 1e 6a be b0 3d 9d be
       -0.27487862 -0.2755918 -0.22863263 -0.30711126
000100 fe 09 9c be 97 5c 0f be f6 36 c8 3d 50 07 c3 3b
       -0.30476373 -0.14000164 0.09776108 0.0059517995
000110 fc 27 88 bc e4 17 b3 bd 77 99 81 be bb 23 fe bd
       -0.016620629 -0.08744791 -0.25312397 -0.12409159
000120 f9 f3 ac be 74 ae 36 be 2f 50 29 bc a1 10 9f 3c
       -0.33779886 -0.17839986 -0.010334059 0.019417109
000130 bc fd 81 be 40 1b d8 bd d3 b8 0c 3e 2e e6 01 bf
       -0.25388896 -0.105520725 0.1374238 -0.5074185
000140 63 91 c1 be e0 59 07 bf 26 c0 4b be 92 a6 06 3e
       -0.37806234 -0.52871513 -0.19897518 0.13149479
000150 d1 8b 7e 3e 66 06 20 be 2b 45 66 bc 9b a4 d3 be
       0.24858023 -0.15627441 -0.014054577 -0.41336522
000160 a5 0a ae be 49 55 8b bd 37 21 7a be dd b6 96 be
       -0.33992496 -0.06803376 -0.24426733 -0.2943639
000170 49 c4 a4 bd 6f 25 8e 3c f4 5a 6e be c1 7f 18 bf
       -0.08045251 0.017351834 -0.23276883 -0.59569937
000180 d0 5d cd be 5b 02 af bc b5 02 1a be 6d ad 37 3e
       -0.40110636 -0.021363428 -0.15040095 0.1793725
000190 6f 6c 60 3d 8a dd 6a bd 33 b4 c6 3d 30 d1 a6 be
       0.05479091 -0.057340182 0.09702339 -0.32581472
0001a0 e1 e0 21 be 17 03 bf be 59 e1 b3 be 30 92 03 bf
       -0.1580844 -0.37307045 -0.35132864 -0.5139494
0001b0 69 99 52 be 89 d9 06 bf ce 03 08 bf 8b af 8b be
       -0.20566334 -0.5267568 -0.53130805 -0.27282366
0001c0 c2 c2 8f be 65 84 56 be 43 af 37 be 22 a9 6a be
       -0.28078276 -0.20948942 -0.17937951 -0.22916082
0001d0 8b 96 d8 be a1 98 d9 be e0 da 7e be 0c c4 88 be
       -0.42302355 -0.4249926 -0.24888182 -0.26712072
0001e0 d2 20 91 3d e2 c2 67 be c7 c8 4a 3e 6c e2 74 be
       0.07086338 -0.22632936 0.19803153 -0.23914498
0001f0 3f 4f a8 3d db 08 88 be 22 f4 9d bc 89 e3 0b be
       0.0821824 -0.26569256 -0.01928145 -0.13661017
000200 a0 7c 25 3e 15 cf 21 bf 0c b6 85 bd 43 b9 e3 be
       0.16160822 -0.6320661 -0.06528863 -0.4447728
000210 d6 15 bc be 80 46 49 bd eb e0 27 3c 15 9a 11 be
       -0.3673541 -0.0491395 0.010246496 -0.14218934
000220 9e 6c ec bd bf 0b 9d be f3 8c 98 be 8c c0 c8 be
       -0.115441546 -0.30673024 -0.29795036 -0.39209402
000230 3a f6 2c be 50 24 42 be 40 db 89 be d4 8c dd bc
       -0.16890803 -0.18959165 -0.26925087 -0.027044691
000240 d4 86 16 bf 21 8f a8 bd d9 f4 df be d9 02 44 3e
       -0.5879948 -0.08230425 -0.4374149 0.19141711
000250 3d 1d f3 be e8 ad ce bd 05 8c ce be 0a 78 0a be
       -0.47483245 -0.10091764 -0.403412 -0.13522354
000260 6f ee 81 be 2c 9a dd be 3b 83 61 3e 04 ea ff 3c
       -0.25377223 -0.43281686 0.22022717 0.031239517
000270 9d 71 b2 3e 16 f4 2a bd 62 83 34 3d 57 7f 6b bb
       0.34852305 -0.041736685 0.04407061 -0.0035934055
000280 db 20 23 bc d0 de 28 bc a8 dd 70 be a4 35 04 be
       -0.009956564 -0.010307029 -0.23522055 -0.12911087
000290 cb d3 ee be ff df 00 be 7d c1 0c be 66 3c 8f be
       -0.4664596 -0.12585448 -0.13745685 -0.27975768
0002a0 75 08 ad be 7f 2c a1 be c7 20 a7 bc 55 2b 01 bf
       -0.33795515 -0.3147926 -0.020401372 -0.50456744
0002b0 58 47 45 be 5d c9 6a be 14 41 80 3d 3a b0 83 be
       -0.19265497 -0.22928376 0.06262413 -0.25720388
0002c0 c6 0a c1 be 94 65 32 be 9a 7a 43 be 6a 98 a9 be
       -0.37703532 -0.17421561 -0.19089738 -0.33124095
0002d0 59 31 75 be fc 0f a2 be 46 89 8c be 32 56 63 be
       -0.23944606 -0.3165282 -0.2744848 -0.2220085
0002e0 17 96 ef bc a8 bf 7b be 7f a7 b9 be e3 06 2c bd
       -0.029246373 -0.2458483 -0.36260602 -0.041998755
0002f0 0e c9 42 3e 87 3e 00 bf 5a b7 9e be f5 75 c6 be
       0.19022009 -0.5009541 -0.3099926 -0.3876187
000300 80 6e ad bc 67 2f d9 bd 6c ba ae be 47 f4 af be
       -0.021170855 -0.106047444 -0.34126604 -0.34366056
000310 7b d3 15 be 5d 4b d8 3b f9 72 cf 3d 7c 60 63 3c
       -0.14631455 0.006600781 0.10129351 0.013877984
000320 54 64 21 3e 4c 08 91 be 22 78 56 bd 03 b7 b6 3d
       0.15760928 -0.28326643 -0.05236066 0.089216255
000330 1a 51 26 3d 82 2f b6 be 37 d3 a8 be 4e 6b 0d bf
       0.04060469 -0.3558312 -0.32973644 -0.5524186
000340 40 5f 37 bc 7c 2f a8 be c9 4f e3 bd a7 d2 1d be
       -0.011192143 -0.32848728 -0.11099202 -0.15412389
000350 6f f5 9d bd 2d e8 17 bf fa e3 52 be da a7 80 be
       -0.07712828 -0.5933865 -0.20594779 -0.2512806
000360 02 b5 58 3c 56 ce 3d 3e 08 9a 34 3e 8e 9d c8 bd
       0.013226749 0.18535742 0.17636883 -0.09795676
000370 cc 54 7b be b5 d8 5d be 17 8b 16 3d 7a 89 1d bc
       -0.24544066 -0.21664698 0.03675374 -0.0096152965
000380 5e 51 a1 be 7e cc ac be f9 e9 f4 bd b4 1b 1a be
       -0.3150739 -0.33749765 -0.11958689 -0.1504963
000390 a1 19 ce 3d 15 c6 ff bc 6d 21 06 bf 65 90 f2 be
       0.10063482 -0.031222383 -0.52394754 -0.4737579
0003a0 14 76 78 be 53 c4 16 bd 0d f8 9c be e0 32 ce be
       -0.24263793 -0.036808323 -0.30657998 -0.4027319
0003b0 4a 6f c7 be ea 54 90 bc 7f 85 e1 be ba 09 04 bd
       -0.38952094 -0.017618615 -0.44047162 -0.03223584
0003c0 7f 9a 7b bd c3 b9 5e be be 7d 47 be f6 3a 23 bf
       -0.061426636 -0.2175055 -0.1948156 -0.6376184
0003d0 5a 47 2a 3c 97 2a f6 3d d7 9c 7a be 36 77 11 be
       0.010392988 0.12019842 -0.24473892 -0.14205632
0003e0 08 ca 53 be 69 66 62 be f5 57 42 be a8 ea 70 be
       -0.20682538 -0.22109379 -0.18978865 -0.23527014
0003f0 e9 87 ce be 4d 40 ef be 27 60 bd be 5f 65 5c be
       -0.40338066 -0.46728745 -0.3698742 -0.21523045

FC2.weight f4 [300, 400]
000000 04 9b bd 3e 20 f2 2d bf eb a1 8d be 7c 2e a5 bd
       0.3703233 -0.6794758 -0.27662596 -0.08065507
000010 c4 00 5d 3e bb 06 31 be 36 4d 8f 3d 30 7e 99 bd
       0.21582323 -0.17287724 0.06997149 -0.074947715
000020 3c 7c 9a bc 86 f1 3f 3e 7c c5 23 bf b2 d9 e2 be
       -0.018858068 0.18744478 -0.6397321 -0.44306713
000030 3c cf 23 3e 56 fa cf be de e1 fb 3d c5 90 5f 3e
       0.15997022 -0.4062068 0.1229894 0.21832569
000040 ed 70 8b be 51 09 4a bc 7d 37 b5 3e 24 1d 88 be
       -0.27234593 -0.012331323 0.35393897 -0.26584733
000050 9f ea 06 be d6 81 e9 3e ee 6d c2 3e 44 38 9c 3e
       -0.13175438 0.4560687 0.37974495 0.30511677
000060 eb a6 41 bd e5 74 17 3e ad b4 db be d9 aa 15 be
       -0.047278326 0.14790685 -0.42911282 -0.14615954
000070 ae a5 7b be 2d 52 28 bf 24 c4 56 3d dd b9 df be
       -0.2457492 -0.6575039 0.052433148 -0.4369649
000080 28 37 9c be b2 ce 1c 3e 22 a3 78 be 96 ad 53 3e
       -0.3051083 0.15313223 -0.2428098 0.20671687
000090 cd b9 3a 3e fb 4b b6 be c4 7b 8d be 5f e8 d6 3b
       0.1823494 -0.35604843 -0.27633488 0.0065584625
0000a0 06 60 4b be 7a 31 8b 3e 3a 50 b6 3d d0 5a ba bd
       -0.19860849 0.27186185 0.08902021 -0.09099352
0000b0 cc a3 58 3e 58 91 31 3d d7 b5 44 3d 10 0b 0e 3e
       0.21156234 0.0433515 0.04802498 0.13871408
0000c0 a2 8c a5 3d 46 a3 63 bc 27 c9 6b be ec 27 51 3d
       0.08083464 -0.013893908 -0.23025952 0.051063463
0000d0 f9 aa 37 be d8 32 4d be a7 2d 6f 3e 4c 9f a6 3e
       -0.17936315 -0.20038927 0.23357259 0.3254341
0000e0 e2 41 ae 3d ca 18 80 be 43 68 1f be 17 e7 a9 3d
       0.0850866 -0.25018913 -0.15567116 0.0829603
0000f0 56 02 a6 3c 5b 6a 9d be 18 86 01 bd a1 73 9d bd
       0.020264786 -0.30745205 -0.031622022 -0.0768807
000100 7b eb 84 3e 24 96 e6 bd 7d aa 2b bf 7c b7 b3 be
       0.25960907 -0.11259106 -0.6705702 -0.35100925
000110 79 61 6c bd 75 0c ae be f2 b5 0c bf d5 fd b5 be
       -0.057710145 -0.3399388 -0.54965127 -0.3554522
000120 39 37 4b be 27 b4 bd be 53 2d 2c 3d e1 e4 07 3e
       -0.19845285 -0.37051508 0.042035412 0.13270904
000130 4e 6a 42 3e 82 57 e6 3d 86 1a 55 be 9b b3 db 3d
       0.18985865 0.112471595 -0.20810899 0.107276164
000140 fa 4b 3c 3b 8c c4 0b be e0 a7 30 3c 92 3e 40 3d
       0.002873181 -0.13649195 0.010782212 0.04693467
000150 d4 b1 0e bf d0 df 70 bc 66 1d 9d be f3 f4 8b be
       -0.55740094 -0.014701799 -0.30686492 -0.2733532
000160 bd 49 5f be ac ea e6 be 48 56 9c 3e 73 a5 13 bf
       -0.21805473 -0.45100915 0.30534577 -0.5767433
000170 3b fc 68 be c4 33 67 3e 7d e6 53 be ae fe f6 be
       -0.22752468 0.22578341 -0.20693393 -0.4824118
000180 cd 27 c7 3d ca 3a 09 be f8 a2 4f be 5a 92 04 be
       0.09724388 -0.13401332 -0.20277011 -0.12946454
000190 d3 f1 4d be 77 ae 42 3e ba 4b 12 be 4a d4 5e be
       -0.2011178 0.19011866 -0.142867 -0.2176067
0001a0 49 24 9f bd dd c6 a5 3d d0 3c 1b be 9e 49 89 3e
       -0.07770593 0.08094571 -0.15159917 0.26813978
0001b0 35 3a 30 bd 39 2a c7 3e da 3d e0 3e a2 48 db 3d
       -0.04302426 0.388994 0.4379719 0.10707213
0001c0 61 ad 04 bd 9f 06 63 bd 41 02 4e 3c 6e 3f ee 3d
       -0.03239191 -0.055426236 0.01257378 0.11633192
0001d0 73 e7 77 be e1 00 d7 3e 85 57 d7 be cb f2 f1 3d
       -0.24209385 0.41992858 -0.4205896 0.11813887
0001e0 81 78 24 bd 61 ee 9e 3d b8 21 02 bd 51 26 57 bd
       -0.040153984 0.07760311 -0.031770438 -0.052526776
0001f0 b3 15 e2 3d 63 b5 d3 be 20 92 bb bd 4a 9c 7b be
       0.11039295 -0.41349325 -0.091587305 -0.24571338
000200 94 c1 47 be 4e e8 fd bd 8c 4e 73 bd 85 24 7a be
       -0.19507438 -0.12397824 -0.05940108 -0.24427994
000210 c3 5b 75 3c 25 48 46 bd 41 4d a6 be 74 05 1b 3d
       0.014975491 -0.048408646 -0.32480815 0.037846997
000220 3a a8 2a be 85 a3 7d 3e e6 e2 09 bd fe c1 0c be
       -0.16665736 0.24769409 -0.033663653 -0.13745877
000230 ce 5a b3 be 3f f1 63 be 52 51 06 be 23 6a e7 bd
       -0.35030216 -0.22259997 -0.13116959 -0.11299541
000240 dd b5 b4 3e f6 bf a1 3d 08 ee df bd 84 4b 19 bf
       0.35295 0.07897942 -0.10934073 -0.5988085
000250 54 e0 4a 3e ea 76 65 be 90 a4 19 bf 23 cb be bc
       0.19812137 -0.22408643 -0.6001673 -0.023290223
000260 b9 94 9f be b3 27 98 be 25 bf b1 bb eb 2f fb bd
       -0.31168154 -0.29717788 -0.0054243975 -0.12264999
000270 e9 c8 b3 be 3f 52 0a be 47 8e 0c be ba 0b f1 3c
       -0.3511422 -0.13507937 -0.1372615 0.029424537
000280 5a fe f7 be c9 93 58 be 0c 3d bf 3d 0c 98 86 bd
       -0.48436242 -0.21150126 0.09337816 -0.065719694
000290 38 c6 17 3e 36 76 30 3e 91 b4 ba 3b 93 83 4f be
       0.14821708 0.17232594 0.0056977947 -0.20265035
0002a0 7b 15 e2 3d 4a 4f 5b bd 1b d7 fb be 55 d7 74 be
       0.11039253 -0.053542413 -0.4918755 -0.23910268
0002b0 e1 b1 42 be c7 ac a1 3e c6 a9 ba bd d9 de c4 3d
       -0.19013168 0.3157713 -0.09114413 0.09612817
0002c0 a1 60 26 3e fc 61 1f bf 48 a6 c4 3d 8f a9 6c be
       0.16247799 -0.6225889 0.09602028 -0.23111556
0002d0 e5 7f bc 3e 8c c8 a9 be 42 20 89 3c 11 cd ac be
       0.36816326 -0.33160818 0.016739015 -0.33750203
0002e0 64 b6 f0 3c 4f f0 8a bd f4 46 0e be c6 26 d3 3d
       0.029383846 -0.067841165 -0.13894254 0.1031013
0002f0 0c fa 98 be 0c 81 b8 be 07 8a 8b bd 61 ad fe 3e
       -0.2987827 -0.36035955 -0.06813436 0.49741653
000300 db e1 52 be c5 09 66 3e 13 ed 25 be 77 9c 16 3e
       -0.2059397 0.22464664 -0.16203718 0.14708124
000310 57 34 5b 3c ef 19 03 3e ae c6 8b 3e f8 bc b1 bd
       0.013379178 0.12802862 0.27300018 -0.08678621
000320 6d a5 96 be 2a 58 25 3e 71 cf d8 be 01 0d 98 bc
       -0.29423085 0.16146913 -0.42345765 -0.018560888
000330 9e b5 8f be f2 d1 b0 be f9 8f 3b 3e 32 19 96 3e
       -0.2806825 -0.34535176 0.1831664 0.29316097
000340 d6 29 bf be ff 98 04 be cf 7b 0b be 76 f0 1c bd
       -0.37336606 -0.12948988 -0.13621448 -0.03831526
000350 0e 54 76 be 42 57 1c be 2e 68 67 3e 6e ff eb 3c
       -0.24055502 -0.15267661 0.22598335 0.028808322
000360 67 65 58 be 89 6b 1f 3c 9b 5f 52 be 6b 10 5e bd
       -0.21132432 0.009730228 -0.20544283 -0.054214876
000370 47 6a 15 be 81 87 f2 3d 92 d7 9e 3d a4 f5 34 bd
       -0.14591323 0.118422516 0.077559605 -0.044179574
000380 98 68 e6 be 5d 31 43 be d6 39 a7 bd 87 98 89 3e
       -0.45001674 -0.190618 -0.08165328 0.26874182
000390 0f b2 67 3e f4 9c aa 3e da 9f e7 3e 64 00 6c 3e
       0.22626518 0.3332287 0.45239145 0.23047024
0003a0 3b c9 c0 bd d9 54 b5 bd 3b fc 72 3e 4f c2 15 3e
       -0.09413382 -0.08854074 0.23729031 0.14624904
0003b0 67 50 21 3d ef a4 c6 bd 8f d3 97 bd 7c 43 4c bd
       0.03938332 -0.09699427 -0.074133985 -0.049869046
0003c0 ae 47 30 be 4d f5 45 be 2c 80 d0 3e 72 d1 d5 bd
       -0.17214844 -0.19331856 0.40722787 -0.10440339
0003d0 1f 2b 32 3e b4 39 b4 be 44 2c c3 be a2 d8 3e be
       0.17399262 -0.35200274 -0.3811971 -0.18637326
0003e0 37 06 64 3e 55 94 09 be e6 6f 6f 3e 38 a1 85 3c
       0.22267996 -0.1343549 0.2338253 0.016312227
0003f0 f2 fa a4 3d a5 34 81 3e ca 63 30 3e 7c 1d 4e bf
       0.080556765 0.25235477 0.17225567 -0.8051374

FC2.bias f4 [300]
000000 3e 6b cf be 47 43 b9 bc b3 13 87 be 55 b7 b0 bc
       -0.40511507 -0.022615088 -0.26382217 -0.021571795
000010 d7 59 e5 bd 4a a8 36 be 69 8b 99 be e8 8f 80 bd
       -0.11198776 -0.17837635 -0.29989174 -0.06277448
000020 ac 03 65 bd 31 b6 80 bc 1b e9 bd 3d b8 dd 99 be
       -0.055911705 -0.015711876 0.09272977 -0.3005197
000030 76 a9 12 bc d5 86 32 bd 63 0e 5d bd 06 74 7b be
       -0.008951535 -0.043585617 -0.0539688 -0.24555978
000040 f4 37 5a be 75 75 7b 3c ba 64 8b be 5b 48 c6 bd
       -0.21310407 0.015347828 -0.27225286 -0.096817695
000050 78 2d c9 bd e3 1a 5b be 27 a5 64 be 07 f3 51 be
       -0.098231256 -0.21396975 -0.22328626 -0.20502864
000060 09 99 0a bd 11 e7 63 3d 86 48 18 be 91 d2 52 bd
       -0.033837352 0.055640284 -0.14871415 -0.051470343
000070 dc 6a 1f be ff df b0 bd fd 68 84 bc 31 08 af be
       -0.15568107 -0.08636474 -0.016163344 -0.34185937
000080 f2 6c 9b bd 83 a5 48 3d 4e 42 28 be 44 fc 4b be
       -0.07589139 0.04898597 -0.16431543 -0.1992045
000090 e3 a0 5b be cf 5d 91 3c b3 7c 79 be 0d 07 51 bc
       -0.21448092 0.017744927 -0.24363975 -0.012758029
0000a0 45 80 3b bd e0 36 c7 bd 71 cc d8 bd 36 4f bb bd
       -0.045776624 -0.097272635 -0.10585869 -0.09145968
0000b0 be d5 81 bd cf a0 e0 3c 4d 4b e7 bd 09 ec 6a be
       -0.06339596 0.02742043 -0.11293659 -0.22941603
0000c0 3a f0 ee 3d 33 1c 29 3d e2 ce 5a be cd 10 82 be
       0.11666913 0.04128666 -0.21367982 -0.25403443
0000d0 97 85 a2 bb 66 d9 a8 bd e8 fe e4 bd 4a 40 6c be
       -0.004959773 -0.082445905 -0.11181432 -0.230714
0000e0 a4 eb 23 be 71 1f 85 be 48 0f 74 3d fa 5c ae bd
       -0.16007859 -0.2600055 0.059584886 -0.085138276
0000f0 3a 24 70 be 80 fc 33 bd 9c fe d9 be ff 7a a7 bd
       -0.2345132 -0.043941975 -0.42577064 -0.081777565
000100 06 3e de bd 01 aa fc bd 22 3d f0 3d 7d e9 a0 bd
       -0.10851674 -0.12337113 0.1173041 -0.07857034
000110 bc 5c 23 be ef 13 12 be bb d4 fa bd 23 02 b4 bd
       -0.15953344 -0.14265417 -0.12247606 -0.0878947
000120 cc 02 10 be 17 8b 56 be ae b9 0c be cd 47 69 be
       -0.14063567 -0.20951496 -0.13742706 -0.22781296
000130 99 a6 94 bd 3b 15 6e be f5 c0 b8 bb ba 9a 66 be
       -0.072583385 -0.23250286 -0.0056382366 -0.22519961
000140 cf c7 ad bd e2 c2 7c be 5c 7c 6b be 06 78 9b bd
       -0.08485376 -0.24683717 -0.22996658 -0.07591252
000150 a3 09 6d be 1b c6 9f bd 4a 4c a7 3c d0 ca 6d 3c
       -0.23148207 -0.078014575 0.02042212 0.014513686
000160 20 b1 59 3d 46 78 05 be 4a 98 8a be 5a b4 22 3e
       0.053147435 -0.13034162 -0.27069312 0.15889111
000170 20 18 95 3c fd a0 42 be 53 2e cc 3c 12 76 f3 bd
       0.01819998 -0.19006725 0.024924433 -0.118877545
000180 2d f1 1f be 84 81 2e be 71 fd 86 be 15 2f ba bd
       -0.15619345 -0.17041594 -0.26365235 -0.090910114
000190 9a 3e 6a 3d 53 db 80 be c5 45 40 be 59 f3 35 be
       0.057188608 -0.2516733 -0.18776615 -0.17768611
0001a0 0b 4a 39 bd 65 f8 9b bd 2b b6 d1 bc 04 66 6d be
       -0.04523663 -0.07615737 -0.02559956 -0.23183447
0001b0 9d ab 46 be f8 c0 62 3d 3c ea 4e be d9 00 07 be
       -0.19401403 0.05535981 -0.20206541 -0.13183917
0001c0 34 a9 4d be 20 e6 54 be b9 69 e4 be 11 bd 58 bd
       -0.20084077 -0.2079091 -0.4461191 -0.052914683
0001d0 61 21 8c 3d 1f bc bc bd d6 3a f1 bd cb 9e 3d be
       0.06842304 -0.09215569 -0.117788 -0.18517606
0001e0 65 59 0a be 8a 43 94 be e0 9a 82 be e7 d1 98 be
       -0.13510664 -0.28957778 -0.25508785 -0.29847643
0001f0 48 7b 64 be 81 d4 5f be 33 cc 30 be 50 01 1a 3e
       -0.22312653 -0.21858408 -0.17265396 0.15039563
000200 1c 6c 27 be 2f 62 ef bd e2 e2 1c be 69 02 b0 bd
       -0.16349834 -0.11688649 -0.15320924 -0.0859421
000210 70 ac d0 bc 1e df fb bc dc 59 b4 bd 79 38 8b be
       -0.02547285 -0.030746039 -0.08806202 -0.27191523
000220 66 b3 95 be 59 70 c9 3d 9b b7 70 bd 76 94 57 be
       -0.29238433 0.09835882 -0.05876885 -0.21052727
000230 f6 dd 6b be 6a 21 1f be 74 d9 63 3c 7d f8 1b be
       -0.2303389 -0.1554009 0.013906825 -0.1523151
000240 b3 7c b2 bd 3c 9c 18 be bc bc 81 be be 10 6b bd
       -0.08715191 -0.14903349 -0.25339305 -0.057389013
000250 8f 90 49 be 83 15 4e be 3b 4f 93 bd 13 30 54 be
       -0.19684051 -0.20125394 -0.071928464 -0.20721464
000260 97 5e 68 be fb 95 7e bd 94 5f 18 be cf 42 8a bd
       -0.22692333 -0.06215475 -0.1488021 -0.06751024
000270 12 65 44 be c0 7c c3 bd 9f 1c b5 3d 71 f4 34 be
       -0.1917918 -0.095452785 0.0884335 -0.17671372
000280 58 0d bb 3d ab f0 f4 3c e0 a7 e8 be fe 5b 47 be
       0.091334045 0.029899916 -0.45440578 -0.19468686
000290 d8 b4 1a 3d 31 73 3e be 09 99 a8 bd cf 8c 34 be
       0.037770122 -0.1859863 -0.08232314 -0.17631839
0002a0 6b a2 13 be aa 6e 80 be 7d b8 27 be 76 3b fe bd
       -0.14417426 -0.2508443 -0.1637897 -0.12413685
0002b0 d5 67 18 bc e0 ff 77 be 5d 08 cb be 48 d2 59 bd
       -0.009302099 -0.24218702 -0.39654818 -0.053179055
0002c0 0a c6 34 be 4f 60 ac be 6a 24 96 bd 99 78 87 be
       -0.17653671 -0.33667228 -0.07331164 -0.26459196
0002d0 b3 2e 16 be 75 a6 11 bc 50 1d 68 3d 09 a5 0f be
       -0.14666252 -0.008889784 0.05666858 -0.140278
0002e0 f4 1c d2 bd e9 44 83 bd 80 0a ef bd ff ef 90 be
       -0.102594286 -0.06409628 -0.116719246 -0.28308102
0002f0 46 09 09 3e a2 2e 5a be c3 89 2d bd 5c af 14 be
       0.13382444 -0.21306852 -0.042367708 -0.1452002
000300 71 ba 62 be 3d 5d d3 bd f9 ce 29 be 5d 5c bd bd
       -0.22141434 -0.10320518 -0.1658286 -0.092461325
000310 fb 62 87 be b6 3a 22 be b9 3e 6c 3c 1e 6e 91 be
       -0.26442704 -0.15842709 0.014419251 -0.28404325
000320 15 25 95 be be d0 8e bc 7b e2 1d be 38 cf 71 be
       -0.29129854 -0.01743352 -0.15418427 -0.23614204
000330 de b8 38 be 75 f5 1f be 0f 58 49 be c6 36 75 3d
       -0.18039271 -0.15620978 -0.19662498 0.05986669
000340 ec d5 43 be 6c dc 70 be 89 5e 8c 3d 7f cc f2 bd
       -0.19124573 -0.23521584 0.06853969 -0.11855411
000350 24 ed 11 bd 24 a1 fc bd 96 f9 23 bb 7c 8c 22 be
       -0.035626546 -0.12335423 -0.002502059 -0.15873903
000360 5b ac 9e be 30 85 21 3d b3 9f 0f bd 29 a5 ed bd
       -0.30990872 0.039433658 -0.03506441 -0.116037674
000370 da e9 90 be 7c bf 01 be f2 2b 5d 3d 17 41 87 bd
       -0.28303415 -0.12670702 0.053996988 -0.06604212
000380 2b 6c ab 3d d6 e4 e8 bd 1a d6 f1 3c 16 eb 79 be
       0.08370241 -0.11371772 0.029521037 -0.24406084
000390 35 fd 8d be 95 9c 36 bd 08 07 86 be 63 1c 1b be
       -0.27732244 -0.044582922 -0.2617724 -0.15147547
0003a0 1a 2a bd be ab 88 02 be b2 77 ed bd d7 81 8e be
       -0.36946183 -0.12747447 -0.11595096 -0.27833435
0003b0 e3 3e ae 3c 88 f9 20 be 4a 15 3f be ef cd 4a be
       0.021270221 -0.15720189 -0.18660465 -0.1980512
0003c0 6f b0 5c be 8d 0d 57 be 49 2a bd bd 63 8e ae be
       -0.21551679 -0.21001263 -0.09236581 -0.34093007
0003d0 1a 1a 0e be ac a5 5e be d2 4d 3b be 38 d7 cc 3c
       -0.13877144 -0.21742886 -0.18291405 0.025004968
0003e0 12 cb d2 bd 18 ef a4 be 9d 46 39 be c6 e7 34 be
       -0.10292639 -0.32213664 -0.18093343 -0.1766654
0003f0 e9 1e 7e be 82 51 19 bd d4 2b a8 be 41 05 2c be
       -0.24816479 -0.037431248 -0.32845938 -0.16798879

FC3.weight f4 [2, 300]
000000 f4 3b 13 3e 92 54 ca 3e cd 76 e0 3e ea 00 9c 3e
       0.14378339 0.39517647 0.43840638 0.30469447
000010 06 5f d4 3c a1 0a 73 3e 9d 22 69 be e1 84 89 bd
       0.025924217 0.23734523 -0.2276711 -0.06714798
000020 7a 36 2c 3f 23 46 58 3e f0 b7 e5 3d 47 91 b6 be
       0.67270625 0.21120505 0.11216724 -0.35657713
000030 94 5b 1b bd f7 65 83 3e 7a dd 50 be 0b f2 a5 3e
       -0.037929133 0.2566373 -0.20396987 0.32411227
000040 2f ff 24 3d ff bd 84 bd 6a a8 c8 3e 54 3e f6 3d
       0.040282425 -0.064815514 0.3919099 0.12023607
000050 f9 36 de 3e 18 51 74 be 95 dd e6 bd c4 dc 8b bd
       0.43401316 -0.2385906 -0.11272732 -0.06829217
000060 15 7b b0 3e d5 9c ec be d7 fa f2 3d 19 8b 17 bc
       0.34468904 -0.46213403 0.1186425 -0.009249472
000070 d5 20 0f 3e 81 4f aa 3e 33 33 15 be f2 1f c5 bc
       0.13977368 0.33263782 -0.14570312 -0.024063084
000080 aa a6 42 be 79 e4 ad 3e 8c a4 1f bf 3d f6 0c bf
       -0.1900889 0.33963373 -0.62360454 -0.5506323
000090 b8 76 5d 3e ae 82 17 bf e9 eb d1 3e 36 bb 0a 3f
       0.21627319 -0.59183776 0.41000298 0.5419191
0000a0 0c a2 06 3e a0 3a 6a 3e bb 02 46 3e 23 e6 94 3e
       0.13147753 0.22873926 0.19336979 0.2908183
0000b0 f9 1c c2 3e 28 93 73 3e 5a 4d a2 3e d7 88 df be
       0.3791273 0.23786604 0.3169964 -0.43659088
0000c0 df 17 5f bf 2c 67 f3 3c 3f 0a c5 3d 6a e0 11 3e
       -0.871458 0.029712282 0.09621095 0.14245763
0000d0 dd 9c e7 bc 46 79 f0 bc 61 ed 1d 3e 16 0c 96 3a
       -0.02827304 -0.029354703 0.15422584 0.0011447694
0000e0 5b f7 9e be 10 be 59 3e 89 29 a5 3d 42 71 e8 bd
       -0.31048092 0.2126391 0.08064563 -0.11349727
0000f0 f3 49 d3 3e 6e 95 49 3d 0c 26 3a be 39 82 21 be
       0.41267356 0.049214773 -0.18178576 -0.15772332
000100 30 9f 5e 3d b4 90 47 be 70 57 07 bd 58 c2 49 3d
       0.05435103 -0.19488794 -0.03304237 0.049257606
000110 fc 15 84 3e ad 22 c3 3c e6 7a 8c bd 5e 54 0a be
       0.25798023 0.023820246 -0.068593785 -0.13508746
000120 e6 59 4f 3e 9a 5a 98 bd 60 2f 70 bd d3 ca b9 3d
       0.20249137 -0.07439156 -0.05863893 0.09071889
000130 ff 66 b5 3d 8f 14 b6 3e d3 d8 0e bf 0c 5d 3f be
       0.088575356 0.3556256 -0.557996 -0.18687838
000140 b4 9d 13 3e 73 66 82 be 61 cc 35 bd a5 20 03 3e
       0.14415628 -0.25468788 -0.044384364 0.12805422
000150 d5 f0 8d 3e 98 cb 6b be 0e 8d 81 bd 1c 9c 00 3f
       0.27722803 -0.23026884 -0.06325732 0.50238204
000160 3c e1 b2 be bf fb 7e 3e 30 71 c0 be 1f 60 36 3c
       -0.34937465 0.24900721 -0.37586355 0.0111313155
000170 8f d2 a9 be e4 4b 85 bd 85 c1 80 3e 21 aa 72 be
       -0.33168456 -0.065086156 0.25147644 -0.23697712
000180 a4 6d 3f 3e 5d 52 a0 be c7 a8 99 be 70 a4 08 be
       0.18694168 -0.31312838 -0.3001158 -0.13343978
000190 e0 30 fa bd d9 63 d6 3e 4b 8f 15 be c4 ec b9 3e
       -0.122163534 0.41873053 -0.14605443 0.3631345
0001a0 ea 7b d8 3d b5 7a 91 bd 6d 93 a8 3d 7a 0e d0 be
       0.1057051 -0.07103483 0.08231244 -0.40636045
0001b0 31 24 59 3e cb 7e c8 3e 73 80 2e 3f 9f 94 03 3f
       0.21205212 0.39159235 0.6816475 0.5139865
0001c0 2f 2b 1c 3e d5 7f 3b be ad d0 05 3f ee 08 81 bc
       0.15250848 -0.18310483 0.5227154 -0.015751328
0001d0 57 ef 10 be dc ec af be f7 ba b1 3e db 0e 13 3d
       -0.14153801 -0.34360397 0.34712955 0.03590284
0001e0 b3 6b eb 3d c4 7f 93 3e a4 e0 37 3c 1c 98 02 3e
       0.11495151 0.28808415 0.011222992 0.12753338
0001f0 9d 14 47 3f f5 95 15 3f 3c 1f e7 3e 9e f9 19 3d
       0.7776583 0.5843194 0.45141017 0.03759157
000200 bf 65 bd bd 4f f4 cb bd 4d e4 2a 3f 92 23 02 bd
       -0.09247922 -0.099587075 0.6675461 -0.031772204
000210 bf cb 2f 3e 59 b7 47 bf f3 f6 c8 3d 59 68 7e 3d
       0.17167567 -0.7801414 0.09812727 0.062111232
000220 04 30 94 be 10 e2 31 3f 1d da a1 bc b3 52 89 3d
       -0.28942883 0.6948557 -0.019757325 0.06705227
000230 85 a2 26 bf fa 6e 9c 3e 5e e9 09 3e 86 a0 9a bd
       -0.65091735 0.30553418 0.13467929 -0.07550149
000240 fd c6 9d 3e b2 3c 12 3e 04 4a 33 3d c2 a8 7c 3d
       0.3081588 0.14280966 0.04377176 0.061684377
000250 a4 1a 41 3d a5 d9 ae 3d 35 45 9e 3e 42 7b 1d 3f
       0.047144547 0.08537606 0.30912176 0.615162
000260 8f df 72 bf 2f 49 ef be aa 41 ca 3e 2e 05 f5 be
       -0.94872373 -0.46735522 0.39503223 -0.47855514
000270 7a 79 2c be 11 54 83 be 23 3f d9 3d c7 e4 79 bd
       -0.16843215 -0.25650075 0.106077455 -0.061009195
000280 7a 66 0c 3d 94 3c 16 3f 70 9b 42 3f 0a 04 5f bd
       0.034277417 0.58686185 0.7601843 -0.05444721
000290 42 cf dd be 0d 05 e4 3d 2e 49 aa 3d eb 13 2d be
       -0.43322188 0.11133776 0.08314739 -0.1690213
0002a0 1d dd a9 3e 42 c3 8e 3c de b7 4d 3d 91 62 73 3e
       0.3317651 0.01742709 0.050224178 0.23768069
0002b0 2a c9 09 3f 59 a9 7a 3e 18 c5 b4 3e 84 f5 8b be
       0.53822577 0.24478664 0.3530662 -0.2733575
0002c0 87 3b 8a 3e 14 df fd bd a2 98 e8 3d c4 9b e4 be
       0.2699854 -0.123960644 0.113572374 -0.4465009
0002d0 6b c0 52 bf 1c c0 ed bc 60 13 90 3e f6 70 a4 be
       -0.82324857 -0.029022269 0.28139782 -0.32117432
0002e0 92 8b 1a bf e6 75 fc bd 49 a3 cc 3e 04 c6 9d bd
       -0.6036922 -0.12327175 0.39968327 -0.07703784
0002f0 ed 62 4c be 2c 66 91 3e fc 81 e1 3e 5a 6f 16 be
       -0.19959612 0.28398263 0.44044483 -0.14690915
000300 f8 8c 05 be f1 20 e8 3d 0f fd 2d 3f 40 e7 79 3e
       -0.13042057 0.11334408 0.6796426 0.24404621
000310 b1 81 cb bb cd c5 c5 3d 8f b8 8d 3e f2 e2 17 3f
       -0.006210529 0.09656868 0.2767987 0.59330666
000320 83 9b 71 3e 10 bd 69 3d a4 68 81 be dc 17 d7 be
       0.2359448 0.05706507 -0.25275147 -0.4201039
000330 52 5a bf 3e 12 ba a1 3e 8d e7 05 bb 37 ca 81 be
       0.37373596 0.31587273 -0.0020432204 -0.2534959
000340 77 66 9b bd d7 92 05 3f 03 e0 e2 3d d2 fb b6 be
       -0.07587903 0.52177185 0.11077883 -0.35739
000350 ee 86 02 bf a5 96 fd bd d2 0c 84 3e a3 10 8f be
       -0.50987136 -0.12382249 0.2579103 -0.2794238
000360 ec 19 d9 3c d1 02 ec be 89 91 b5 3d ac 86 2d 3e
       0.026501618 -0.460959 0.08865649 0.16945904
000370 62 f1 37 3e 16 ab ac 3d d8 48 d8 3e f9 75 b4 be
       0.17963174 0.084310696 0.42243075 -0.35246256
000380 a3 a6 55 3f b8 e5 2c be 9c aa cc 3e 14 90 43 be
       0.8345739 -0.16884506 0.39973915 -0.1909793
000390 4a f8 f5 be a7 d1 bf 3e 51 be d9 bd 4f 2a 7f 3e
       -0.48040992 0.3746464 -0.10632003 0.24918483
0003a0 6d cb 34 bf cc 0d cf be 91 e9 c2 3d d6 ee 91 3e
       -0.70622903 -0.40440214 0.095172055 0.2850253
0003b0 72 03 50 be 8d a1 86 be cc 5a 2a bc 0a 20 d4 be
       -0.20313814 -0.26295128 -0.010397624 -0.41430694
0003c0 d6 6f 8b bf cd f2 f9 be 6d a0 a3 bd 5e 89 e6 bd
       -1.0893505 -0.48818055 -0.07989583 -0.112566695
0003d0 c4 3c a8 3d 49 52 1a be 29 d7 da 3d bd 55 6c bd
       0.08214715 -0.15070452 0.1068557 -0.057698954
0003e0 f3 42 b5 be 2b 22 0b bd cb 15 5e 3e 0b d9 a8 3d
       -0.3540264 -0.033968132 0.21688001 0.08244523
0003f0 86 80 d7 3e 81 fe 46 3c 48 49 2d be 13 99 23 be
       0.42090243 0.012145639 -0.16922486 -0.15976362

FC3.bias f4 [2]
000000 2e bd 34 3c a9 91 2f bc
       0.011031432 -0.01071588
