results/run000/actor_1_net.pt (torch_old, 525546 bytes, 10 tensors)

BN1.weight f4 [24]
0.4267644 0.42153475 0.28647947 0.47687232 0.91463256 0.8878602 0.33983222 0.18280318
0.5171249 0.31421146 0.05629414 0.2858887 0.17352855 0.5636948 0.69946235 0.19111925
0.5444958 0.48097792 0.6082034 0.24230956 0.86033726 0.83987325 0.20543812 0.6790321
00000000: dd80 da3e 67d3 d73e 70ad 923e 9c28 f43e
00000010: 5c25 6a3f ce4a 633f 7dfe ad3e c230 3b3e
00000020: 4c62 043f 53e0 a03e af94 663d 0160 923e
00000030: 78b1 313e 4d4e 103f f70f 333f c4b4 433e
00000040: 1464 0b3f bd42 f63e 38b3 1b3f ff1f 783e
00000050: 103f 5c3f ef01 573f 5f5e 523e 0cd5 2d3f

BN1.bias f4 [24]
-0.118833475 0.01817249 0.077054836 -0.11697436 0.1216402 0.08912641 0.1259214 -0.1580482
0.2144445 0.053305842 0.15174884 0.013821182 0.5018532 0.10653098 0.01457915 0.18345198
0.15396667 -0.23814583 -0.07459713 0.11670975 0.02414518 0.17236792 -0.32953903 0.1509175
00000000: f75e f3bd 79de 943c edce 9d3d 4190 efbd
00000010: 7f1e f93d e887 b63d 8af1 003e 63d7 21be
00000020: 5797 5b3e 3a57 5a3d 0c64 1b3e 3d72 623c
00000030: 7479 003f ea2c da3d 63dd 6e3c d6da 3b3e
00000040: 70a9 1d3e 80dc 73be 61c6 98bd 8505 ef3d
00000050: 1dcc c53c 3781 303e 57b9 a8be 1e8a 1a3e

BN1.running_mean f4 [24]
-7.3212433 -0.2552841 2.2859843 0.102069005 -0.8120697 3.6508749 2.2859843 0.102069005
-7.400784 -0.26589924 2.489838 -0.028870013 -0.83541304 3.6405969 2.489838 -0.028870013
-7.531026 -0.2859759 2.265153 -0.027915565 -0.9098697 3.6364944 2.265153 -0.027915565
00000000: a047 eac0 99b4 82be 914d 1240 8e09 d13d
00000010: cde3 4fbf efa7 6940 914d 1240 8e09 d13d
00000020: 39d3 ecc0 f223 88be 8159 1f40 ce80 ecbc
00000030: a1dd 55bf 8aff 6840 8159 1f40 ce80 ecbc
00000040: 2afe f0c0 6f6b 92be 44f8 1040 2faf e4bc
00000050: 38ed 68bf 53bc 6840 44f8 1040 2faf e4bc

BN1.running_var f4 [24]
15.414374 0.8265565 335.99136 16.089607 30.2917 2.8045516 335.99136 16.089607
14.9984455 0.8637163 349.24396 15.784113 31.293875 2.9376836 349.24396 15.784113
14.410144 0.9082546 336.6195 15.959038 32.4098 3.1726081 336.6195 15.959038
00000000: 47a1 7641 3599 533f e5fe a743 84b7 8041
00000010: 6755 f241 c67d 3340 e5fe a743 84b7 8041
00000020: a2f9 6f41 831c 5d3f 3a9f ae43 ba8b 7c41
00000030: db59 fa41 0203 3c40 3a9f ae43 ba8b 7c41
00000040: f38f 6641 6083 683f 4c4f a843 3858 7f41
00000050: a3a3 0142 030c 4b40 4c4f a843 3858 7f41

FC1.weight f4 [400, 24]
0.35318542 -0.18146345 0.13824874 -0.01467525 -0.012774303 0.26409084 0.11291161 -0.014098333
0.13071357 -0.38788366 -0.2151514 -0.22519785 -0.024923673 0.0094262315 -0.05085032 -0.35817727
0.15874532 -0.101022415 0.3280686 -0.17261603 0.99998844 -0.15347587 0.38191655 -0.35736746
-0.27801305 -0.028294224 0.43426198 0.053756665 0.32389012 0.1755678 0.3623526 0.029731994
-0.31129637 0.08477892 0.19961737 -0.33684388 0.31989828 -0.15223375 0.21351668 -0.18040742
-0.33250064 0.06559872 -0.11158978 0.033645026 0.08597759 -0.34649193 -0.1586791 0.16218019
0.25210932 -0.015203598 0.39735708 0.2154792 0.12389786 -0.29081246 0.19145317 0.51853776
0.0775192 -0.029425638 -0.30570754 -0.15261613 -0.18715994 -0.0040228465 -0.14601974 -0.21152581
0.12875316 0.35924286 -0.22470406 -0.13355863 0.38602993 0.14458126 0.048340518 0.088303864
-0.18530175 0.372884 0.09566904 0.2666898 -0.28265473 0.008245216 0.059310865 0.30911517
0.0055497517 0.30879825 -0.32331607 0.08050396 -0.34039095 0.17828287 8.223923e-06 0.024881976
0.22724779 0.8418319 0.12711552 -0.0018037248 0.22359003 0.2089496 0.32626203 0.040848635
-0.1317926 -0.11836442 0.011952452 -0.22337972 0.50059867 -0.14837967 -0.020759067 -0.08955867
-0.049663957 -0.1094434 -0.21322374 0.24452482 -0.1565369 -0.047282577 0.04170028 0.08907148
-0.46667022 0.04158049 -0.569286 -0.14716075 -0.032187775 -0.09148406 -0.099234834 0.020400789
-0.02792808 0.1776759 0.123763144 0.23254462 0.35817012 0.0010002746 0.27850914 0.2576721
-0.5100887 -0.07163835 -0.44568384 -0.0584671 -0.098307475 -0.07354287 -0.58752954 0.05977459
-0.48161077 -0.06535923 0.14058551 -0.26501742 -0.42181912 0.09859792 0.17957595 -0.26482493
-0.054033823 0.041631993 0.07533817 -0.0889778 -0.3201905 -0.087217875 0.118257 -0.07884677
-0.49437657 0.010264725 -0.4383855 -0.26786163 -0.42677888 -0.20711483 -0.44771302 -0.4212018
-0.052999385 0.09282126 0.27121258 -0.03551997 0.12966537 -0.2069592 0.44281566 -0.13380004
-0.29506883 0.17182556 0.3771608 -0.29707894 0.3203528 0.0748649 0.37609202 -0.004614536
-0.1584263 0.043850686 0.059563786 -0.10734992 -0.19717656 -0.0640284 0.2838145 -0.07229495
0.0014871773 -0.07547018 0.39767376 -0.016336972 -0.16549897 -0.23324503 0.7690354 -0.052286666
-0.12536958 -0.14712366 -0.122515224 0.22432739 0.032917824 -0.041109443 0.016517466 0.41040102
-0.19226727 0.17090821 -0.17425005 0.49871084 -0.2991174 -0.24050874 0.42938262 0.42893997
0.04182246 0.31024495 0.31892967 -0.31991968 0.2188949 -0.22808667 0.5779659 -0.517104
-0.15898623 0.075024046 -0.35259104 0.12808402 -0.15323357 0.30779013 -0.43295345 0.17927884
-0.057978433 -0.1458976 -0.018813383 -0.04119762 -0.176336 -0.41014102 -0.09518349 -0.26270673
-0.13893373 0.08239777 -0.38171038 0.1368066 0.45093754 -0.25448224 -0.22626413 0.05623281
-0.1041217 0.25750688 -0.002149256 0.09184647 0.06465963 -0.24448954 0.0003782626 0.05140806
-0.099933155 0.11225952 0.013332167 -0.018586377 -0.010994202 0.021383137 0.022781998 -0.09744242
00000000: b8d4 b43e 8ed1 39be 1491 0d3e 7670 70bc
00000010: 4f4b 51bc ea36 873e 343e e73d b2fc 66bc
00000020: c7d9 053e b098 c6be a650 5cbe 449a 66be
00000030: bb2c ccbc 7b70 1a3c 6d48 50bd 0363 b7be
00000040: 228e 223e d7e4 cebd 9cf8 a73e 42c2 30be
00000050: 3eff 7f3f c728 1dbe 918a c33e def8 b6be
00000060: ba57 8ebe 4ac9 e7bc 9657 de3e f32f 5c3d
00000070: edd4 a53e 0cc8 333e 4886 b93e 8390 f33c
00000080: 3d62 9fbe 92a0 ad3d 7f68 4c3e cd76 acbe
00000090: b5c9 a33e 2ae3 1bbe 1ea4 5a3e b9bc 38be
000000a0: 863d aabe 9f58 863d 2f89 e4bd 5ecf 093d
000000b0: 0515 b03d 6467 b1be c67c 22be 9012 263e
000000c0: 7914 813e 8318 79bc 6372 cb3e 94a6 5c3e
000000d0: 29be fd3d 5fe5 94be 4d0c 443e e4be 043f
000000e0: 63c2 9e3d 090e f1bc b385 9cbe 6747 1cbe
000000f0: dba6 3fbe 15d2 83bb 3386 15be 399a 58be
00000100: ded7 033e aeee b73e d218 66be 98c3 08be
00000110: b7a5 c53e 1c0d 143e b500 463d a8d8 b43d
00000120: bebf 3dbe a7ea be3e 21ee c33d 918b 883e
00000130: 1fb8 90be f116 073c f3ef 723d 5844 9e3e
00000140: b1da b53b ce1a 9e3e af89 a5be 43df a43d
00000150: b947 aebe c98f 363e 7bf9 0937 49d5 cb3c
00000160: a5b3 683e 4c82 573f 922a 023e f66a ecba
00000170: c9f4 643e e2f6 553e d10b a73e e650 273d
00000180: a4f4 06be 0c69 f2bd 38d4 433c a7bd 64be
00000190: 3c27 003f d7f0 17be eb0e aabc 896a b7bd
000001a0: 6f6c 4bbd dc23 e0bd 5357 5abe b764 7a3e
000001b0: 364b 20be 60ab 41bd eacd 2a3d 1c6b b63d
000001c0: 66ef eebe 4e50 2a3d babc 11bf 4fb1 16be
000001d0: 54d7 03bd ff5b bbbd a23b cbbd 8e1f a73c
000001e0: 6ec9 e4bc acf0 353e 8877 fd3d 2d20 6e3e
000001f0: 1362 b73e a51b 833a c098 8e3e 99ed 833e
00000200: 2c95 02bf 21b7 92bd ac30 e4be 337b 6fbd
00000210: 6e55 c9bd a59d 96bd 5668 16bf 33d6 743d
00000220: b095 f6be 0fdb 85bd a6f5 0f3e 5db0 87be
00000230: adf8 d7be b5ed c93d c2e2 373e 2297 87be
00000240: 9252 5dbd 4f86 2a3d e64a 9a3d fe39 b6bd
00000250: 02f0 a3be 499f b2bd ba30 f23d 6a7a a1bd
00000260: ed1e fdbe 612d 283c 1074 e0be 2925 89be
00000270: c382 dabe e915 54be a43a e5be c3a7 d7be
00000280: e215 59bd 1319 be3d 60dc 8a3e 637d 11bd
00000290: 00c7 043e 1ded 53be bcb8 e23e e102 09be
000002a0: 4313 97be 0af3 2f3e 381b c13e bb1a 98be
000002b0: 4805 a43e c552 993d 228f c03e 8935 97bb
000002c0: 813a 22be c79c 333d 28f9 733d 46da dbbd
000002d0: a7e8 49be 5221 83bd 2250 913e 600f 94bd
000002e0: 64ed c23a 1c90 9abd e59b cb3e 1dd5 85bc
000002f0: 9078 29be c9d7 6ebe 81df 443f 8b2a 56bd
00000300: e260 00be 96a7 16be 43e9 fabd 14b6 653e
00000310: d7d4 063d 6062 28bd a34f 873c 1520 d23e
00000320: b6e1 44be 9002 2f3e 9b6e 32be 0757 ff3e
00000330: ea25 99be ec47 76be 0ad8 db3e 059e db3e
00000340: 074e 2b3d 6dd8 9e3e c04a a33e 83cc a3be
00000350: fc25 603e 8d8f 69be 93f5 133f ee60 04bf
00000360: 49cd 22be 35a6 993d d086 b4be 7528 033e
00000370: 43e9 1cbe ab96 9d3e 13ac ddbe df94 373e
00000380: cb7a 6dbd 2e66 15be 861e 9abc d6be 28bd
00000390: 6d91 34be 01fe d1be 90ef c2bd 7f81 86be
000003a0: a544 0ebe 29c0 a83d 8b6f c3be 0817 0c3e
000003b0: 49e1 e63e 7f4b 82be c9b1 67be 6054 663d
000003c0: c23d d5bd f1d7 833e 88da 0cbb 011a bc3d
000003d0: 456c 843d 775b 7abe 8c51 c639 4291 523d
000003e0: c1a9 ccbd 52e8 e53d 296f 5a3c 7542 98bc
000003f0: 0721 34bc b02b af3c 50a1 ba3c e48f c7bd

FC1.bias f4 [400]
-0.26588485 0.16575882 -0.36246052 -0.10603171 -0.368224 -0.062401995 -0.400608 -0.30929634
-0.3242487 -0.072156794 -0.08494006 -0.051177386 -0.37195763 -0.135925 -0.42222992 -0.45077115
-0.026679385 -0.22746754 -0.0024443197 0.030764658 -0.15823652 -0.040316094 -0.33067578 -0.20874542
0.028558122 -0.39872545 -0.44735062 -0.14452334 0.073070675 -0.11469236 -0.4053929 0.15795515
-0.35390368 -0.4100357 0.0839681 0.013318546 -0.15304522 -0.37964472 -0.30111876 -0.37219846
-0.07724303 0.22907981 -0.18646456 -0.5179683 -0.42276838 -0.08717541 -0.29154387 -0.20618099
-0.07156926 -0.4337462 0.034011524 -0.50397706 -0.13866827 -0.4106253 -0.31644654 -0.0724461
0.3114608 -0.089539334 -0.2535578 -0.10842522 -0.43771228 -0.31117174 0.19531527 -0.17784242
-0.31531927 -0.36733592 0.100250356 -0.44442555 -0.30340934 -0.2882582 0.09744689 -0.24451971
-0.08259163 -0.518292 -0.15432502 -0.38108796 -0.32431367 -0.27602077 -0.5189895 -0.403076
-0.11801222 -0.3013848 -0.2554752 -0.37712663 0.14711107 0.034403194 -0.1893118 0.025159284
-0.20922768 -0.26007065 -0.10752418 -0.15823105 -0.3601402 -0.07926084 -3.9016453e-05 -0.45012644
-0.3947831 -0.2600946 -0.023513258 -0.25345412 -0.43520197 0.004986156 0.17837314 -0.31391388
0.19724356 -0.370155 -0.17700568 0.15429936 -0.119063 -0.2987073 -0.25504977 -0.5349131
-0.5110023 -0.30011433 -0.49734408 -0.21389976 -0.10983137 -0.3228064 -0.1341626 -0.24540785
-0.05965845 -0.33087793 -0.5066444 -0.073860414 -0.39701906 -0.25402483 -0.3550129 -0.19094469
-0.2366705 -0.21854998 -0.16517378 -0.050589338 -0.3609676 -0.053659137 -0.16166945 -0.040783253
-0.25019407 -0.26190963 -0.18247057 -0.19834086 -0.20169175 -0.3304129 -0.21519165 -0.13163154
-0.22626984 -0.7225391 -0.009616934 -0.36359397 -0.3050478 -0.12902296 -0.510875 0.10691373
-0.120975256 0.086180724 0.103955075 -0.16581893 -0.060299903 0.017586121 -0.2916199 -0.22412395
0.001960567 -0.221894 0.05128935 -0.084609255 0.077490784 0.027039774 0.17860852 -0.14044587
-0.003287691 -0.24279618 -0.22875375 -0.12517594 -0.064395666 -0.22871606 -0.07975816 -0.060507905
-0.2988054 -0.48509786 -0.39669368 -0.24783511 -0.052335937 0.12474564 -0.07019002 -0.23747349
-0.11001078 -0.08627052 -0.55013263 -0.24646275 0.09611625 -0.24232535 -0.18677339 -0.4235957
-0.19356214 -0.033041727 -0.59210086 -0.28852183 -0.09310685 -0.19201046 -0.20762134 -0.2034251
0.17744988 -0.5799053 -0.010502607 -0.48523676 0.18072462 -0.07923179 -0.043633144 -0.07889718
-0.10237384 -0.43676916 -0.036330916 -0.5178668 -0.13213828 -0.33104184 -0.058673706 -0.14190537
-0.09527964 -0.39422345 0.08753778 -0.32078 -0.3572698 -0.2015478 -0.26137483 -0.3870311
-0.49139494 -0.27653316 -0.26126236 -0.11132108 -0.24741767 -0.339811 0.033724997 -0.05719299
-0.24034524 -0.39727083 -0.320422 -0.06616156 -0.13635711 -0.2155792 0.027337922 -0.5202201
-0.035636816 -0.21799502 -0.5501794 -0.08961271 -0.16331613 -0.24612749 -0.37858328 -0.1614138
-0.6295491 -0.2983648 -0.20840243 0.0909025 0.026791679 -0.2694421 -0.24141471 -0.25621516
00000000: 0f22 88be aebc 293e 6d94 b9be 2727 d9bd
00000010: db87 bcbe 3c99 7fbd 7e1c cdbe 175c 9ebe
00000020: ed03 a6be f1c6 93bd 0ef5 adbd 619f 51bd
00000030: 3b71 bebe ec2f 0bbe 852e d8be 7acb e6be
00000040: ba8e dabc 40ed 68be e130 20bb 2a06 fc3c
00000050: c108 22be 7d22 25bd 564e a9be 5cc1 55be
00000060: b9f2 e93c be25 ccbe 240b e5be edfd 13be
00000070: 14a6 953d d4e3 eabd a88f cfbe ffbe 213e
00000080: dd32 b5be 33f0 d1be 78f7 ab3d 0836 5a3c
00000090: e3b7 1cbe cb60 c2be 3d2c 9abe cc90 bebe
000000a0: 9831 9ebd e693 6a3e 91f0 3ebe 9299 04bf
000000b0: 1975 d8be 0589 b2bd 3d45 95be 1c21 53be
000000c0: e792 92bd fb13 debe ab4f 0b3d a404 01bf
000000d0: 0eff 0dbe 7b3d d2be 4805 a2be 9f5e 94bd
000000e0: ca77 9f3e 6660 b7bd 54d2 81be 0b0e debd
000000f0: d31b e0be e751 9fbe ba00 483e 531c 36be
00000100: 8771 a1be 7413 bcbe 0f50 cd3d bf8b e3be
00000110: 7858 9bbe 9496 93be 3c92 c73d 6063 7abe
00000120: cd25 a9bd c9ae 04bf 6107 1ebe f61d c3be
00000130: 710c a6be 9852 8dbe 7fdc 04bf fa5f cebe
00000140: 64b0 f1bd 1c4f 9abe a5cd 82be be16 c1be
00000150: 49a4 163e 5dea 0c3d f4da 41be d81a ce3c
00000160: c83f 56be fb27 85be a335 dcbd 5207 22be
00000170: 4c64 b8be 8253 a2bd 99a5 23b8 f976 e6be
00000180: 0321 cabe 1f2b 85be e09e c0bc bdc4 81be
00000190: cbd2 debe e862 a33b 73a7 363e 52b9 a0be
000001a0: 37fa 493e f584 bdbe fa40 35be a700 1e3e
000001b0: 4dd7 f3bd 2af0 98be e295 82be 11f0 08bf
000001c0: 0cd1 02bf 96a8 99be e2a3 febe 8a08 5bbe
000001d0: 45ef e0bd e146 a5be ec61 09be 324c 7bbe
000001e0: 6b5c 74bd d568 a9be 73b3 01bf 2144 97bd
000001f0: 1546 cbbe 8b0f 82be 40c4 b5be 0187 43be
00000200: c059 72be 91cb 5fbe 5123 29be c436 4fbd
00000210: bfd0 b8be afc9 5bbd ad8c 25be 570c 27bd
00000220: 7019 80be 0519 86be 91d9 3abe de19 4bbe
00000230: 4888 4ebe e12b a9be 335b 5cbe 6bca 06be
00000240: 48b3 67be 53f8 38bf 5890 1dbc fd28 babe
00000250: 3a2f 9cbe 981e 04be b4c8 02bf 96f5 da3d
00000260: e0c1 f7bd 857f b03d 66e6 d43d 70cc 29be
00000270: 08fd 76bd c510 903c 344f 95be c080 65be
00000280: db7c 003b 2e38 63be c814 523d 9e47 adbd
00000290: 7db3 9e3d 8482 dd3c 27e5 363e 0bd1 0fbe
000002a0: 4d76 57bb 909f 78be 6c3e 6abe 1f2e 00be
000002b0: e0e1 83bd 8b34 6abe 3f58 a3bd 23d7 77bd
000002c0: 05fd 98be bf5e f8be 6f1b cbbe 7dc8 7dbe
000002d0: 355e 56bd a47a ff3d c9bf 8fbd 402c 73be
000002e0: 554d e1bd 99ae b0bd 7ed5 0cbf bb60 7cbe
000002f0: 99d8 c43d 2324 78be 8641 3fbe 89e1 d8be
00000300: 2735 46be c356 07bd ec93 17bf 22b9 93be
00000310: ceae bebd 649e 44be b09a 54be ab4e 50be
00000320: 6cb5 353e ac74 14bf 2013 2cbc f470 f8be
00000330: e00f 393e 4744 a2bd abb8 32bd d894 a1bd
00000340: 60a9 d1bd 35a0 dfbe bacf 14bd eb92 04bf
00000350: 424f 07be 517e a9be d753 70bd a44f 11be
00000360: f921 c3bd a8d7 c9be 0247 b33d 473d a4be
00000370: 11ec b6be 8c62 4ebe ecd2 85be f128 c6be
00000380: 1e98 fbbe c195 8dbe 2ec4 85be 4efc e3bd
00000390: 0f5b 7dbe b5fb adbe 3923 0a3d 3243 6abd
000003a0: 101d 76be 1567 cbbe 5a0e a4be b67f 87bd
000003b0: 33a1 0bbe cbc0 5cbe c7f3 df3c 252d 05bf
000003c0: e9f7 11bd 163a 5fbe 8fd8 0cbf de86 b7bd
000003d0: 583c 27be d808 7cbe abd5 c1be a949 25be
000003e0: 212a 21bf 45c3 98be 7267 55be 172b ba3d
000003f0: 397a db3c 51f4 89be 6b35 77be a22e 83be

FC2.weight f4 [300, 400]
0.22535796 -0.46444198 0.1337413 -0.08930306 0.15921772 0.3695022 0.007055386 0.15742567
-0.1298227 -0.09141738 -0.07101325 0.6726062 0.18229432 -0.06835595 -0.077472284 0.26395237
-0.23470835 -0.06562085 -0.17144985 -0.13424808 0.31352842 0.23809354 -0.21689957 -0.108810194
0.02666197 -0.033425435 -0.11735639 -0.010459853 -0.47390816 0.012652495 -0.07891655 -0.4664436
0.19541481 -0.299795 -0.47802377 0.09733884 -0.80620664 0.2431669 -0.1645714 0.011401277
-0.19169866 0.18883866 -0.06569133 -0.33828336 -0.98043406 -0.089219645 -0.050471604 0.3144369
0.17543681 0.034960523 -0.2629686 -0.06664801 -0.1284065 -0.5483908 0.009382614 -0.33145678
-0.1737438 0.042014137 0.27896658 0.10100495 -0.044798568 0.030226672 0.33669004 -0.19529127
-0.06350278 0.0015581159 -0.45840615 0.08629313 0.45372602 -0.3218859 -0.3454933 -0.83543396
0.24458386 -0.18973292 -0.19170098 -0.055720977 -0.21381591 -0.09999102 0.03606972 -0.2018722
0.3564774 0.4001461 0.09803963 0.35854867 -0.18939078 -0.47597513 0.15487093 -0.06518466
0.18350804 -0.19689775 -0.36121476 -0.34121016 0.19053403 0.14255926 -0.23573259 -0.021628352
0.057288084 -0.0136559 -0.7488546 0.2714216 0.17222695 -0.018096061 -0.37956992 -0.13484623
-0.48800337 -0.14124753 0.30824587 -0.21502452 0.21977413 0.2193297 0.20932028 -0.1140929
-0.22291361 0.32384396 -0.113911614 -0.19866547 0.0616583 0.25692198 -0.25493035 0.34379646
-0.4849572 0.025110269 0.021810079 0.12623551 0.27127638 0.11425183 -0.51838464 0.22822319
-0.024578921 -0.02485864 0.15641999 -0.38434917 0.24043609 -0.42883724 -0.107022695 0.027517034
0.0585261 -0.35499272 -0.38334993 -0.3587093 -0.34018353 0.11553963 0.23266105 0.16283928
0.28252888 -0.1352703 -0.26195198 0.05280401 -0.4822356 -0.0674302 -0.1545752 0.30943862
-0.46589863 0.077854276 0.03520512 -0.24263442 -0.02175827 -0.12608388 -0.28941843 0.17930093
0.17864661 0.092664294 -0.47475082 0.038348913 -0.28586376 -0.17501712 -0.4567837 0.33210313
-0.3535698 -0.09160313 -0.05313421 -0.10574137 -0.008455192 0.3080397 0.11693482 -0.19165435
-0.23909342 0.08207352 -0.08389686 -0.008007982 0.037738588 -0.18329 0.11453613 0.20784597
0.11153852 -0.34033847 -0.3979715 0.035650723 -0.5902099 0.38135388 0.14768974 -0.062298562
-0.24435706 -0.35150763 0.17039937 0.030722791 -0.19257954 -0.035477795 0.02247343 -0.17147258
-0.17318323 -0.10459192 -0.14000925 0.13080825 0.057414897 -0.11393195 -0.18188208 -0.24776548
-0.010793269 0.010936412 -0.39311284 -0.3325033 0.008636415 -0.13205276 -0.18770742 -0.13053273
-0.034568746 0.47184125 0.01766896 0.11804975 0.09557774 0.17729875 -0.11800575 -0.9222745
0.14616708 0.23202655 0.49097982 -0.6528123 -0.23802029 0.15516675 -0.16250132 0.34753263
0.11947262 0.56239915 -0.16835073 -0.14326814 -0.20319371 0.43580976 -0.15383057 -0.9004407
-0.0030145412 -0.18239745 -0.25302336 0.09091048 -0.19240272 -0.40602916 -0.16569154 -0.06682357
-0.39814043 -0.01650779 -0.010913075 -0.4745558 0.059430685 -0.07681055 -0.10250056 0.15841545
00000000: 3dc4 663e 57cb edbe 7bf3 083e 86e4 b6bd
00000010: f809 233e 642f bd3e de30 e73b 3234 213e
00000020: 3ef0 04be 0939 bbbd 656f 91bd ec2f 2c3f
00000030: 5dab 3a3e 34fe 8bbd caa9 9ebd c424 873e
00000040: 6357 70be 3964 86bd 8d90 2fbe 5478 09be
00000050: cc86 a03e cbce 733e ec1a 5ebe e1d7 debd
00000060: 346a da3c 1ce9 08bd 8c58 f0bd ce5f 2bbc
00000070: 17a4 f2be 694c 4f3c 009f a1bd b2d1 eebe
00000080: d21a 483e bb7e 99be 88bf f4be 9659 c73d
00000090: 8f63 4ebf be00 793e 6885 28be 6ccc 3a3c
000000a0: a74c 44be ec5e 413e 2d89 86bd 7a33 adbe
000000b0: bafd 7abf cab8 b6bd 50bb 4ebd e0fd a03e
000000c0: b5a5 333e c432 0f3d d2a3 86be c07e 88bd
000000d0: fe7c 03be 5763 0cbf 89b9 193c b4b4 a9be
000000e0: e5e9 31be 0417 2c3d b5d4 8e3e afdb ce3d
000000f0: b47e 37bd ed9d f73c a362 ac3e 6ffa 47be
00000100: bf0d 82bd b239 cc3a 36b4 eabe 74ba b03d
00000110: c74e e83e 3bce a4be 7fe4 b0be 00df 55bf
00000120: 3174 7a3e 5949 42be 434d 44be ae3b 64bd
00000130: 8ff2 5abe 18c8 ccbd d8bd 133d 96b7 4ebe
00000140: 3584 b63e f3df cc3e 00c9 c83d b193 b73e
00000150: a8ef 41be 03b3 f3be 7c96 1e3e 897f 85bd
00000160: 88e9 3b3e 909f 49be 24f1 b8be 19b3 aebe
00000170: 5a1b 433e 0efb 113e e263 71be f12d b1bc
00000180: e9a6 6a3d ffbc 5fbc efb4 3fbf c6f7 8a3e
00000190: 435c 303e 313e 94bc fd56 c2be 2115 0abe
000001a0: 94db f9be 31a3 10be 67d2 9d3e 632f 5cbe
000001b0: 780c 613e f797 603e 0e58 563e 8aa9 e9bd
000001c0: 7743 64be e0ce a53e 7e4a e9bd f66e 4bbe
000001d0: 6a8d 7c3d 478b 833e 3b86 82be 1706 b03e
000001e0: 4f4c f8be 0db4 cd3c 0dab b23c e243 013e
000001f0: bde4 8a3e ddfc e93d dbb4 04bf 57b3 693e
00000200: bc59 c9bc 59a4 cbbc 902c 203e 6ac9 c4be
00000210: e134 763e 8e90 dbbe b72e dbbd 676b e13c
00000220: 10b9 6f3d 9bc1 b5be 7146 c4be bfa8 b7be
00000230: 892c aebe 0ba0 ec3d b33e 6e3e 57bf 263e
00000240: a0a7 903e 4c84 0abe 921e 86be 0549 583d
00000250: 96e7 f6be d818 8abd f648 1ebe bd6e 9e3e
00000260: 448a eebe 1072 9f3d 3e33 103d 2875 78be
00000270: 663e b2bc 221c 01be a72e 94be aa9a 373e
00000280: 23ef 363e c7c6 bd3d 8a12 f3be c013 1d3d
00000290: bc5c 92be b037 33be 8edf e9be 6c09 aa3e
000002a0: 1a07 b5be 6c9a bbbd 42a3 59bd ee8e d8bd
000002b0: a587 0abc 61b7 9d3e 867b ef3d 0a41 44be
000002c0: e8d4 74be 2916 a83d 1ed2 abbd e933 03bc
000002d0: c793 1a3d 60b0 3bbe eb91 ea3d 93d5 543e
000002e0: 4f6e e43d d840 aebe ecc2 cbbe 7e06 123d
000002f0: ff17 17bf d140 c33e fb3b 173e c72c 7fbd
00000300: bd38 7abe cff8 b3be 2c7d 2e3e 5dae fb3c
00000310: 9233 45be 2a51 11bd 331a b83c 8296 2fbe
00000320: f256 31be 4a34 d6bd 965e 0fbe 99f2 053e
00000330: e22b 6b3d 2755 e9bd 4c3f 3abe 3cb6 7dbe
00000340: 40d6 30bc a32e 333c 1646 c9be df3d aabe
00000350: c07f 0d3c d738 07be 6036 40be 5faa 05be
00000360: f597 0dbd 2d95 f13e 7fbe 903c 11c4 f13d
00000370: 43be c33d ce8d 353e 00ad f1bd 2e1a 6cbf
00000380: d3ac 153e 5e98 6d3e b561 fb3e b51e 27bf
00000390: 97bb 73be 08e4 1e3e bf66 26be ccef b13e
000003a0: 10ae f43d 64f9 0f3f 2264 2cbe e2b4 12be
000003b0: 0312 50be 7522 df3e c385 1dbe 4883 66bf
000003c0: 9c8f 45bb 66c6 3abe 478c 81be 462f ba3d
000003d0: 3805 45be 0ee3 cfbe 0bab 29be ccda 88bd
000003e0: 10d9 cbbe 583b 87bc c1cc 32bc faf8 f2be
000003f0: 976d 733d da4e 9dbd d0eb d1bd a937 223e

FC2.bias f4 [300]
-0.14933658 -0.22660267 -0.33894244 -0.09722116 -0.019269573 -0.15212713 -0.055726197 -0.057633303
-0.19537818 -0.054277282 0.23548791 -0.040492833 -0.09321423 -0.45299077 -0.048267633 -0.06842199
-0.01482094 -0.51255524 -0.44014007 -0.14412762 -0.10310381 -0.2343249 -0.28314692 -0.15421082
0.09065066 -0.1237609 -0.08570803 0.0162898 -0.35300103 0.09524684 -0.096360415 -0.11264777
-0.28401658 -0.1458702 -0.28878018 -0.31954202 -0.17150174 -0.31668252 -0.0033779657 -0.31529167
-0.24710397 -0.101379074 -0.16637711 -0.21101852 -0.17273612 -0.14893043 -0.17430863 -0.13387169
-0.123005666 -0.1281237 0.22712235 0.13444105 -0.46540657 -0.07425881 -0.31601295 -0.32466432
0.045307964 -0.10260827 -0.1192141 -0.03775194 -0.0015740147 -0.026762743 0.010929132 -0.17421213
0.035964005 0.12613465 0.10538959 -0.06764256 -0.08223198 -0.15698013 -0.09388693 -0.3740601
-0.0456862 -0.06823708 -0.113060586 -0.1998117 -0.12716414 -0.03329454 -0.003123155 0.21472926
-0.30661392 -0.041224938 -0.15873899 -0.10336504 -0.15962243 -0.28003603 -0.22318807 -0.10052909
-0.14981726 -0.112914786 -0.22341576 -0.0075980444 -0.22608049 -0.3192623 0.004537719 -0.22292095
-0.2560684 -0.2867017 -0.017863158 -0.13838804 -0.15363276 -0.19662574 -0.19000633 -0.29658368
-0.31581917 -0.28303424 -0.15588617 0.058070134 0.060451057 -0.17843385 -0.3181493 -0.17903747
-0.20646274 -0.3093295 -0.059664406 -0.21833026 -0.17527178 -0.22015266 -0.05138822 0.12239781
-0.09571621 -0.09729742 -0.39197773 -0.11320967 -0.24263793 -0.29466915 -0.18749802 -0.27681157
0.105044566 -0.26583156 -0.104879975 -0.17622708 -0.14900076 -0.3677701 -0.17863914 -0.14426862
-0.22429195 0.0018461347 -0.17235573 -0.37136307 -0.35774872 -0.30531552 -0.09310225 -0.26845935
-0.11557446 -0.2968042 -0.12757477 -0.08059363 -0.13651071 0.08466323 -0.4075962 -0.21414922
-0.24413848 -0.19835714 -0.08403291 -0.14233015 -0.33972865 0.09066415 0.025049835 -0.20011486
-0.20869298 -0.05334961 0.21292141 -0.048374247 -0.08911557 0.09460933 0.0011787402 -0.39129516
-0.060974967 -0.07248605 0.103383005 -0.13146165 -0.13250886 -0.11283691 -0.03819726 -0.42184627
-0.31761357 -0.1982836 -0.33452234 -0.3356819 0.11325848 -0.24669795 -0.112927474 0.029657077
-0.13521299 -0.15500753 -0.09837561 0.029423747 -0.21181907 0.032265794 -0.060476214 -0.24004035
0.019171348 -0.25678337 -0.15990895 0.0038484165 -0.33788028 -0.1689243 -0.21143527 -0.18306229
-0.19083998 -0.29501432 -0.28602797 -0.09705619 -0.30928913 -0.44568875 -0.16728798 -0.4276505
-0.3019845 -0.14329022 -0.025740948 -0.027316052 -0.24189451 -0.29337034 -0.082321696 -0.3318445
-0.19296235 -0.07000959 -0.19450475 -0.2936591 -0.25640666 -0.41393414 -0.19262259 -0.27977568
0.041017253 -0.067914076 -0.1215172 -0.2278279 -0.15298767 -0.16400376 0.028047845 0.0024253076
-0.023492744 -0.45558628 -0.21382679 -0.21650897 -0.14866674 -0.19024506 -0.18508343 -0.1538153
-0.17796552 0.035092633 0.05722519 -0.14646338 0.20360227 0.087509744 -0.3057898 -0.016179994
-0.26149383 -0.23749927 -0.17836748 0.016286189 -0.14444019 -0.059153326 -0.420263 -0.06577389
00000000: b0eb 18be 880a 68be dd89 adbe e31b c7bd
00000010: 39db 9dbc 37c7 1bbe 2741 64bd e610 6cbd
00000020: 3811 48be db51 5ebd be23 713e d0db 25bd
00000030: 1ae7 bebd 68ee e7be 48b4 45bd d420 8cbd
00000040: 87d3 72bc d236 03bf 0a5a e1be 3196 13be
00000050: 1728 d3bd def2 6fbe a2f8 90be 71e9 1dbe
00000060: 0ea7 b93d 5b76 fdbd b187 afbd 3072 853c
00000070: 8dbc b4be c610 c33d 9c58 c5bd e0b3 e6bd
00000080: 9f6a 91be ff5e 15be ffda 93be 039b a3be
00000090: 279e 2fbe 3624 a2be dc60 5dbb e96d a1be
000000a0: d308 7dbe d59f cfbd c35e 2abe 3d15 58be
000000b0: bde1 30be 3881 18be f67d 32be a915 09be
000000c0: 65ea fbbd dc32 03be c392 683e eaaa 093e
000000d0: c549 eebe 0115 98bd 73cc a1be 673a a6be
000000e0: d894 393d 4924 d2bd 8626 f4bd c7a1 1abd
000000f0: 2b4f ceba 8a3d dbbc 1a10 333c aa64 32be
00000100: fe4e 133d 7129 013e 7fd6 d73d 2f88 8abd
00000110: 3e69 a8bd 66bf 20be ca47 c0bd ce84 bfbe
00000120: 7421 3bbd e2bf 8bbd 4f8c e7bd 709b 4cbe
00000130: 5137 02be db5f 08bd d9ad 4cbb fde1 5b3e
00000140: 80fc 9cbe 7bdb 28bd 798c 22be 0db1 d3bd
00000150: 1074 23be e260 8fbe 6a8b 64be 32e2 cdbd
00000160: b269 19be de3f e7bd 1ac7 64be 04f9 f8bb
00000170: a581 67be 5976 a3be 25b1 943b 6445 64be
00000180: 661b 83be 91ca 92be c255 92bc 98b5 0dbe
00000190: e851 1dbe 4258 49be 0591 42be d1d9 97be
000001a0: 0db3 a1be dde9 90be a0a0 1fbe f3da 6d3d
000001b0: 879b 773d 5db7 36be 77e4 a2be 9955 37be
000001c0: f86a 53be 7060 9ebe aa62 74bd f891 5fbe
000001d0: 727a 33be b36f 61be 747c 52bd b4ab fa3d
000001e0: dc06 c4bd df43 c7bd 4eb1 c8be 79da e7bd
000001f0: 1476 78be e0de 96be 7bff 3fbe 3fba 8dbe
00000200: 9b21 d73d 131b 88be 50cb d6bd df74 34be
00000210: a893 18be 5d4c bcbe 2eed 36be 27bb 13be
00000220: caac 65be 00fa f13a 057e 30be 4d23 bebe
00000230: d72a b7be 5152 9cbe 64ac bebd 8173 89be
00000240: 4db2 ecbd b8f6 97be f6a2 02be 460e a5bd
00000250: 77c9 0bbe ea63 ad3d 73b0 d0be ef49 5bbe
00000260: 70ff 79be 221e 4bbe 7219 acbd ffbe 11be
00000270: eaf0 adbe 20ae b93d 5035 cd3c e9ea 4cbe
00000280: 9db3 55be 1f85 5abd 1208 5a3e 1324 46bd
00000290: 3982 b6bd 89c2 c13d f57f 9a3a d757 c8be
000002a0: e3c0 79bd 9173 94bd 78ba d33d e29d 06be
000002b0: 67b0 07be 0a17 e7bd bb74 1cbd 3cfc d7be
000002c0: 3f9e a2be db0a 4bbe 8346 abbe 7fde abbe
000002d0: 10f4 e73d 639e 7cbe 8546 e7bd 66f3 f23c
000002e0: 4675 0abe 4bba 1ebe 2779 c9bd 120a f13c
000002f0: 19e7 58be 2329 043d e8b5 77bd 23cd 75be
00000300: 3b0d 9d3c 1c79 83be 2cbf 23be b735 7c3b
00000310: a5fe acbe 7efa 2cbe 7d82 58be ae74 3bbe
00000320: 8e6b 43be 1e0c 97be 4272 92be 65c5 c6bd
00000330: 255b 9ebe 5131 e4be 8a4d 2bbe 02f5 dabe
00000340: b69d 9abe acba 12be aede d2bc eac5 dfbc
00000350: 32b3 77be a334 96be 4798 a8bd 86e7 a9be
00000360: ec97 45be 3061 8fbd 412c 47be 7c5a 96be
00000370: bc47 83be 2def d3be db3e 45be c23e 8fbe
00000380: b501 283d 8916 8bbd 02de f8bd b84b 69be
00000390: cda8 1cbe 9af0 27be 98c4 e53c e9f1 1e3b
000003a0: db73 c0bc 9b42 e9be 69f5 5abe 87b4 5dbe
000003b0: 183c 18be 9acf 42be 8386 3dbe c281 1dbe
000003c0: 983c 36be 4bbd 0f3d f664 6a3d 7ffa 15be
000003d0: 1d7d 503e 4f38 b33d 7b90 9cbe e88b 84bc
000003e0: 85e2 85be 0233 73be f7a5 36be 9d6a 853c
000003f0: 21e8 13be c24a 72bd b62c d7be 76b4 86bd

FC3.weight f4 [2, 300]
-0.4161093 0.4841762 -0.05441248 0.76298 -1.0579085 -0.28081268 0.45450965 -0.47030997
-0.2742462 -0.019893885 0.16121429 -0.48370755 -0.02669833 0.13048646 -0.027974581 0.30003205
0.6482851 0.70677423 0.2148413 -0.20110439 -0.18906187 -0.696331 0.0033789459 -0.25448757
-0.8389881 0.32905808 -0.014366825 0.51229084 -0.49667954 -0.7791219 -0.5950584 -0.25536084
-0.2183104 0.17590804 0.33901536 -0.50430214 -0.38875479 -0.18488128 -0.3530207 -0.058775544
-0.043134715 -0.064328946 -0.27573445 -0.23116975 0.15065625 -0.22592267 -0.095353656 -0.12735495
-0.6494601 -0.080712676 0.24221562 -0.31607413 0.2237033 0.062353615 -0.6213443 0.2901083
-0.48290905 0.27234703 -0.53919417 0.15566689 -0.3218515 0.034773946 0.009013306 -0.48630837
0.17662725 -0.60049105 -0.7001437 0.09196439 -0.3535414 -0.34496063 0.17457332 0.36036
0.12259106 -0.50223374 0.04349116 -0.46990356 0.4441379 0.6169273 -0.06932229 0.40022805
-0.3784504 -0.29578736 -0.14161503 0.112283014 -0.21568324 -0.13903137 0.6394569 0.4704747
0.065500274 -0.17419302 0.5751944 -0.24778357 0.39830983 -0.33532995 -0.3498665 0.11662176
-0.42027488 0.10225659 -0.20314886 0.33258274 -0.014043355 -0.29913712 -0.45988426 -0.31618118
-0.4214438 -0.17160407 -0.16760427 0.11834077 -0.082119316 -0.10639382 0.13580362 -0.19115736
-0.2963965 0.030856287 0.07462172 -0.3336585 -0.17471187 0.18641892 0.677014 0.06315832
-0.3485473 -0.04711681 -0.7666658 -0.33496767 0.29642782 -0.7224618 0.19492583 0.47599864
-0.18543227 0.04922827 -0.1504934 -0.3418093 -0.05833409 -0.1401748 -0.32022232 -0.49803862
0.14151962 0.17262131 0.39225203 -0.12657154 0.10823036 0.29924107 0.032155924 0.67859185
-0.5458956 -0.24318717 -0.3271313 -0.22760642 -0.062115166 0.16543818 0.6204901 -0.19296172
-0.20147255 -0.2444963 0.24257584 0.14594765 0.14872038 -0.051678583 -0.3102537 -0.21444254
-0.87071645 -0.30463198 -0.2134989 -0.024516568 -0.51941663 0.18510336 -0.6070197 0.1641591
0.15062906 0.030355472 -0.21361022 -0.051389806 -0.006638806 0.63251895 -0.14074071 -0.06603383
-0.2067466 -0.61385447 -0.19309139 0.31213644 -0.47637472 -0.20272379 0.8238217 -0.3996883
0.15486962 -0.33930504 0.1056098 -0.47108456 -0.07197366 0.2071623 -0.14500707 0.21827254
0.26132086 -0.33801672 0.11089508 0.030742237 -0.09958394 -0.10032043 -0.2079991 0.19021598
-0.3961317 -0.2597001 -0.11106182 -0.2602921 -0.18094519 0.084869064 0.86394626 -0.04377059
-0.46716842 -0.44639736 0.3628906 0.8470396 0.0959669 0.26268566 0.51524943 -0.16703203
-0.37342095 -0.5682824 -0.4996069 -0.41041908 -0.9220831 0.11462638 0.0014418816 -0.34534198
-0.24735647 -0.30425027 -0.3478212 -0.22850604 -0.55675375 0.028041849 -0.05048721 -0.20611516
0.22135267 -0.57328725 0.07960067 0.22467214 0.0548341 -0.56215674 -0.39777154 -0.48316014
-0.14505892 -0.14156072 -0.92018145 -0.15860854 -0.088883825 -0.31478283 -0.27517426 -0.62880075
-0.5570133 -0.44201174 0.045908127 0.4562545 -0.053983644 -0.34675583 -0.08133846 0.008117368
00000000: 470c d5be f1e5 f73e 9fdf 5ebd a852 433f
00000010: 8c69 87bf aec6 8fbe 7db5 e83e 78cc f0be
00000020: ff69 8cbe 80f8 a2bc 5c15 253e 84a8 f7be
00000030: 75b6 dabc 3e9e 053e f32a e5bc cd9d 993e
00000040: 03f6 253f 28ef 343f 5cff 5b3e 4fee 4dbe
00000050: 6f99 41be c042 32bf 4e71 5d3b 324c 82be
00000060: edc7 56bf 4d7a a83e d562 6bbc 7e25 033f
00000070: c84c febe 8874 47bf bf55 18bf a8be 82be
00000080: c38c 5fbe 3d21 343e 6c93 ad3e f219 01bf
00000090: de0a c7be 8551 3dbe 21bf b4be a0be 70bd
000000a0: 07ae 30bd e5be 83bd 112d 8dbe c3b7 6cbe
000000b0: a245 1a3e 4658 67be c748 c3bd 5669 02be
000000c0: 0443 26bf b04c a5bd 5f07 783e 78d4 a1be
000000d0: 7a12 653e 8166 7f3d 6c10 1fbf 1389 943e
000000e0: db3f f7be 1271 8b3e a108 0abf 2467 1f3e
000000f0: b8c9 a4be 206f 0e3d 8cac 133c 69fd f8be
00000100: c6dd 343e c8b9 19bf 9e3c 33bf d357 bc3d
00000110: 6103 b5be ae9e b0be 59c3 323e 1b81 b83e
00000120: 0611 fb3d 6492 00bf c923 323d 3397 f0be
00000130: 0b66 e33e f3ee 1d3f d8f8 8dbd b1ea cc3e
00000140: 40c4 c1be 7171 97be 8803 11be a3f4 e53d
00000150: 11dc 5cbe 3d5e 0ebe 73b3 233f 0fe2 f03e
00000160: 0225 863d a85f 32be f13f 133f faba 7dbe
00000170: 44ef cb3e 5eb0 abbe b421 b3be 64d7 ee3d
00000180: 452e d7be e76b d13d 4106 50be 4948 aa3e
00000190: 1a16 66bc 8028 99be f375 ebbe 80e2 a1be
000001a0: 7bc7 d7be fab8 2fbe 74a0 2bbe a55c f23d
000001b0: 2c2e a8bd 01e5 d9bd 1b10 0b3e c1be 43be
000001c0: 48c1 97be 53c6 fc3c 46d3 983d 49d5 aabe
000001d0: abe7 32be 9ae4 3e3e ca50 2d3f 2659 813d
000001e0: cb74 b2be 8efd 40bd 3644 44bf e280 abbe
000001f0: 63c5 973e 42f3 38bf a39a 473e 18b6 f33e
00000200: f5e1 3dbe 95a3 493d f11a 1abe a101 afbe
00000210: baef 6ebd fc89 0fbe 2ef4 a3be ebfe febe
00000220: 85ea 103e a4c3 303e 42d5 c83e f89b 01be
00000230: e1a7 dd3d 2036 993e eeb5 033d 32b8 2d3f
00000240: d0bf 0bbf 0f06 79be c17d a7be a811 69be
00000250: 796c 7ebd a068 293e 70d8 1e3f c297 45be
00000260: d24e 4ebe 3d5d 7abe cd65 783e 4d73 153e
00000270: 284a 183e ecac 53bd 93d9 9ebe d396 5bbe
00000280: 46e7 5ebf b9f8 9bbe 759f 5abe f8d6 c8bc
00000290: 7df8 04bf bc8b 3d3e a565 1bbf 5319 283e
000002a0: 813e 1a3e 0aac f83c a3bc 5abe 1e7e 52bd
000002b0: 578a d9bb c3ec 213f 551e 10be bf3c 87bd
000002c0: 61b5 53be 9125 1dbf c0b9 45be 59d0 9f3e
000002d0: 63e7 f3be d396 4fbe fbe5 523f f2a3 ccbe
000002e0: 2496 1e3e 64b9 adbe f349 d83d ff31 f1be
000002f0: ed66 93bd 5b22 543e bc7c 14be d682 5f3e
00000300: d9cb 853e 8710 adbe f61c e33d 25d7 fb3c
00000310: aaf2 cbbd cc74 cdbd b7fd 54be fac7 423e
00000320: c6d1 cabe 69f7 84be 6174 e3bd 0245 85be
00000330: b249 39be d5cf ad3d 952b 5d3f ca48 33bd
00000340: b330 efbe 328e e4be cccc b93e 96d7 583f
00000350: 4b8a c43d bc7e 863e 63e7 033f 720a 2bbe
00000360: 0831 bfbe f57a 11bf 7acc ffbe 7322 d2be
00000370: a30d 6cbf 3cc1 ea3d 85fd bc3a aad0 b0be
00000380: 044b 7dbe b1c6 9bbe 9f15 b2be 7dfd 69be
00000390: 6a87 0ebf 05b8 e53c adcb 4ebd da0f 53be
000003a0: 46aa 623e f4c2 12bf ad05 a33d 7410 663e
000003b0: b999 603d 81e9 0fbf b6a8 cbbe c460 f7be
000003c0: 538a 14be 4bf5 10be 0391 6bbf 476a 22be
000003d0: b908 b6bd 372b a1be a4e3 8cbe 16f9 20bf
000003e0: 6c98 0ebf 5d4f e2be 290a 3c3d 319a e93e
000003f0: f41d 5dbd fb89 b1be c794 a6bd b6fe 043c

FC3.bias f4 [2]
-0.04015189 0.1318308
00000000: 4f76 24bd a7fe 063e
